final_models/LSTM_4_visits_AdmDemo.pt (torch, 705053 bytes, 33 tensors)

weight_ih_l0 f4 [256, 45]
00000000: dd24 66bc 57f0 86bb 9c5b 0cbc 10b1 a93a
00000010: 8785 d7bb b60a d2bc 89cb 113b df15 3abb
00000020: 8395 aabc 8518 4ebb 7c6f eeba 3cfe 96ba
00000030: a02a aabb 9993 c8bc 17df 4e3a 071a 4bb8
00000040: e5b3 c93a 0b80 cfbc 711a 7a3a c04d d63a
00000050: 3085 593b cb4c 11bb 7e53 8ebb ee35 3bbc
00000060: d0ed ffbb 7279 a53a 5a00 353b c425 a7bb
00000070: e1cf 85bb bcb5 7fba 13a0 453b 65f8 103b
00000080: 8b34 1f3a 8f60 59ba 0414 ce3a 9253 863b
00000090: 9961 84bb 897b cc3b 60f2 fe39 ed40 96bb
000000a0: 6974 33bb 9cb1 5d3b 0545 91bb 797e efba
000000b0: 4d3d 82bb becf 303c 3e94 89bd 9ef0 f3bb
000000c0: b32f 0e3c 033d 7dbb 7f21 06bb 4538 69bc
000000d0: 213a fbbc 71db 4a3d 0a6c 2f3d fe6f 5c3a
000000e0: 9b43 6e3d 8c1a 64bc c412 193d 424b 993c
000000f0: 3e1e 993a 711c 43bc fc6e e23d 21f7 c0bc
00000100: 6520 053d dfc0 b93c 3107 163a 0069 3a3b
00000110: 82c3 00bd b5cb d73b 5bb8 7c3c 4a7c ef3c
00000120: 9f2e adbb 5001 a5ba 0da1 8bbb c4b5 243c
00000130: 7adb a3bc 3d67 a13c 5ca9 7b3a 3876 08bc
00000140: db48 93bc a6e7 82bc 5a0c 3d3d 1037 a53b
00000150: 9fbf 9d3c 8f8d 83bb 8d4f 5d3c 0a0b 8fbc
00000160: 2389 c3bb 824b ad3b f051 45bd 915d 3cbd
00000170: d0de 08be 5984 38bd fd4c 213d d475 0dbb
00000180: e32e 80bd 3300 36bd 7f19 1a3e a9f2 e53d
00000190: bdc6 e73b 1b04 0c3e 0003 0d3d f76b eb3d
000001a0: b982 da3d a4a0 593b 86dd 04bd 16f4 2a3e
000001b0: 706f a23c 19e6 e73b 95be a4bc 0099 28bc
000001c0: 7b40 06bb 2223 37bc 0542 10bd 2606 9d3d
000001d0: b012 863d 8f44 4ebc 4d54 ca3a 834d be3b
000001e0: c888 c1bc 0dd3 9ebb 7a6f c83d 26d9 9e3b
000001f0: 4623 05bc 3041 f53c adf9 06bc 958b eb3d
00000200: 072b 3ebb b575 8f3d 61f7 f7bb 4392 eebc
00000210: 5eb1 603b 8f50 39bc 390c e0bc c705 bfbd
00000220: 5b37 033c 3a9f 0fbd 21a3 143d 122b 123b
00000230: 14ac a9bd 8637 c8bc abde 9fbd eef5 b83d
00000240: 7b5f 573d 3bcf 70ba 5a46 97bb 3b04 853c
00000250: 9a99 243e a471 363d 9084 563c 01e6 f03c
00000260: f4ba 8c3d 6482 ef3c 331e 01bd 4936 4bbb
00000270: 756a 8abb 02b2 80bc 934e acbb 33b8 e1bb
00000280: 5d6b 18bc ebab e5bc a24c bcbc 1735 023a
00000290: 8ee4 deb9 2e91 82bd 6440 213d fcc7 363d
000002a0: 7d7f 7f3c 44aa 183a 652a 26bb 11a3 853b
000002b0: b509 1fbc 04c7 b5bb 9112 fa3d 6569 ca3b
000002c0: 490b 033d 6a64 e83b 0196 a2bc 08d5 35bb
000002d0: 96be 54bd 4f0e 0e3d 103a 0cbd 0fca acbc
000002e0: 037f 543d 4b44 45bc 4dda 343c 533e 073d
000002f0: 6fb0 013e b791 cd3d 135b 1d3c f13a 233d
00000300: 07e8 c6ba e2c9 3d3e ce3d 843c 062c de3c
00000310: 5e65 9c3d 60b0 e73d 888b 34bb 845f eb3c
00000320: 8479 ca3b 58ae 22bb 936e 173d 130b 12bc
00000330: 1ee5 e73c 8826 5d3d 2897 2fbb 0af6 373b
00000340: 6c47 e93b 2d59 6fbb 97ca 4bbc ca34 0f3c
00000350: 3500 acbc 8615 0a3d cf9f 783b d98b 51b9
00000360: 3a28 ae3c 529b 5bbc 8086 2b3d 2627 4b3d
00000370: fb03 bbbb 5906 213c a14a a33b b144 973c
00000380: 353a 15bc ccc6 313d a82f d13d 7f9d 773c
00000390: 6606 bb3c cd69 87bc e4c2 a43c 57e4 c5bc
000003a0: e47d 153d 0a4f 1b3d 3deb 323d 8e20 57bb
000003b0: dd93 6c3d dafc 013b 5689 543c 3fd3 203d
000003c0: 9e31 4e3c e8e1 c23c 782f 96bc b87e cabc
000003d0: 3a12 3dbd a194 8abc e75b b03a d5e2 943c
000003e0: 843d 6bbb 9740 4f3c 5871 0b3d 222f 23bc
000003f0: 862c 9cbb fdb5 fb3b 19f4 4e38 ea87 513c
-0.014046875 -0.004118006 -0.008566763 0.0012946445 -0.006577197 -0.025639873 0.002224656 -0.0028394384
-0.020823246 -0.003144772 -0.0018191184 -0.001151986 -0.0051930696 -0.024484443 0.00078915193 -4.842321e-05
0.0015388696 -0.02532961 0.0009540683 0.0016350076 0.0033190958 -0.0022171016 -0.004343449 -0.011426432
-0.007810332 0.0012624695 0.0027618618 -0.0051009376 -0.004083619 -0.00097545586 0.0030155226 0.002212071
0.0006073198 -0.00082922814 0.0015722518 0.004099318 -0.004039955 0.0062403125 0.0004862724 -0.0045853765
-0.0027382618 0.0033827787 -0.0044332766 -0.0018271945 -0.003974593 0.010791717 -0.06717728 -0.0074444553
0.008678365 -0.0038641102 -0.0020466743 -0.014234607 -0.030667366 0.049525682 0.042827643 0.0008409022
0.058169942 -0.013922345 0.037371412 0.018712644 0.0011681987 -0.011908636 0.11056325 -0.02355534
0.032501597 0.022674976 0.00057231175 0.0028443933 -0.03143645 0.006585563 0.015424813 0.02923407
-0.0052850987 -0.0012588892 -0.004261142 0.010053102 -0.020002116 0.019702548 0.00096001267 -0.008328967
-0.017979076 -0.0159796 0.046154357 0.0050419644 0.019256411 -0.004014678 0.013507736 -0.017461319
-0.0059672757 0.0052885422 -0.048173845 -0.04598767 -0.13366246 -0.04504809 0.039380062 -0.0021585124
-0.06258943 -0.044433784 0.15048788 0.112279244 0.007073252 0.13673441 0.03442669 0.11495202
0.106694646 0.0033207322 -0.032437824 0.16694674 0.019828528 0.0070769903 -0.020110408 -0.010290384
-0.002048521 -0.01117781 -0.03521921 0.07667188 0.06546533 -0.012589588 0.00154365 0.00580758
-0.023624793 -0.0048469366 0.097868875 0.0048476635 -0.008126086 0.02993831 -0.008238238 0.115012325
-0.0029017346 0.07004873 -0.0075673317 -0.029122477 0.0034285407 -0.011310711 -0.027349578 -0.09327274
0.008008803 -0.03506396 0.036288384 0.0022303504 -0.082847744 -0.024440538 -0.078061424 0.09031282
0.05258129 -0.0009186153 -0.004616541 0.016237369 0.1607422 0.04454197 0.013093129 0.02940655
0.06871596 0.02923698 -0.03152294 -0.0031007698 -0.0042241164 -0.01570988 -0.00525839 -0.0068884133
-0.009302941 -0.028036078 -0.02298576 0.00049670174 -0.00042513426 -0.06375347 0.03936805 0.044624314
0.01559436 0.00058237114 -0.002535486 0.004078277 -0.009706904 -0.005547406 0.122105725 0.006177115
0.031993184 0.0070920484 -0.019846918 -0.0027745385 -0.05193957 0.034681614 -0.03423506 -0.021092443
0.05187894 -0.012040208 0.011038375 0.03301842 0.1266496 0.100375585 0.009604233 0.039851133
-0.0015175351 0.18534043 0.016142752 0.027120601 0.07636522 0.11312938 -0.0027548987 0.028732069
0.0061790366 -0.0024823155 0.036970686 -0.008913773 0.028307494 0.053991824 -0.0026792977 0.0028070235
0.00711911 -0.0036521659 -0.012438438 0.008740613 -0.020996192 0.033711933 0.003793705 -0.0001998389
0.021259416 -0.0134037305 0.041876316 0.04959788 -0.0057072616 0.009828174 0.0049832617 0.018465372
-0.009108116 0.043402478 0.10214168 0.015113234 0.0228302 -0.016529942 0.020112462 -0.024156732
0.03649701 0.037917174 0.043681372 -0.00328258 0.0577582 0.001983455 0.012972197 0.03926396
0.012585072 0.023789361 -0.018333182 -0.024718627 -0.04615996 -0.016916575 0.0013455123 0.018174568
-0.003589482 0.012649677 0.03404364 -0.009959968 -0.00476605 0.007681607 4.934156e-05 0.012788752

weight_hh_l0 f4 [256, 64]
00000000: a335 feba b02d 7fbb cea4 25ba dce5 35bb
00000010: b2f0 9f3b 0984 fd3a ac2e a43a 2c49 78bb
00000020: 42b4 24bb c151 6d3b b774 bf3a 25ea 52bb
00000030: ec44 ad3b 08d9 b03b 4349 1c3b 1f04 753b
00000040: 5225 283b c69e db38 50d2 8cbb c2a5 5fbb
00000050: 59b0 7dbb 3cb1 3438 5a30 49bb 1d37 14bb
00000060: 520b 0b3b 18b8 7d3a 6814 e83a e650 68ba
00000070: 3ac7 8aba 6d40 aabb a081 db3b 1775 c93a
00000080: 5b27 95bb ff7c e73b 3ebf 8ebb ebbe b8ba
00000090: 5901 e73a 7bef 8d3b 825f 58bb d3a3 5b3b
000000a0: 8b5a 69bb 8862 89bb 86b3 483a a861 8c38
000000b0: fce8 8b3b d0ca 9abb 8131 a73b d94d de39
000000c0: 8154 99bb 54a9 a93a 1543 90bb c376 9fba
000000d0: 1ced f73a c611 96bb 8d39 4fbb f5b9 2cba
000000e0: 3695 ae3b 6fc8 82b9 5487 01bb 32bb 6abb
000000f0: 9580 333b 0bfd 44bb 15eb b3bb fc86 baba
00000100: 5327 0abc c2b9 57bc a56f e8bb eaf9 34bc
00000110: dd61 3a3b c8dc 943b 478f 91bb a9e8 69bc
00000120: 0b63 87bb 4956 883b af15 063c 8ffd 91bc
00000130: 6357 a73b 1cb2 f53b 0650 fc3b 715b f038
00000140: 49fc 2e3c ec9c 9abb 74ba 2ebc 7354 91bc
00000150: d87c 3fbc a53c cd3a 96c1 2fbc d4cb d5b7
00000160: fef1 d53b 41d8 aebb f710 553c 8ec9 12bc
00000170: 370a f1bb 8ed2 83bc ce66 453c 5d4b 7a3c
00000180: 8da9 59bc 8e3c 4a3c 3631 5cbc 55f5 18bc
00000190: 691c 40bc a1d2 cd3b 768b 48bc fbeb 753c
000001a0: cd5a 0ebc 6ece 05bc 0fbe 99bc f36d 23bb
000001b0: bf75 003c 26e7 5bbc 53c8 e03b e5a3 abba
000001c0: 7176 90bc dc3e 28bc 9bee 54bc dd35 40bb
000001d0: e1e5 d8ba a411 09bc ebce 08bc 10d4 073c
000001e0: 5f5c 1c3b 8063 f0bb 38a3 6fbb 2f1b 58bc
000001f0: d35c cabb ff1a 1cbc d6d3 94bc df19 cdbb
00000200: f46a ebb8 e9e0 043c 96ff 1a3c 3f4a debc
00000210: 2c11 133d 3a63 333c d05e 623c 0f1a b83c
00000220: ba48 febb ec4a 463c 2d3a 3dbb 095d e3bb
00000230: d1b2 b43c ba48 f83c a26c 563c 8262 423c
00000240: c22e 88bb 619d 0e3c 0284 25ba 56bf 0a3c
00000250: 230d abbc c950 5d3b e601 68bb f377 55bc
00000260: 6b10 a43c 37be 15ba 188d cb3c 393d 0d3a
00000270: 3c9a 85bb fd52 2dbb 148f fc3c 62fc c53c
00000280: 31e5 ddb9 4b39 2b3d a3a1 d6ba 1ff2 28ba
00000290: 76a2 2f3c af0b 493c 6a1e 4d3b 2f98 823c
000002a0: 94bb a4bb 764f 93bc 68c2 073c 9a3d 8e3c
000002b0: 9eb0 fb3c 4d66 52bc 299a 6f3c ca42 a03c
000002c0: 131d 2b3c 8cdd 83ba 1f58 9c3a 3620 263c
000002d0: 6e0d e63c b1ac 64bc 9e46 04bb 3932 24bc
000002e0: 3ff2 b03c 7a8a b33c 85cf 4eb9 b99d 4e3a
000002f0: 3721 623c dd3a 08bb 7d15 c0ba d871 4ebb
00000300: 42f5 953b 8692 6f3c 1c59 b9bc bcaa 673c
00000310: 1e87 78bb 92be 30bb 955b 1d3c 42d4 413c
00000320: 6e05 203c d626 53bb bc60 36bb 1a0d 8f3c
00000330: 0964 5cbc 14d1 aebb 2c0e e53b 1017 89ba
00000340: efe8 c0bb 6f55 9ebc 3bc1 933b b62c a83c
00000350: 2ead 803c b1bb f7bb 44d4 143c cac9 813c
00000360: 5472 33bc a8da 56bc 6173 923c 1f4f d1ba
00000370: e87b e6ba 6738 a83c 82bb 8f3b f35b 293b
00000380: b174 773c 16cc 15bb 9067 033c 9223 13ba
00000390: 34f4 f0bb 4921 dbbb 8f77 d23b 5c39 6bbc
000003a0: efc7 1f3c 3fd4 623c 1d22 6f3c 3f49 053b
000003b0: 1c6a d6ba fdc7 9c3c f81e 07bc 7669 d3b9
000003c0: 74da 0e3d 7f75 db3b 8faa 473c 333d 21bc
000003d0: c705 ecbb df3c 6b3c 9040 093c 5c90 193c
000003e0: 1356 d13b bb6d 863c 32fe d43b 6522 2c3c
000003f0: c1dd 833a 2404 153c 6eee a13c 8312 c33a
-0.0019394647 -0.0038937144 -0.00063188083 -0.0027755415 0.004880988 0.0019341718 0.0012526116 -0.003788541
-0.0025131856 0.003621206 0.0014606927 -0.0032183018 0.005287757 0.005396966 0.0023847378 0.003738649
0.002565701 0.000104723076 -0.004297532 -0.00341259 -0.0038709848 4.3080407e-05 -0.0030698986 -0.0022615858
0.0021216464 0.0009678616 0.0017706277 -0.00088621525 -0.0010587939 -0.0051956684 0.006698802 0.0015369979
-0.0045518107 0.0070644612 -0.004356294 -0.0014094984 0.0017624303 0.004331527 -0.0033015911 0.0033514395
-0.0035606946 -0.004192654 0.00076561456 6.69391e-05 0.0042697173 -0.004723884 0.005102337 0.0004240114
-0.004679263 0.001294414 -0.004402528 -0.0012166131 0.0018915269 -0.0045797555 -0.0031619996 -0.0006588989
0.005327846 -0.00024944867 -0.00197645 -0.0035817144 0.0027389873 -0.0030058052 -0.0054906704 -0.0014230902
-0.008432227 -0.013166847 -0.007093387 -0.011045912 0.0028439679 0.0045429207 -0.004442129 -0.014276662
-0.00413168 0.0041606766 0.008183881 -0.017821101 0.005106853 0.007498039 0.007699969 0.00011461124
0.010680267 -0.0047184136 -0.010664571 -0.017740464 -0.01168748 0.0015658332 -0.010727307 -2.5486494e-05
0.006529092 -0.005335838 0.013004533 -0.008959187 -0.007355954 -0.016091611 0.012048436 0.015276757
-0.013285053 0.012343539 -0.013439467 -0.009335835 -0.0117255235 0.0062812124 -0.012240281 0.015009875
-0.008688641 -0.008166892 -0.018767385 -0.002493736 0.007840573 -0.013421809 0.006859818 -0.0013095109
-0.017634602 -0.010268893 -0.012996341 -0.002932898 -0.0016548001 -0.008366022 -0.008350114 0.008290306
0.0023858768 -0.00733608 -0.0036565792 -0.013190075 -0.0061756163 -0.009527921 -0.018167417 -0.0062591876
-0.00011225595 0.008110263 0.0094603505 -0.027135013 0.03590505 0.01094895 0.01381655 0.022473363
-0.0077601345 0.012102824 -0.0028873787 -0.006938581 0.022057923 0.030308116 0.0130874235 0.011864306
-0.0041559646 0.008704514 -0.0006313921 0.00846847 -0.020880288 0.0033770076 -0.0035401522 -0.013029086
0.02002736 -0.0005712243 0.024847552 0.0005387846 -0.004077224 -0.002644717 0.030829944 0.024168197
-0.00042323166 0.041802686 -0.0016375076 -0.000644477 0.010719886 0.012270852 0.0031298646 0.015941707
-0.005027244 -0.017982226 0.008286096 0.017363358 0.030723866 -0.012841773 0.014624157 0.019563098
0.010443944 -0.0010060533 0.0011928118 0.010139516 0.028082576 -0.013957188 -0.0020183693 -0.01002174
0.021599887 0.021916617 -0.00019722998 0.0007881779 0.013801864 -0.0020787038 -0.0014654842 -0.0031500962
0.004576356 0.014622336 -0.022625498 0.014139827 -0.0037922333 -0.0026969058 0.009604354 0.011830391
0.00976692 -0.0032219193 -0.0027828654 0.017462302 -0.013451585 -0.0053349826 0.006990215 -0.0010459144
-0.005887143 -0.019327847 0.004509119 0.020529132 0.015707579 -0.0075602164 0.009083811 0.01584329
-0.010952551 -0.013113655 0.017877283 -0.0015969014 -0.0017584534 0.020534707 0.0043863663 0.002584216
0.015103505 -0.002285724 0.008020297 -0.00056129054 -0.00735333 -0.0066873175 0.006422944 -0.014356937
0.009752258 0.013844549 0.014595536 0.0020337848 -0.0016358527 0.01913833 -0.00824713 -0.0004032363
0.034876302 0.0066973562 0.01218666 -0.009841251 -0.007202837 0.0143577745 0.008377209 0.009372797
0.0063884347 0.016409745 0.006500029 0.010506247 0.0010060595 0.0090952255 0.019767012 0.0014882836

bias_ih_l0 f4 [256]
00000000: b67d b1bc 4fb2 043e 66f4 503e 2727 0a3e
00000010: 5bfc 5c3e 73b8 823d 3b7c 1b3e e4e1 013e
00000020: 377b 403c 3d15 cd3d 6d2c ca3b adda 4a3e
00000030: a1a9 123e 779e 343e 30a6 853d db2b 253e
00000040: 8402 8e3c 892c 843e ba11 d63d 46f8 2d3e
00000050: a013 f23d b055 d63c 2fbd 053d e0b3 8d3d
00000060: 10cc 333e 0462 5db9 41cf 773e 891b 083c
00000070: d26b e93c 157a 8e3d 1a17 763e e695 183e
00000080: 55eb b03d 39fc 703e b883 c33d e0a7 313d
00000090: 68e5 e13d 19d0 243e f5da 093d 46ff 1d3e
000000a0: 2187 943c ba60 df3d cc17 283e 6e37 393e
000000b0: cd48 0b3e 2d30 8a3d f11b ef3d ecbd 103e
000000c0: 65be 253e 7216 a03d 5eb9 1f3e 542a fb3d
000000d0: d39d 393e 31c6 d83d fa80 483d 5382 8c3d
000000e0: 28a1 453e ac7b 443e 9a5b 5dbc 3984 173d
000000f0: e2ba 5f3e ee91 b03c 2ebe f03d ccba 13bc
00000100: 9bf5 42bc 0029 193d dd6d a63d 7a45 9d3d
00000110: 42e6 333b f7c3 1abc 000c f63b 2508 0a3d
00000120: 9756 a2ba b54d e23b 3a26 6ebb c2a3 a43c
00000130: b91c 853d 8172 063c f763 e03a b5e2 253d
00000140: 2062 0bbb a03c 853d 2dc8 293d 81a3 773d
00000150: f6be 643d 6145 bfbb fc12 e93a 5718 373d
00000160: 5619 06bd 5b43 e3bb 48b1 283d 70f1 7ebc
00000170: 72ff 2e3a e062 273d 4ae8 5e3d a0bb 073d
00000180: ac9e 863c c302 05bb 6505 7d3c 5e17 acbc
00000190: 4832 e93b 6e61 1bbd 3cb6 02bc c1e7 143d
000001a0: b5be c83b 49e8 f73c 8ecd 083d 0193 073d
000001b0: 36c3 343c de46 cc3c 5124 513c 3aa2 ac3d
000001c0: 9ec3 e93d 98e5 eb3c 8bb7 233d d271 853d
000001d0: 118a 9a3d 7b64 413d 14b7 ef3b 25dd f73c
000001e0: e627 453d 258c c63d a571 a7bb 4b3a 66bc
000001f0: d852 3f3d 5e3a a83a 4817 233d acca dbbb
00000200: c9a8 523d 5f2e f93d fed4 8c3d c24c 603d
00000210: 1425 433d d8fe fc3d 55dd db3a 08fa 9b3d
00000220: ffcb 5d3c 26e6 7d3c 2aeb 92bd 89d9 0c3b
00000230: bbdf 573d 559e bb3d 9e3f 0cbd e568 003d
00000240: e119 98bd b8e4 e83c 958e cd3b 72b6 373e
00000250: a130 093d cfc2 4c3d 0c6d ad3d 9dbe e23a
00000260: 2517 853d d587 85bc f1b6 123e 789a 233c
00000270: dfd4 493d 807c fc3d 5103 aa3d e2fa b6bc
00000280: 69b3 e03d e75a c93d b57d 303d 9493 08bc
00000290: ef3a 9dbd a047 e73b 9784 853d f4a2 d33c
000002a0: 789c 803d 3052 6c3d 9e84 cfbc 37b6 923c
000002b0: 670d c43d 3b83 933c a8d3 113d 6246 fd3d
000002c0: a92d a73c a10f 153d 7d00 593d 3ad0 93bb
000002d0: 4772 cb3d 5a60 c03d 766b 91bc ecde 30bd
000002e0: ea74 bf3a 5ffa 673d 09f6 58bc 2f2f 233d
000002f0: dc73 ea3b 3b6c db3b 779c ff3d 6926 343c
00000300: 3d24 5cbc 01d4 ac3d 34c9 3e3e 82f4 023e
00000310: beae 6b3e 66e3 8c3d e0dc 213e ad96 463e
00000320: 6979 c23b 8127 093e eb1f b73b f87c 583e
00000330: 6833 183e 212f 2b3e 46e1 ad3d b419 4b3e
00000340: 7e3c 8f3c 6b7a 6b3e f61c 443d af4c 3b3e
00000350: 0d0f eb3d d8a4 c93c 81c9 ba3c fba6 853d
00000360: 7ca1 4c3e 0abe 7eba 4370 483e 8f22 b7bb
00000370: 04b7 df3b 5e32 b33d cd24 7d3e 4bd4 003e
00000380: 3342 7e3c 0702 693e 66c3 8c3d 36a4 123d
00000390: 1665 e93d ad25 303e 3006 633c d76a 0b3e
000003a0: a615 e43b db8e ac3d 02ab 2c3e 9b93 533e
000003b0: ed71 0e3e 6625 0f3d 485d ee3d 2aab 463e
000003c0: 1901 383e bb58 ab3d b547 053e 1c39 193e
000003d0: 8047 503e 56ca f13d 86d3 703d 1d3d 8e3d
000003e0: b49d 523e 349e 643e 1405 88bc 4d48 333d
000003f0: b7f2 863e dad1 5a3d afdf b03d 9426 f4bb
-0.021666389 0.12958644 0.2040573 0.13491498 0.21580641 0.06382837 0.15184109 0.12683827
0.011748127 0.100138165 0.0061698467 0.1980998 0.14322521 0.17638575 0.065258384 0.16130011
0.017335184 0.25815228 0.104526 0.1698924 0.118201494 0.026163906 0.032651123 0.06919074
0.17558312 -0.00021112716 0.24200155 0.008307346 0.028493796 0.06956879 0.2403225 0.14900932
0.08638636 0.23533715 0.09546608 0.04337299 0.11030084 0.16095008 0.03365608 0.1542941
0.01813084 0.10907121 0.16415328 0.18087551 0.1360199 0.0674747 0.11675251 0.1413495
0.16185911 0.07816781 0.15598056 0.12263933 0.18126611 0.10584677 0.048951127 0.06860795
0.19299757 0.19187802 -0.013510609 0.03699133 0.21848634 0.02155396 0.11755024 -0.009016704
-0.011899377 0.037392616 0.081264235 0.07679267 0.0027450477 -0.009446136 0.0075087547 0.033699173
-0.0012385425 0.006906236 -0.0036338703 0.020097617 0.06499619 0.008206011 0.0017119636 0.040499408
-0.0021268204 0.06505704 0.041450668 0.060458664 0.055846177 -0.005837128 0.0017782147 0.044700947
-0.032739006 -0.0069355196 0.041184694 -0.015560493 0.00066756376 0.04086578 0.054420747 0.033137918
0.016433083 -0.0020295836 0.015443181 -0.021007236 0.0071165897 -0.037934713 -0.007978018 0.03635383
0.0061262497 0.03026213 0.033399157 0.03309918 0.01103287 0.024936136 0.012765006 0.0842938
0.11414264 0.028796002 0.039969962 0.0651585 0.07545865 0.047214966 0.007315526 0.030256817
0.048133753 0.09694699 -0.005109983 -0.014051984 0.046709865 0.0012834778 0.039817125 -0.00670751
0.051430497 0.12167048 0.068765625 0.054760702 0.047642782 0.12353295 0.0016774336 0.07616049
0.013537406 0.015496766 -0.0717376 0.0021491966 0.0527036 0.09161059 -0.034240358 0.031350035
-0.07426811 0.028429374 0.0062731006 0.17940691 0.03349364 0.04999047 0.08468065 0.0017299239
0.06498555 -0.016300121 0.14327599 0.009985559 0.049275275 0.12328434 0.08301414 -0.022336427
0.1097172 0.09831791 0.043088634 -0.008335967 -0.07677256 0.007058099 0.0651943 0.025834538
0.06279844 0.057695568 -0.025331791 0.017909152 0.09572869 0.018006912 0.03560224 0.1236694
0.020407515 0.036391858 0.05297898 -0.0045109065 0.09933906 0.093933776 -0.017751437 -0.043181345
0.0014606987 0.056635257 -0.013242253 0.03983992 0.007154925 0.0066962517 0.12481015 0.010995486
-0.013436374 0.08438874 0.1863144 0.12788585 0.23015878 0.0687931 0.15806913 0.19393416
0.0059348834 0.13393976 0.0055885217 0.21141422 0.1486336 0.16717197 0.08490233 0.19834024
0.0174849 0.22995917 0.04787918 0.18290971 0.1147748 0.024614736 0.022801163 0.065259896
0.19983476 -0.0009717649 0.19574074 -0.0055888365 0.006827237 0.08749841 0.2472107 0.12580983
0.015518713 0.2275468 0.06873207 0.035801135 0.11396234 0.17201872 0.013856456 0.13614975
0.0069605885 0.08425685 0.1686211 0.20661776 0.13910647 0.034947775 0.11638886 0.19401231
0.17969169 0.08366533 0.13015635 0.14963192 0.20339775 0.11806171 0.058795474 0.0694525
0.20567971 0.22325975 -0.016603984 0.043770123 0.26357052 0.053422786 0.08636414 -0.007450888

bias_hh_l0 f4 [256]
00000000: 786b 8dbc 4940 103e a414 5a3e c96b 093e
00000010: 7a3a 523e a6fb 803d 104f 1f3e 0538 013e
00000020: 6466 363c 70cb 033e 33df d63b f94d 513e
00000030: f357 0e3e 9cfa 323e 4b4c b03d 2715 153e
00000040: dd79 573c d4ef 8a3e 3505 f53d 1d47 2d3e
00000050: 80ec eb3d 10de cd3c 5ed4 8eba 3279 933d
00000060: 0110 373e 5c56 5db9 d76e 5c3e 635e 863b
00000070: 6140 0f3d 239c b63d 69f6 513e 738a 203e
00000080: 5ef0 223d 4f69 563e 070a 8b3d a8ef 383d
00000090: 0230 ec3d 608e 1f3e 5ebe ad3c 62d6 1c3e
000000a0: 6280 db3c 3ad0 e23d ac15 213e 6045 4b3e
000000b0: 9d86 0b3e 9eb2 943d 1143 e13d 7cc5 3e3e
000000c0: a36c 533e d753 a63d 02a2 133e 4129 093e
000000d0: 7f09 593e 1e87 ea3d 65c2 243d 1d76 8c3d
000000e0: 0fb3 2d3e 687a 4d3e 1682 5abc d373 6d3c
000000f0: 7aeb 6f3e 09ba e73c d962 0d3e be61 8dbc
00000100: 5be3 39bc fd35 103c 2bbe 973d cc24 9e3d
00000110: 1ff7 6d3b d599 09bc df01 823b 4ab9 763d
00000120: e353 a2ba 3fcf c33b f629 6ebb 6d24 b53c
00000130: d4df 843d 7d47 eb3b 83e9 91b9 e793 443d
00000140: c6a6 0bbb a9ee 7b3d 8e6a 1f3d b034 713d
00000150: 2e1b 653d 0546 bfbb a070 34bb c8a5 363d
00000160: 6d62 07bd 4743 e3bb 4452 563d e16f 78bc
00000170: 1da7 d6b8 4f70 063d 2d90 663d 7b6d 573d
00000180: 28a9 113d c6a1 8cbb 2d4e a03c e2eb c1bc
00000190: 994f f03b 2c37 21bd 759a 43bc bdc4 183d
000001a0: f34d b73b d1f4 fd3c e37f 0c3d 5894 0c3d
000001b0: 616c 3f3c 8986 033d 5a14 563c 6f9a ad3d
000001c0: b93c e23d 5d90 eb3c 757a 683d e145 873d
000001d0: ef4a 983d aa0f 433d 79e4 f03b 23dd f73c
000001e0: 312b 073d de11 9f3d 9189 a7bb ee95 0bbc
000001f0: 809a 8e3d 3262 393b bd55 1a3d bed0 bbbb
00000200: a796 dd3c a566 d23d 08b5 6bbc c8e6 f5bd
00000210: b1b4 ffbb 17ec fc3d 265a b13d 395b 393d
00000220: 8dda 1ebd b6e0 f73d 827e a2bd ec23 1e3c
00000230: 49a8 1c3d 7a04 013c 7c6d a43d cc26 743d
00000240: b7d2 eabd 7860 9f3c 6228 ea3d 919c ce3c
00000250: c33a aebd 020e e63c 8ff1 e23d 2888 e53c
00000260: b873 f33d f37e fa3c d29d de3d bf38 c43d
00000270: 513f cc3d ea9d b93d 82fc 683d 1b9b 31bd
00000280: 4ae2 bc3d 81e4 b43c 7050 2d3e 056a 8a3d
00000290: 5a63 953d 4dee c23d 57eb c33c 418e f53d
000002a0: 8402 523d 3a7f 87bb 73fe 9bbc 05f2 ac3d
000002b0: 166b a03b c6d9 a53d 7808 863d f1ec 82bc
000002c0: 69bf 123e 717b d2bc b979 803d 8369 953d
000002d0: e543 c2bb 8d76 7cbc a152 c1ba b144 99bd
000002e0: 108a de3d 7405 803a 1361 283d 13cd 8c3d
000002f0: 8434 e03d 115d 603d 1a2f c53d 77eb be3b
00000300: 3a45 6dbc fd0a 8b3d 455f 273e 8ec8 153e
00000310: 122f 5d3e 0f0a 953d f22a 063e 40ba 393e
00000320: b6e3 b03b c8d0 083e f096 aa3b 0fdf 503e
00000330: 722d 1a3e 65e0 2d3e 7ed5 833d 948e 4c3e
00000340: b82b 133c b9d7 633e 48c2 b33d 23a1 2e3e
00000350: 057b ec3d 8e40 bd3c 88d9 c4bb 7e8c 843d
00000360: 9596 603e bd17 7fba b200 673e 77c2 153c
00000370: e0c8 853c fd07 6a3d 39f7 813e 3ae4 fd3d
00000380: 8df5 9f3d 2922 803e d7ac c03d eecf 283d
00000390: 01be de3d b4e8 2f3e a008 a33c 42de 163e
000003a0: 597c 003c d018 b53d f6d4 3a3e 54eb 493e
000003b0: c98d 143e 2b75 b73d 2658 f13d 9951 333e
000003c0: 3ae2 393e 66d1 a53d 0421 103e e696 0b3e
000003d0: 3506 693e 9059 b53d 47a1 1f3d 213d 8e3d
000003e0: d90a 2d3e c609 483e 53c1 88bc 8fbf fb3b
000003f0: c0a7 6f3e 965c 5a3d 284f 973d b877 3fbc
-0.01726316 0.14087023 0.21296936 0.13420023 0.2053012 0.06297998 0.15557504 0.12619026
0.01113281 0.12870574 0.006557369 0.204399 0.13900737 0.17478412 0.08608302 0.1455885
0.013151613 0.271361 0.11963884 0.16921659 0.11519718 0.025130302 -0.0010897031 0.072008505
0.17877199 -0.00021108374 0.21526657 0.0041006072 0.034973506 0.089164995 0.20504154 0.15677814
0.039780013 0.2093861 0.06789022 0.04515043 0.11532594 0.15581656 0.021208938 0.15316156
0.026794616 0.11074872 0.15730923 0.19850683 0.1362557 0.07260631 0.1099912 0.18630022
0.2064691 0.0812146 0.1441727 0.13394643 0.21195029 0.11451553 0.04022445 0.06858466
0.16962837 0.20066226 -0.013336679 0.014492947 0.23429671 0.02828695 0.13807239 -0.017258521
-0.01134571 0.008801934 0.074093185 0.07721862 0.0036310626 -0.008398493 0.003967508 0.0602353
-0.0012384619 0.0059756334 -0.0036340929 0.022112096 0.06488004 0.007180153 -0.00027830535 0.047992613
-0.0021309122 0.0615069 0.038919978 0.058888137 0.055934124 -0.0058372044 -0.002753295 0.044591695
-0.03305285 -0.0069355103 0.05232455 -0.015163393 -0.000102354425 0.03282195 0.05628984 0.052594643
0.03556171 -0.004291746 0.019568527 -0.023672048 0.0073337075 -0.039359257 -0.011938681 0.037297
0.005594009 0.031000527 0.03430165 0.03432116 0.011683554 0.032110725 0.013066376 0.084767215
0.11046738 0.028755361 0.05675741 0.06605125 0.074361674 0.04762236 0.007351455 0.030256813
0.033000175 0.0776708 -0.0051128347 -0.008519633 0.06963062 0.0028287289 0.037679423 -0.005731671
0.027049376 0.10273484 -0.014386423 -0.12006909 -0.0078035225 0.12349718 0.086597726 0.045253012
-0.038782645 0.12103407 -0.07934286 0.009652119 0.038246427 0.007874602 0.08028695 0.059607312
-0.11465972 0.01945518 0.11433484 0.025221141 -0.08507302 0.028082851 0.1108123 0.028019026
0.11887306 0.030578112 0.108699456 0.09581136 0.09973014 0.09063323 0.056881435 -0.04336081
0.09222849 0.022081615 0.16925216 0.06758503 0.072943404 0.095181085 0.02391593 0.119900234
0.05127193 -0.0041350396 -0.01904223 0.08444599 0.004895578 0.080981776 0.06544584 -0.015982123
0.1433083 -0.025693627 0.06273217 0.072955154 -0.005928504 -0.015409124 -0.0014749357 -0.07483805
0.10866177 0.000976725 0.041108202 0.06875052 0.109475166 0.054776255 0.096281245 0.0058264094
-0.014481837 0.06789205 0.16344936 0.14627287 0.21599987 0.07277309 0.1310232 0.18137455
0.005398239 0.13360894 0.0052059814 0.2039759 0.15056399 0.16980131 0.06437205 0.19976264
0.008982591 0.2225026 0.087772906 0.17053656 0.115469016 0.023102071 -0.006007377 0.06472109
0.21932442 -0.00097310153 0.22558859 0.009140602 0.016331136 0.057136524 0.25383928 0.123970464
0.07810507 0.25026062 0.094079666 0.041213922 0.10876084 0.17178613 0.019901574 0.14733222
0.007842147 0.08842623 0.182453 0.19718677 0.14507212 0.08957895 0.11784391 0.17511596
0.18152705 0.0809658 0.14075094 0.13631782 0.22756274 0.08854973 0.038972165 0.06945253
0.1689867 0.19534978 -0.016693747 0.0076827477 0.23403835 0.053310953 0.07388145 -0.011686258

weight_ih_l0_reverse f4 [256, 45]
00000000: 4f3b c13d 68f6 a43d bf78 393d ce04 443a
00000010: 3b98 b9ba 3e4d 3f3d b79b 613c 8fcc ae3c
00000020: c9e4 b13c c662 193c 47fb 2c3c 733d 663d
00000030: d887 9ebb 0d9f e4bc 23c9 ac3c 0e82 91ba
00000040: 8f07 90ba d17b 9b3c 4665 b93a 0ccd 213d
00000050: 7d25 6f3c 0977 8dbb aa00 50bc 5fd3 2fbd
00000060: 99cf 8abc 89b5 e33c 173f d73c 1370 cc3b
00000070: 0cbc eb3b e244 caba 0909 803c e03d 803b
00000080: ceb5 0fbc 0902 6bbb 5cee f6b8 e0ff 9a3c
00000090: 6a48 33bc 8fe7 733d 2c80 563b f33b 43bd
000000a0: 3afc 12bc 7e9c 8ebb ce8a 4bbc cdf0 ddba
000000b0: a629 66bc 32fa 963d e04c 7f3c 00b5 9c3c
000000c0: 8dc6 733c 5346 6cbc bdb2 0f3d a700 9bba
000000d0: a80f cd3c dbd2 db3b c364 023c 9a6d dc3b
000000e0: 53a7 2d3d 65b9 53bc a3a6 34bc b4f5 6b3c
000000f0: b316 91ba 2e9e 9bbb ad48 343d 5a6f e7b8
00000100: f48e 853c 825f 7e3c 2f0c 88bb bd8f 31bc
00000110: d899 e6bc b0da c43b c41b 163c 471d bd3c
00000120: 1f30 2cbc 802f d93b 7234 6cbb 7f86 613c
00000130: 2d54 b13b c65d 37bc 5d10 55bb 549d dcb9
00000140: c75a 5c3c 7935 4cbc 32f0 613d aaa9 c23b
00000150: 0e3d f4bc 2eb3 07bc 43d6 893a a9d4 70bc
00000160: 4e25 baba b379 5fbc d592 703e 7970 64bd
00000170: c321 483d 37c9 18bd 91ac 6c3d 4427 bb3d
00000180: 34c3 3bbb 772c 873b a5ad c93d 85c1 a43d
00000190: 1e91 c63c cba6 bb3d 6900 9ebc 4142 9b3d
000001a0: 046f b33d 2eb2 d723 82e4 acbb c80b c53d
000001b0: 86de 7cbb 8af0 9abc 3f38 9a3c 1010 03bb
000001c0: 3c4a 8dbc 3e03 54bc 4c1f 9e3d c4a6 d4ba
000001d0: ffa5 843c 8aeb 113c 6321 e83b e16a 84bb
000001e0: 0d2e 173d 43c1 113b a163 16bc aa61 c4ba
000001f0: afc5 963b 1f8a 383d 6f48 283b 082c dd3d
00000200: 70d6 853c 8c75 cfbc 4cbe bdbc eb05 dd3c
00000210: 5cac 0fbc bcc7 a739 1931 89bc 2ba1 313d
00000220: 1c1e b03b 8b19 a2bc 845a 0b3d 2f6f cd3b
00000230: dcd4 073d 2c9a 13ba b773 8e3c 2e0d 053c
00000240: 0938 b43c 3795 1c3c ffe2 323d cf31 60bc
00000250: ecc7 51bc ce31 753b 3e79 b2b9 f6a7 0bbc
00000260: 7b9e 163d 1d74 2a3b dfab b93c fdf3 1c3c
00000270: 0349 b0ba 2c68 b2bc 09dc edbc 92d1 28bb
00000280: 567a 643c a66c 823c 4b47 f5bb b86d d63b
00000290: 1cb3 abbb f6c9 733c 3789 a83b 290f fbbb
000002a0: 22ab 17bb 13b6 073b 3dff 9a3c e932 4bbc
000002b0: 8724 293d 78af 853b b9af d5bc 94a1 10bc
000002c0: 77b7 90b9 0c35 66bc 10fb 963a 89e2 5cbc
000002d0: adb3 5cbd ed13 e9bc d9ab b8bd d80a dab9
000002e0: 8c34 4ebc 0152 d6bc bd96 1f3c 829a 4bbb
000002f0: 2b19 283c c368 ff3b 5376 993b 3d5f 743b
00000300: 681a d7b8 2eed cf3c 17b6 87bc 4dc1 5a3c
00000310: 550e 933b 5418 9cbb e24d 1ebc f843 34bd
00000320: 926c e1ba 2852 763b 53d5 a93a 6a90 1b3c
00000330: 9143 483c 6deb b43b 79b1 09bc a245 3e3b
00000340: 3bb0 d8bb 341c b0b7 1390 4f3b a776 48bc
00000350: 4098 b7bc 8235 933c 98c4 b63b 2270 3c3c
00000360: ae57 903c 977c 8ebb debb 913b 9157 ee3b
00000370: ffff 5bba 6a9f 4ebc 46db ef3a d742 e33b
00000380: 0fb9 8abb 2a02 073d 1c7d e5bb 8ef2 57bc
00000390: cc00 233c ec52 7b3c 97f3 cf3c cc95 3c3b
000003a0: 0445 8f3c 0674 fc3c d635 913b fff8 58b8
000003b0: 3aaa 2c3d dee4 70bc 6ada 4b3b 6a98 20bb
000003c0: 509f 2eb9 776b 0dbc 62ed 273d 44d6 65bb
000003d0: ed4c 0d3d b0a0 463b 4a5c 893a aa8d 15bd
000003e0: 3cab 6abc 9790 15bb 5d9e 0c3d 0199 d33c
000003f0: e722 36bc fab0 6433 b503 ebba 9a3b 663c
0.0943514 0.08054811 0.045281168 0.00074775226 -0.0014159748 0.046704523 0.0137700355 0.021337776
0.021715539 0.009361928 0.010557956 0.056210946 -0.004837971 -0.027907873 0.021092003 -0.0011101381
-0.0010988581 0.018979939 0.0014144562 0.03950219 0.01459634 -0.0043171686 -0.012695471 -0.04292619
-0.016944693 0.027796524 0.0262752 0.006238946 0.007194048 -0.0015431906 0.015629308 0.003913626
-0.008771373 -0.0035859367 -0.00011774592 0.018920839 -0.010942558 0.059547003 0.0032730205 -0.047664594
-0.008971268 -0.0043521514 -0.01242323 -0.0016932726 -0.014048016 0.0737194 0.015582293 0.019129276
0.014878881 -0.0144210635 0.035082567 -0.0011825756 0.02503188 0.0067084855 0.007958594 0.0067269327
0.0423959 -0.0129226195 -0.011026057 0.014401842 -0.0011069387 -0.004749081 0.04401462 -0.00011035679
0.016303517 0.0155257005 -0.004151843 -0.0108374925 -0.02814953 0.006007515 0.009161893 0.02308525
-0.01050952 0.006627977 -0.0036042002 0.0137649765 0.005411646 -0.011191791 -0.0032510974 -0.00042078889
0.013449377 -0.012463921 0.05516071 0.0059406357 -0.02981427 -0.008282466 0.0010516125 -0.01469914
-0.0014201791 -0.013639855 0.23493512 -0.055771325 0.048860323 -0.03730127 0.05778176 0.09138349
-0.0028650286 0.0041251737 0.09847573 0.080447234 0.02423912 0.091626726 -0.019287305 0.07580996
0.08761409 2.3385809e-17 -0.0052762637 0.09621388 -0.0038584783 -0.018913526 0.018825648 -0.0019998588
-0.017247312 -0.012940226 0.07720813 -0.0016224016 0.016192434 0.008906255 0.007084058 -0.0040410613
0.03690915 0.0022240437 -0.009179027 -0.001498272 0.0046012024 0.045053598 0.002567794 0.10799414
0.016337603 -0.025324605 -0.02316203 0.026980361 -0.008769121 0.00032001536 -0.016747044 0.043366592
0.005374683 -0.01978757 0.03402187 0.0062693576 0.033161983 -0.00056305784 0.017389162 0.008120818
0.021999376 0.00955706 0.04367351 -0.01368375 -0.012804013 0.003741372 -0.00034041138 -0.008523932
0.036772233 0.002600915 0.022664962 0.009579656 -0.0013449494 -0.021778189 -0.029035585 -0.002575968
0.013945183 0.015920948 -0.0074853054 0.006543841 -0.0052398574 0.014879694 0.0051433104 -0.0076617193
-0.0023142775 0.002070789 0.018920535 -0.012402275 0.0412946 0.0040797554 -0.026084768 -0.008827586
-0.00027602512 -0.014050733 0.0011518914 -0.013481745 -0.05388229 -0.028451884 -0.09017152 -0.0004158828
-0.01258577 -0.02616215 0.009740529 -0.0031067436 0.010259907 0.007794471 0.004683295 0.0037288212
-0.000102569174 0.02538165 -0.01656632 0.013351751 0.0044877925 -0.0047636423 -0.009662123 -0.044010133
-0.0017198494 0.003758559 0.0012957252 0.00949488 0.01222314 0.005521229 -0.008404129 0.0029033204
-0.006612805 -2.0993968e-05 0.0031671568 -0.01223532 -0.022411466 0.01796985 0.005577635 0.011501344
0.017619934 -0.0043483484 0.0044474443 0.0072736223 -0.00083923334 -0.012611249 0.0018299602 0.006935458
-0.0042334865 0.03296105 -0.0070034396 -0.013180388 0.00994892 0.015339594 0.025384707 0.002877581
0.017488964 0.030817043 0.0044314666 -5.173031e-05 0.04215453 -0.014703004 0.0031105527 -0.0024504908
-0.00016653282 -0.008631579 0.04099787 -0.003507034 0.03449719 0.003030818 0.0010479775 -0.036512055
-0.014323052 -0.0022821778 0.034330714 0.025829794 -0.01111672 5.3246346e-08 -0.0017930182 0.014052296

weight_hh_l0_reverse f4 [256, 64]
00000000: ea81 4e00 7b3b 7400 650a 7400 36a8 e500
00000010: 780a e480 c1a7 4800 1282 0f80 6bac 2f80
00000020: 1651 9000 990d 2f00 d884 4880 46f4 0f00
00000030: 35db 9480 a0e6 3080 635f d000 6628 6b00
00000040: 4cb7 3900 0ecb 5980 53ec b480 e810 2380
00000050: eafe 0f00 8046 5780 4fa8 3680 d303 2680
00000060: 9509 bc80 475d d280 c405 9481 eaf5 1100
00000070: 3431 7980 cc18 3c00 553a 7780 f340 1480
00000080: 2a88 6500 8d3a 3900 a073 4f80 af63 6e80
00000090: 0e70 2d80 302a 5680 5c4f 3700 1c6c 2d80
000000a0: ae7b c780 7ca1 ba00 cf7d 5880 880c 5800
000000b0: c0fe a180 4639 e580 f922 9400 1988 5300
000000c0: b489 c100 fa05 1400 7663 1680 5a68 3d80
000000d0: b4d5 0880 ccbc 7f80 e637 3c80 620c 1280
000000e0: e6d4 9700 cc5f 3100 07c2 9400 a291 7e80
000000f0: f11c 8a00 8fa7 d100 22a3 5480 bc7b 2700
00000100: 7197 d880 afb0 aa80 a13d bb80 dbab a280
00000110: 6fce 5480 08a1 8f00 9445 6f80 52ab b780
00000120: 4866 5280 ac34 0a00 adbb 0d80 acba 0b00
00000130: a6f6 2e00 7071 0580 991b b000 9492 2280
00000140: 66b5 9d00 80ce 6980 beac c580 f642 8d00
00000150: 6aba d200 c972 3c80 bed1 3f80 3ddb b300
00000160: 706b 1980 4007 8600 1b15 6f80 c9a8 4200
00000170: f1c3 9600 a002 0300 059f 2980 7b5d bc00
00000180: 20f6 8d80 e73a d200 0606 ad00 8b1d 6300
00000190: ac75 0e80 e27e bf00 2a93 8300 5185 8d00
000001a0: 405b 7200 a8e0 3d80 ef79 8100 4013 2e00
000001b0: 706a 7c00 707b 5d80 a3e8 b600 b795 c980
000001c0: b764 eb00 fff1 ba00 f5b8 bf00 bb4b 4c80
000001d0: e4ed 8800 7640 4f00 cee2 5400 24ca 8f00
000001e0: 4e8e bc00 4898 1800 46b4 0080 88fe e880
000001f0: f189 9100 015c 4f00 c173 8500 ac4d b980
00000200: 6627 5780 3e09 c500 f821 5e80 dbf1 6e00
00000210: e654 eb80 4773 a600 5637 4e80 f6bf 4380
00000220: e524 7a80 0b26 1500 c599 6c80 7061 5a80
00000230: 1178 e380 6ec0 c701 5d4f d200 1806 1c00
00000240: 4394 1280 3c9d 5c80 34cb ea80 1757 af00
00000250: 30af 4a00 f379 b681 0648 5780 7249 0e80
00000260: 2031 c200 a8b7 c980 7bdf 7300 0901 ce80
00000270: 7d21 3300 2c11 ba80 0f10 b280 972b 2280
00000280: 9c8c 7f00 ce86 bd00 018d 9c00 5203 6f80
00000290: c81e 0b00 dea6 9a80 2c46 3000 e6de 8200
000002a0: 31ad 6880 faa7 b480 8220 1180 dc90 a300
000002b0: 2e0f 6280 2740 7080 4ab7 5800 bb86 6e00
000002c0: dfe4 7f00 e0b5 6a80 a610 a200 6188 0180
000002d0: 169c 9b00 bd85 7e00 c129 cf00 25c9 2600
000002e0: 974f 1c00 7047 1b80 3761 8200 7b27 8000
000002f0: 0805 9b80 1128 a300 25bb b600 4882 a580
00000300: 1570 5900 405d 3580 1821 2300 ef10 5c00
00000310: a5b1 6a00 b19b 9600 213b ab80 539e bc00
00000320: ce22 2380 1244 1300 14a1 3180 6feb e680
00000330: 24e6 1a80 32b9 3280 ede2 7f80 f8cc 0300
00000340: df86 7300 b693 2980 70b4 9600 35f9 2b00
00000350: d57c d380 58ef a380 2f87 9180 2e09 c480
00000360: 9042 0600 f6a1 4b80 45e9 2280 8fa4 6e80
00000370: f513 b400 e800 7c00 d8e8 8600 ed4e 8900
00000380: fe10 3c80 692f b080 3999 9880 db18 2300
00000390: 7706 1980 736b 9001 a385 c280 2414 5180
000003a0: 9503 a680 1b89 bc80 f282 4780 6ae3 0100
000003b0: 5803 2b01 06eb 2180 f4fb 7c00 b69f b681
000003c0: a2a0 0200 80eb d280 52ad 0b00 9204 0980
000003d0: 0bb1 6e80 884f 2280 b0b6 5080 aa48 a900
000003e0: f4d0 2580 0a75 9680 d382 ad80 5197 cf00
000003f0: b832 d780 c470 1300 014a 4680 699b 3080
7.209773e-39 1.0674255e-38 1.0656646e-38 2.1090671e-38 -2.0942249e-38 6.672334e-39 -1.424193e-39 -4.37812e-39
1.32534e-38 4.321146e-39 -6.659811e-39 1.465161e-39 -1.367029e-38 -4.490836e-39 1.9136002e-38 9.84089e-39
5.300378e-39 -8.246201e-39 -1.6615166e-38 -3.220307e-39 1.468978e-39 -8.014979e-39 -5.019495e-39 -3.491121e-39
-1.726851e-38 -1.9318916e-38 -5.4374887e-38 1.649421e-39 -1.1129746e-38 5.519025e-39 -1.094935e-38 -1.86001e-39
9.324232e-39 5.255627e-39 -7.296483e-39 -1.0137664e-38 -4.172795e-39 -7.912987e-39 5.079421e-39 -4.17138e-39
-1.8319632e-38 1.7139332e-38 -8.126655e-39 8.086019e-39 -1.4876902e-38 -2.1050874e-38 1.3604199e-38 7.671169e-39
1.777365e-38 1.838854e-39 -2.056061e-39 -5.6394e-39 -8.11346e-40 -1.1730836e-38 -5.530182e-39 -1.657481e-39
1.3943533e-38 4.534305e-39 1.3661257e-38 -1.1623516e-38 1.268368e-38 1.9253727e-38 -7.772703e-39 3.625972e-39
-1.9890794e-38 -1.5675416e-38 -1.7195346e-38 -1.4939e-38 -7.788236e-39 1.3190243e-38 -1.02187e-38 -1.6867354e-38
-7.567202e-39 9.3725e-40 -1.261187e-39 1.077156e-39 4.312914e-39 -4.99871e-40 1.6172947e-38 -3.174989e-39
1.4483246e-38 -9.716805e-39 -1.8153561e-38 1.2972826e-38 1.9352327e-38 -5.551307e-39 -5.860878e-39 1.6517202e-38
-2.334429e-39 1.2308557e-38 -1.0201311e-38 6.121691e-39 1.3845615e-38 2.76448e-40 -3.822301e-39 1.7298608e-38
-1.3037098e-38 1.9306584e-38 1.5889702e-38 9.102312e-39 -1.32791e-39 1.7586097e-38 1.2083243e-38 1.299663e-38
1.0501981e-38 -5.682557e-39 1.189052e-38 4.231338e-39 1.1425784e-38 -8.584982e-39 1.6797515e-38 -1.8512642e-38
2.1617471e-38 1.7168214e-38 1.760693e-38 -7.006665e-39 1.2574967e-38 7.278128e-39 7.795544e-39 1.320499e-38
1.7316123e-38 2.25868e-39 -6.467e-41 -2.1397144e-38 1.3365631e-38 7.288009e-39 1.2255646e-38 -1.701743e-38
-8.003822e-39 1.8094908e-38 -8.644722e-39 1.0188666e-38 -2.1611797e-38 1.5286046e-38 -7.18302e-39 -6.221841e-39
-1.1217166e-38 1.942193e-39 -9.973396e-39 -8.300149e-39 -2.088973e-38 7.337718e-38 1.9313924e-38 2.57358e-39
-1.706225e-39 -8.505271e-39 -2.1562402e-38 1.6102454e-38 6.858672e-39 -6.703123e-38 -8.015525e-39 -1.312044e-39
1.7833709e-38 -1.8524818e-38 1.0641252e-38 -1.8918484e-38 4.695624e-39 -1.7087562e-38 -1.6352479e-38 -3.138044e-39
1.1713549e-38 1.7405268e-38 1.437692e-38 -1.0194931e-38 1.021233e-39 -1.4202527e-38 4.433277e-39 1.2018575e-38
-9.613021e-39 -1.6590648e-38 -1.572865e-39 1.5021152e-38 -9.005324e-39 -1.0308589e-38 8.147275e-39 1.0150237e-38
1.1745211e-38 -9.799807e-39 1.4883323e-38 -1.40759e-40 1.4290495e-38 1.1619249e-38 1.9024926e-38 3.561906e-39
2.599945e-39 -2.505185e-39 1.1973489e-38 1.1769106e-38 -1.4236307e-38 1.4983559e-38 1.6781195e-38 -1.5199593e-38
8.213567e-39 -4.900733e-39 3.226114e-39 8.45494e-39 9.79829e-39 1.3831176e-38 -1.5725081e-38 1.732187e-38
-3.226728e-39 1.769293e-39 -4.557723e-39 -2.1206622e-38 -2.470282e-39 -4.65821e-39 -1.1744514e-38 3.49035e-40
1.0609465e-38 -3.818244e-39 1.3840053e-38 4.038325e-39 -1.9422071e-38 -1.5055046e-38 -1.3364642e-38 -1.800305e-38
5.74891e-40 -6.945763e-39 -3.206088e-39 -1.0160937e-38 1.6537549e-38 1.1387927e-38 1.2389485e-38 1.2609776e-38
-5.516225e-39 -1.6180055e-38 -1.4013961e-38 3.223159e-39 -2.298207e-39 5.305143e-38 -1.7864026e-38 -7.4459e-39
-1.5245977e-38 -1.7314257e-38 -6.567295e-39 1.73416e-40 3.141014e-38 -3.114882e-39 1.1477985e-38 -6.7085415e-38
2.41295e-40 -1.9369936e-38 1.072366e-39 -8.28159e-40 -1.0165416e-38 -3.150937e-39 -7.412376e-39 1.5546266e-38
-3.472872e-39 -1.381731e-38 -1.5934472e-38 1.906423e-38 -1.9762826e-38 1.785327e-39 -6.455032e-39 -4.463854e-39

bias_ih_l0_reverse f4 [256]
00000000: 7f68 2f3d 4c96 2c3d bf3c 213e a5af 2f3d
00000010: 2a93 7a3b 4a4e 223d 8401 6b3b b724 0f3d
00000020: db24 133e f15e c73d a4a2 223d 97de cd3d
00000030: 229d 2f3e 3665 e939 ce81 373d 50d6 a038
00000040: b1b9 d93c b462 163e ea20 503d 1b8d d03d
00000050: 6378 a43d 5c38 363d a49b c63c 14ac 8c3d
00000060: e813 383d e1aa fd3b b1b3 882b 07da 933d
00000070: f33c 9a3c d4fb 153d 046f 2b3e 910d 263e
00000080: 30b8 f43c bb98 9b3c 7e29 3b3d 4bc7 573d
00000090: 8cc2 583d f46a e53d 225a 163e 50b7 113d
000000a0: e3d1 a23d 668b 543e c827 563d 1184 df3c
000000b0: 152a 573d 07ec ac3d 9239 8d3d 3da4 943d
000000c0: 1a96 2e3d c3f5 a33c ada4 da3d 2861 3f3e
000000d0: b853 743d 5b08 a13d c9a5 113e 60d3 993c
000000e0: 6c99 583d 7269 a03d 28ab d33d 0750 823e
000000f0: fcb2 5f2d a7bc 87bb 35cb 19bb 4dbf d83d
00000100: e59b 8680 ebe3 6900 b216 0902 20d1 0c00
00000110: 8409 2900 cf0d f501 6625 1d00 e33a 0480
00000120: a60b 2900 5e0f 8f80 378c e000 284b 7a80
00000130: a622 9c00 8d24 9480 7a83 3780 7774 d700
00000140: dadf 4780 04c3 6e00 afc8 0d00 03b3 1080
00000150: 3c92 4600 b3c7 5400 4936 0c80 41ce 7400
00000160: a79c 5f00 82e5 5c00 ef7c 7800 bdd9 5500
00000170: 7021 9480 6c24 4d80 fab8 e380 2ae4 4380
00000180: fe16 b580 7788 9280 95fb c180 34a0 c800
00000190: 8a06 6f00 2184 1700 e288 c680 f8b6 b980
000001a0: fea8 6300 6fc5 3500 5895 4180 0005 7000
000001b0: aa4f 1c00 c6fc 3900 603b e300 de63 7d80
000001c0: bc85 0980 7a0d 1080 5ac6 0200 7eba ac00
000001d0: 91ec 7680 63a6 5c80 6aec a101 6b1a 6780
000001e0: b7ee 0500 373d bc80 943f 4980 92a5 1700
000001f0: db78 ad00 5820 4180 28ac a400 7d91 2180
00000200: 7400 663d 3f6f c63d 49bc 8abd 28f2 873d
00000210: 0cea 9a3c 91fc c9bc 2509 bc3d 53a7 cd3c
00000220: 6ec3 fc3d bdd4 c53d a0ea 093e c6c6 233e
00000230: 91e3 95bc 3f34 403d c672 773c ee5c b9bb
00000240: 3437 063d b6cd 583d e028 813b 9c14 623d
00000250: 1b9b 93bb c2c4 8b3c 960a 45bd 9738 cabb
00000260: 6503 4b3d e712 bfbc d019 97b5 e51a ac3d
00000270: 87e3 233d 17d9 3a3d 1022 e03b 54fa f13d
00000280: a270 3e3d 9140 023d ce16 d43d cca5 223c
00000290: d134 5f3d 1855 e63d cfe4 df3d 6f55 923b
000002a0: 3e92 4e3d c373 963d 7bd9 da3d aa0a f33d
000002b0: 9fb8 eb3d 8c9c 213d ac69 853d 773d a23d
000002c0: 8770 823d ed86 8a3d 4bc7 8dbc d591 9d3c
000002d0: 1c04 3bbc 2401 723d 2a07 863c 5f74 593d
000002e0: f62a e73d 4bb5 6ebd bb95 903d ad9f 193d
000002f0: d64b 32b7 a8e0 31bc 8742 ac3c 2499 e8bc
00000300: 07b1 533d ba93 f13c 7b44 2a3e 1a2d dc3c
00000310: cd95 fa3c 960a 1c3d d14b b53b 8f4c bf3c
00000320: e823 083e a977 d23d 2698 793d e907 8d3d
00000330: baee 203e f9f0 8dba bf2d f63c 015b 9c38
00000340: 0e97 033d 2279 0d3e 520d 533d 8eec eb3d
00000350: 4491 c23d 9b3a 5e3d 6cef cd3c 1111 0b3e
00000360: 3909 903d 3e2c 063c 0091 132b c017 8f3d
00000370: 6bed 7f3c 89aa d53c a64e 113e df90 fb3d
00000380: 1a88 e53c 7c1a 9d3c d92f 723d b6b6 7b3d
00000390: b94e 683d 569e 873d a5c5 1b3e 1f09 103d
000003a0: 1d2b ae3d c86a 6f3e 1443 ec3c 6634 6f3d
000003b0: 6cde 773d 264c 8e3d 757b 813d 17ac 923d
000003c0: 5d5b 4d3d 5089 0f3c 5bca de3d 45fb 413e
000003d0: f6e3 853d af14 a83d adac 1d3e 0d1e 023d
000003e0: cc93 ed3c 2961 bb3d 73ba 023e 1a72 803e
000003f0: 0e4f 632d 81e6 9dbb c732 1cbb 5be1 c03d
0.042824265 0.04213552 0.15745829 0.042892117 0.003823469 0.039625444 0.0035859058 0.034947123
0.14369528 0.097349055 0.039705887 0.10052221 0.17149785 0.0004451663 0.044801526 7.669313e-05
0.026577802 0.1468609 0.05081264 0.10183164 0.080307744 0.044487342 0.024244137 0.06868759
0.04494086 0.0077413176 9.713256e-13 0.0721932 0.018827891 0.036617115 0.16741568 0.16216113
0.029872984 0.018993726 0.045693867 0.052680295 0.05291991 0.1120204 0.1468282 0.03557521
0.07950189 0.20756301 0.052284032 0.027284654 0.052530367 0.08443456 0.06895746 0.072578885
0.042623617 0.02001465 0.10675941 0.18689406 0.059650153 0.07862922 0.14223398 0.01877755
0.05288069 0.07832612 0.1033538 0.2545168 1.2715825e-11 -0.004142362 -0.0023467068 0.10583363
-1.2361881e-38 9.724489e-39 1.0071684e-37 1.177046e-39 3.768669e-39 9.00186e-38 2.676645e-39 -3.88467e-40
3.769434e-39 -1.3137989e-38 2.0621451e-38 -1.1230892e-38 1.4338767e-38 -1.3604765e-38 -5.098117e-39 1.9786411e-38
-6.600623e-39 1.0171863e-38 1.265853e-39 -1.533585e-39 6.480944e-39 7.78582e-39 -1.1215e-39 1.0726908e-38
8.780568e-39 8.531198e-39 1.1065077e-38 7.884127e-39 -1.3603649e-38 -7.084399e-39 -2.0913015e-38 -6.234828e-39
-1.6630473e-38 -1.3456937e-38 -1.7814501e-38 1.8424569e-38 1.0196086e-38 2.159615e-39 -1.8232533e-38 -1.7055204e-38
9.152337e-39 4.938107e-39 -6.022882e-39 1.0287369e-38 2.599972e-39 5.325301e-39 2.0867957e-38 -1.1515263e-38
-8.74494e-40 -1.474202e-39 2.54826e-40 1.5862606e-38 -1.0921453e-38 -8.508554e-39 5.9481297e-38 -9.468533e-39
5.44812e-40 -1.7287033e-38 -6.726799e-39 2.171612e-39 1.5930896e-38 -5.98091e-39 1.512278e-38 -3.082763e-39
0.056152776 0.09689187 -0.06774194 0.066379845 0.01891043 -0.024656566 0.09181432 0.0251042
0.12341963 0.09659717 0.13468409 0.15993795 -0.018296989 0.046924826 0.015103048 -0.00565683
0.03276749 0.052930556 0.0039416403 0.055195436 -0.004504574 0.017061595 -0.0481058 -0.006171297
0.049563784 -0.023324443 -1.1257889e-06 0.08403567 0.04001191 0.04561719 0.006839998 0.118153244
0.046494134 0.031799857 0.10355912 0.009927224 0.05449373 0.11246699 0.10932314 0.004465751
0.050432436 0.073462985 0.10686012 0.118672684 0.11509823 0.039455935 0.06514296 0.0792188
0.06369119 0.06764016 -0.017306944 0.019234577 -0.011414554 0.05908312 0.016360838 0.053089496
0.11287491 -0.058278363 0.07059809 0.037505794 -1.0627284e-05 -0.010856785 0.021027816 -0.028393336
0.0516825 0.029489387 0.16627686 0.026876975 0.030589009 0.038096033 0.0055327197 0.023351936
0.13294947 0.102767296 0.060936116 0.06886274 0.15716067 -0.0010829262 0.03005111 7.4556105e-05
0.03212648 0.1381574 0.051526375 0.115197286 0.095003635 0.05425511 0.02513858 0.13580729
0.07033009 0.008189259 5.242612e-13 0.06986952 0.01562057 0.026082294 0.14190158 0.12283491
0.028019 0.019177668 0.059127662 0.061453544 0.0567157 0.06621997 0.15212114 0.03516495
0.08504317 0.23380578 0.02884058 0.05839958 0.060514852 0.06948118 0.06322376 0.0716173
0.05013596 0.008760765 0.1087844 0.18943508 0.06537621 0.0820707 0.15397902 0.03176694
0.02900114 0.09149391 0.12766437 0.25087053 1.292101e-11 -0.004818738 -0.0023833977 0.09417983
