final_models/LSTM_2_visits_AdmDemo.pt (torch, 704413 bytes, 33 tensors)

weight_ih_l0 f4 [256, 45]
00000000: 4b39 b63c 624c b93c 0eeb 4dbc 0a82 623c
00000010: 915b 0d39 fccf 8a3a 6bc7 cc3b 1844 dab8
00000020: 9dfe 873b e896 0b3d e2d8 5c3c 95c1 d33c
00000030: 5afc a1bb e26f 313b 5ac1 013c 9394 08bb
00000040: 4174 e4bb ea63 ee3c e253 cb3a fe4b 673c
00000050: 780b bf3b 2d6e a33b c809 2ebc ec97 b5bc
00000060: 8d7a 5ebc 3d32 da3b 88c8 bd3c 9ef3 1cbc
00000070: 22e6 12ba 8648 8ebb c59c a6bb e533 ae3b
00000080: dbc3 bcbb 70e8 81bb 4094 e1bb 0970 e83b
00000090: f794 a0bb 768c 173d 39a2 c8ba 2168 e4bb
000000a0: 670a ccbb 6fd9 e1bb 5540 b9b9 1025 113c
000000b0: 7983 27bb 10c4 6f3c dd12 3e3a d0bb 32bc
000000c0: 6a0f 4b3c a1ee 6b3d 7872 063c 9d29 babc
000000d0: 94ce 24bc 1701 453d c319 a03d dd86 d53c
000000e0: 9ccd dd3c c1fd 66bc 6121 dd3d 23ed 03bb
000000f0: 3a7b 013c 4abb 35bc 0b8f 253e 74dc d7bc
00000100: 43e3 103d 20b3 893c 9d43 233c 9115 cbbc
00000110: a74e 6fbc 05ed 14bd 401e 1f3d 62e0 2d3d
00000120: 2deb 83bc ba9f 2e3b f3e1 0ebc 9b2a 3b3a
00000130: 8956 1abc 87f1 613d 8165 653b e72f d5bb
00000140: 4426 a2bc fb73 0c3a 9ad7 a23d 8093 b33b
00000150: a168 3a3d a651 b43a 2be4 b8bb e711 6ebc
00000160: 939d 853c a7df ed3c 7547 2abc 788e 683c
00000170: 353d 63bd f590 32bb 4b52 2e3d c299 a0bc
00000180: f047 4cbc 4a0a 7abc d813 d13d ce32 233d
00000190: dc10 833c e72b ae3d 3232 f33b d8df 7e3d
000001a0: f506 51bc 0878 b83b 4471 4bbb cdfc fe3d
000001b0: 3f2d 17bb 42a6 bcbc 1215 143c d15d ff3b
000001c0: e38d c43c a0c8 e9bb f72e 4cbd 2a0f 763d
000001d0: 29eb 7d3c e3a4 53bc 9c66 19bb 8638 32bb
000001e0: 2585 adbc 605e 87bc 809c a83d 2cb9 563b
000001f0: c4b8 67bc 0337 92bc ff5c 513c 6789 b83d
00000200: 6985 f6bb 747d d33c c45d 5dbc 8193 58bc
00000210: 9c9e f53b a304 d93c 75b2 1e3b e53b 58bd
00000220: 1f87 62bc 47a6 31bc 16e0 19bd 0f6b ad3d
00000230: 5e75 51bc 03ac 1bbc c78b 99bc 3c8d f03d
00000240: b28e e33c a214 70bb ce36 bd3c 0161 b43b
00000250: 2858 e93d fa60 ae3c 243f 323d e7d6 123c
00000260: 2ef7 a43d ba2c 15bc a2eb 8cbc 20a0 dcb8
00000270: 9137 153c 94c1 1fbd 336c 9f3c a142 e6bc
00000280: 5dd6 8c3d abab 3f3b 0424 a03c 3f24 c4bb
00000290: 0d88 e83a 46ad 28b9 8e18 3abc d81c 6ebc
000002a0: ebc5 653d 0e47 0e3c b46a 833d 28f5 0f3c
000002b0: ed7e 03bc fb15 b53c 6d03 bc3b 162f 1ebc
000002c0: 422c 84bc 4153 c8bc 36ee 693c a7f3 833c
000002d0: 3ba1 9bbd 9f61 fabc 79bb 45bd fd2f 75bd
000002e0: fe16 b1bb b582 8fbc 80df c0ba a551 90bb
000002f0: ef6c 1b3e 2ed7 703d 21f3 4dbb 9f7a 5e3d
00000300: d417 673a 386b 243e a02d 373d 746c a63c
00000310: 6d27 713d 0f7b a53d 54ab c4bc 4043 80bb
00000320: 39b1 2f3b 68fb 113c 034f a0bc 57d9 043c
00000330: b338 e73c 6995 9a3d 77ae 9dbc fd6b 59bc
00000340: b33d e23b 6b98 95bb 6bfa 4939 5d80 b73c
00000350: 6419 423c 2238 e03c 08d0 f83b a638 233d
00000360: 18db 193d 3768 17bc 5128 e93c f1ab 5e3b
00000370: b93d b33b f42e 24bc 5363 05bc cd36 c73c
00000380: 8882 79bb aa44 b8bc fdcd ac3d b27a 8abc
00000390: 7b4d 9abd 3c2c fe39 efbf c1bc 2df7 43bd
000003a0: 44ed 8a3b 688d 313d 2081 a83c 034e d8bb
000003b0: 3d6e 06bb dd78 d9bb 255d 243d e375 a33c
000003c0: 5b9a 8c3c b2b5 ac3c d3cf e3bc 72bc b9bc
000003d0: eb0c 01bd e0e0 a5bc 76e7 1b3c 23bf 45bb
000003e0: ae47 9a3c 10fe a03c b101 ee3c 9136 07bc
000003f0: fdf5 7cbc d25f 113b 65fa f8b9 d777 743b
0.022244116 0.02261943 -0.012568248 0.013824949 0.00013480919 0.0010590549 0.0062493584 -0.000104077335
0.0041502253 0.034079462 0.013479443 0.025849143 -0.0049434127 0.0027074744 0.007919634 -0.002084051
-0.0069718664 0.029100377 0.001551267 0.014117239 0.0058302246 0.004987499 -0.010622449 -0.022167169
-0.013579023 0.006658821 0.02316691 -0.009579567 -0.00056037505 -0.0043421416 -0.0050846064 0.005316245
-0.0057606525 -0.0039644763 -0.006884128 0.0070934338 -0.0049005705 0.03699919 -0.0015307135 -0.006970421
-0.006226826 -0.006892375 -0.0003533388 0.008858934 -0.0025560542 0.014634147 0.00072507357 -0.010909036
0.012393812 0.05760062 0.008206002 -0.02272492 -0.010059018 0.048096742 0.07817414 0.026065284
0.027075581 -0.014098586 0.10797382 -0.0020130358 0.007902915 -0.0110920165 0.16167848 -0.026350237
0.035372984 0.016809046 0.009964851 -0.024790557 -0.0146061545 -0.036358852 0.038847208 0.042450316
-0.016103351 0.0026645497 -0.008720863 0.00071398326 -0.009420046 0.05516198 0.0035003128 -0.0065059545
-0.019793637 0.00053578586 0.07951279 0.00548023 0.04550994 0.0013757243 -0.005642434 -0.014530635
0.016310489 0.02903731 -0.010393013 0.014194123 -0.055478293 -0.0027247046 0.04255895 -0.019604567
-0.012468323 -0.015261242 0.10208863 0.039843373 0.01599925 0.085044675 0.007421755 0.062225193
-0.012758006 0.005629543 -0.0031042853 0.12450562 -0.002306774 -0.023028497 0.009038227 0.007793166
0.023993438 -0.007134512 -0.049849477 0.060073055 0.015497961 -0.01291773 -0.0023407107 -0.0027194335
-0.021181652 -0.016524494 0.08232975 0.003276418 -0.014143173 -0.017848497 0.01277852 0.090105824
-0.007523228 0.025816657 -0.013511125 -0.013218761 0.0074957144 0.026491469 0.0024215255 -0.052791495
-0.013826161 -0.010842866 -0.03756722 0.084676854 -0.01278433 -0.00950146 -0.018743409 0.11745688
0.027778003 -0.0036633392 0.023097422 0.005504728 0.113937676 0.021286476 0.043517247 0.0089623695
0.08054958 -0.009104902 -0.017202202 -0.00010520243 0.009107486 -0.03900297 0.019460773 -0.028107943
0.06876824 0.002924661 0.019548424 -0.005985766 0.0017740742 -0.00016086278 -0.011358393 -0.014533244
0.056096952 0.008683933 0.064168364 0.008786477 -0.008025867 0.022105208 0.005737713 -0.009654781
-0.016134385 -0.024453761 0.014277985 0.016107393 -0.07599112 -0.030564127 -0.04827449 -0.05986022
-0.005404352 -0.01751838 -0.0014715046 -0.004404264 0.15178274 0.05879896 -0.0031425434 0.05431616
0.00088155014 0.16056526 0.044721246 0.020315386 0.05887549 0.08080112 -0.024007477 -0.003914267
0.0026808514 0.008910038 -0.019568926 0.0081084585 0.028225278 0.07548029 -0.01924823 -0.013270375
0.006904328 -0.004565289 0.00019262142 0.022400076 0.011846874 0.027370516 0.0075931586 0.039848946
0.03756246 -0.009241155 0.028461607 0.0033976997 0.0054700044 -0.01002096 -0.0081413565 0.024318123
-0.0038072187 -0.02249368 0.08437727 -0.016904209 -0.075343095 0.00048479612 -0.023651091 -0.047843147
0.00423971 0.043347746 0.020569384 -0.0066010966 -0.0020512484 -0.0066367225 0.040127892 0.019953674
0.017163446 0.021082733 -0.02780906 -0.022672866 -0.03150646 -0.02024883 0.009515634 -0.003017374
0.018833008 0.019652396 0.02905354 -0.008252756 -0.015439508 0.0022182357 -0.00047488805 0.0037302875

weight_hh_l0 f4 [256, 64]
00000000: 3fae 75bb 426a 45bb 7cc0 15bb eb9f e43b
00000010: c619 093c ef56 b13b 8c40 083b b672 0eb9
00000020: 908d c7ba d9cc eb3b 5f3f 21bb d16c ceb9
00000030: b73d 9c3b 325e 853b abeb d33b 255e 2d3c
00000040: 5598 d9ba b9f9 c8bb 40b4 a0bb 087f d63b
00000050: a20d d7bb b47a 25ba beed 95bb 389a 893a
00000060: f9ca ca3b 473f 953a 5fb4 c23b 1493 24bb
00000070: 00f3 17bb 7bdb a8bb d0b0 cb3b 6479 b93b
00000080: ff75 acbb 222d e73b c838 79bb ece4 53bb
00000090: 6b2b eb3b 4f18 0d3c b99f aabb 6e72 be3b
000000a0: 2724 88bb e379 1dbb 5ada 03bb 1312 a739
000000b0: faa2 da3b a805 f3bb e16a 0b3b 9205 783b
000000c0: 2184 a63b d1f9 7cb9 4cc0 9abb a85f 113c
000000d0: e40e 6d3a eb7d febb a059 18bb cbbb 3c3a
000000e0: 4f2e 883b 5bba 133c 5f6e 4aba f714 6abb
000000f0: 2432 ac3b 5f9b 8dba 2e1a babb 31fa 39bb
00000100: 2594 dfbb a5a6 03bc 0c27 84bb 5d28 1b3c
00000110: 3b97 403c fa20 d63b 46ab 923a b83f 883a
00000120: f125 6cbb 6dd1 423c 66d7 e8ba 56fa 85bb
00000130: fc80 953b 7578 8c3b d261 613c 4504 473c
00000140: 073c d43a e2ad 14bc 1f3d 12bc 70b6 f13b
00000150: cf19 c7bb 59a2 3dbb 5126 0cbc c611 043a
00000160: 5f10 2e3c af7a 883b 57c1 573c 24ff c4bb
00000170: 4d5c cabb d869 00bc bda1 3b3c b2e7 ee3b
00000180: a49e 09bc c38b 113c 8623 e6bb ac3b c3bb
00000190: baf5 f73b efd3 503c 5d47 07bc 5542 013c
000001a0: 9f93 eebb d3ae b0bb d8cf b7bb e0ca 873a
000001b0: ec83 2e3c c3ab 41bc 4a58 e13a cdaf a53b
000001c0: 3b23 dd3b 62ee 1eba f733 0ebc e82c 0a3c
000001d0: 4575 7eba 40b6 3ebc 276b b1bb 619a 563b
000001e0: ec16 923b 6abf 6b3c c7de 13bb 8810 c6bb
000001f0: 32ea e43b 85b4 6ebb 6ad3 29bc e290 cbbb
00000200: f1df 5cbb 94af d7ba e9ab 48bb c58f 3f3c
00000210: 14bf 8d3c 76c4 123c 9dd1 273c 40cd 373c
00000220: 9870 4ebb 8db0 483c 1a36 e3bb 5d09 eebb
00000230: bd5b 2b3c 1764 443c 3582 283c 9b1c 473c
00000240: f0b1 cebb 1689 31bc b607 fbbb ef05 0a3c
00000250: 51ba 5ebc bdd7 1a3c 70b4 01bc a214 4a3c
00000260: 9075 b63c cbe5 4f3b 7855 b43c e2ab 80ba
00000270: 2c62 7ebb c4f7 54bb 9685 303c d54e 1e3c
00000280: 2c45 18b9 1939 403c ca3d 30bb beb4 0fbb
00000290: 2306 373c ae92 a03c ed56 0abb 92eb 6b3c
000002a0: 9166 6cbb ed24 bebb 210e c4bb 8f13 1d3b
000002b0: b946 4e3c 9cd3 d1bb 93c0 193c 7c43 3f3c
000002c0: c404 703c a83d 97bb 2fd2 cbbb b651 343c
000002d0: 0d68 223b 4542 adbb 01d4 1aba 1341 ed3a
000002e0: fd02 673c 32e0 a83c a47e 35b9 6390 dbba
000002f0: 5adb 5c3c b607 16bb 0c76 2cbb 7b9c 8bbb
00000300: 6da0 84bb 6a4f 9abc 763b 45bc 118b bb3b
00000310: 73e8 c33b 6c2d 183b 51fc 8d3b 14ce 103c
00000320: f74e 73bb 71e5 413c b97d 753b 5fc9 afbb
00000330: 5e13 993b ce19 b83b 6b0c bc3b b44a 803a
00000340: dfb6 263c ea5c e4bb 7026 02bc c68d d43b
00000350: 5ad8 b53b fdd0 e039 2b0d ecbb a3f1 193c
00000360: 8a4a ad3b 8331 963b cabf 253c 683d 01bc
00000370: ea0d 50bc af66 e8ba 20e0 993b a164 343b
00000380: 6bfd d7bb afde be3b 4a6a 2bbc 597a 1bbc
00000390: f6c9 4abc 9738 043c 3e80 cabb ff6f 1a3c
000003a0: 5298 3b3b 76e5 0fbc 3c60 d4bb 7bca 67bc
000003b0: 8d90 f13b 35b3 43bb f20f db3b a589 343c
000003c0: 8e23 1c3c 65e1 bf39 8d82 1dbc 7f25 643b
000003d0: 14c3 5dbc f08b 623b 3c85 55bc 0126 c73a
000003e0: 4582 453c fcb5 9c3b 3d9e c0ba 3cab f0bb
000003f0: 6709 353c 651b 3bbc 646a 29bc 5b20 13bc
-0.0037487892 -0.003012315 -0.0022850325 0.0069770715 0.008367961 0.0054119746 0.0020790426 -0.00013584908
-0.0015224684 0.0071960506 -0.0024604423 -0.00039372456 0.004768099 0.004070067 0.006467303 0.010581528
-0.0016601185 -0.006133285 -0.0049043 0.006545905 -0.0065629045 -0.00063125347 -0.00457546 0.0010498231
0.006188747 0.0011386656 0.005941912 -0.002511208 -0.002318561 -0.0051531172 0.006216146 0.005660223
-0.0052630897 0.007054941 -0.003802823 -0.0032332493 0.0071768067 0.008611753 -0.0052070287 0.005811981
-0.0041547003 -0.002402895 -0.0020119161 0.00031866189 0.0066722604 -0.0074164458 0.0021273422 0.0037845117
0.005081669 -0.00024125657 -0.0047226306 0.008872904 0.00090430514 -0.0077664754 -0.002324678 0.0007199614
0.004155911 0.009016599 -0.0007722135 -0.0035718062 0.0052550007 -0.001080375 -0.0056793904 -0.0028377885
-0.00682308 -0.008035337 -0.004032975 0.009470073 0.011754806 0.006534693 0.001118996 0.0010394966
-0.0036033357 0.011890751 -0.0017764389 -0.0040886803 0.0045624953 0.0042868205 0.013756232 0.012147014
0.0016192206 -0.00907466 -0.008925705 0.0073764846 -0.0060760747 -0.0028935878 -0.008554057 0.0005038049
0.01062402 0.0041650156 0.013168654 -0.0060118604 -0.006175554 -0.007837735 0.011452136 0.007290804
-0.008399639 0.008883419 -0.0070232777 -0.005958041 0.0075671347 0.012745841 -0.00825676 0.00788935
-0.0072807814 -0.0053919344 -0.0056094937 0.0010360144 0.01065157 -0.011820736 0.001719245 0.0050563575
0.0067485846 -0.00060627435 -0.008679382 0.008433558 -0.00097068056 -0.0116401315 -0.005414385 0.0032745826
0.004458299 0.014388898 -0.0022563206 -0.006044451 0.006985926 -0.0036423516 -0.010365346 -0.0062123397
-0.0033702815 -0.0016455525 -0.0030620045 0.011691992 0.017303027 0.008957973 0.010242847 0.011218369
-0.0031500217 0.012249124 -0.0069339396 -0.0072643 0.010458884 0.011986754 0.01028495 0.012152816
-0.006307833 -0.0108359065 -0.0076608313 0.008424266 -0.013594226 0.00945085 -0.007916555 0.012334021
0.022272855 0.003172266 0.02201341 -0.000981685 -0.003881584 -0.0032496313 0.010774037 0.00966235
-0.00014521618 0.011732363 -0.0026892298 -0.00219278 0.011170897 0.019601192 -0.002110894 0.014399426
-0.0036071877 -0.0058027417 -0.0059831296 0.0023967957 0.012590104 -0.0064033996 0.009384292 0.011673804
0.014649574 -0.0046155043 -0.006220124 0.0110058095 0.0024781257 -0.005287441 -0.0005906225 0.0018101059
0.014099834 0.020614717 -0.00017308682 -0.0016751405 0.013480032 -0.002289278 -0.0026315479 -0.0042605973
-0.0040474446 -0.018836696 -0.012038102 0.005723365 0.005978638 0.0023220433 0.004333057 0.008838195
-0.0037125924 0.011834488 0.003745897 -0.0053645815 0.004671498 0.0056183105 0.005738785 0.0009787888
0.010175436 -0.006969084 -0.0079437345 0.0064866273 0.0055494728 0.00042880318 -0.007203718 0.00939599
0.0052884268 0.004583539 0.010116527 -0.007888176 -0.01269863 -0.0017730797 0.0046959072 0.00275258
-0.006591489 0.005824886 -0.010462353 -0.009489619 -0.012377253 0.008070133 -0.0061798384 0.009426116
0.0028624726 -0.008782735 -0.0064811986 -0.014147396 0.007371968 -0.0029861454 0.0066852504 0.011019145
0.009529961 0.0003659829 -0.009613645 0.0034812388 -0.01353528 0.0034568273 -0.013032254 0.0015193821
0.012054984 0.0047824364 -0.0014695596 -0.0073446315 0.011049605 -0.011420106 -0.010340307 -0.008979882

bias_ih_l0 f4 [256]
00000000: d797 e33c 056b 2e3e 8247 db3d 41a4 153e
00000010: b67c 553e a1fd 073d 78bb 4c3e 0f6e f63d
00000020: 03fc 483c 7835 273e 8efb 9c3d 9f8f 0b3e
00000030: e44c c33d c3a7 5d3e cbda 533e bc39 103e
00000040: b993 ac3d 7afd 383e 7e7d c13d 1f35 233e
00000050: 341c 8a3e ea6d 9f3d 41ac c33d 6c80 133e
00000060: b915 453e 199d 3b39 13aa 843e ffb9 723d
00000070: 0fd2 aa3d 6858 803d e4ca 603e 5059 133e
00000080: f6ca 0a3e eca1 5d3e 3239 d43d ac8c 943d
00000090: f85e 573e 85d2 3d3e 6a67 ca3d ac09 0b3e
000000a0: 0bc3 e23c b486 3a3d a730 f93d 51ab 153e
000000b0: 4fc6 333e 1074 e33d f56a 243e 2ecc ed3d
000000c0: d0f3 103e c6f8 723c d15f ff3d 7a7b b33d
000000d0: 05a3 313e 46fa b83d 05ad a33d a04c 44ba
000000e0: be3f 483e 0913 453e 3c95 10bb c372 c83d
000000f0: efd8 273e 4eaf 013d f3d3 103e 9e73 0c3d
00000100: 827e 6ebc 3cb5 a03c 4020 513c 4527 e23c
00000110: bf63 79bd 048a 79bc 54ee 273c ee21 b73c
00000120: 1a51 1cbc 9e98 abbc a9b6 58ba 69a1 1c3d
00000130: da8a 313c 2310 55bd 31e9 d43c 63f6 803c
00000140: 6fbe d038 09ca 643c e1a9 bb3b bd81 133d
00000150: 43c5 853b 8a3c 8a3c 31ee 61bc 382b 063d
00000160: 0061 9abd 7f3f 0e3b 1f18 13bd 1c20 bf3b
00000170: ec96 533c 4825 80bc 7e33 ae3b e7cf 563c
00000180: c048 9ebb cca6 11bd de1e 0abc 95e0 3dbc
00000190: 6864 5e3d bd48 92bc 49f4 53bc aa13 01bc
000001a0: 7e22 63bc b95e 38bc 8fcb 043c 86f5 973c
000001b0: a27c c8bc 3015 b1bc 06d5 ba3c b1db 223d
000001c0: e360 2b3d 2596 423b f00e 99bc 016d 753c
000001d0: e667 7a3d 3b53 dcbc 104b 18bb 1d81 dab8
000001e0: e2d4 db3c 6a69 a8bb 57cd 8fbb 3e39 b8bc
000001f0: e3f0 a7ba 99cc abbb 2ce8 7a3b ad18 e5bb
00000200: 0071 a53d a6d7 fd3d b8e5 9e3d 700b 013e
00000210: 643d 873d 3c5c f53d 909a fb3c f788 9b3d
00000220: 2570 4f3d f12a 8a3c d62e b5bd 28a4 9a3c
00000230: 382a c03d 02e9 ea3d 40f6 23bd b9b6 6c3d
00000240: 2546 c3bd f11f c53c 4d2c 22bc a9ff 263e
00000250: ec60 eabc d62a a73d 2a38 843d b9e7 e63d
00000260: b56c ad3d 3ccf 76bd 524c 143e 9a63 193d
00000270: 47c7 863d 9856 ec3d 686e c83d ea74 95bc
00000280: 890b 003e bc58 da3d 493d 103d 31f9 3f3c
00000290: 4bb2 a1bd 3abf 7c3c 36c1 a73d 7ede e23c
000002a0: 0665 ca3d 5f16 eb3c bbe0 87bc 3b35 ad3c
000002b0: f3f3 d13d da58 273d a6b1 653d 8eab fa3d
000002c0: 1f0e 283d 9336 ee3c 1b0f 3f3d 5b02 3f3b
000002d0: 768a 033e 2795 163e 64e3 1bbc 501e 97bb
000002e0: 1f2b b63c caaf 883d 2aa5 bc3c d685 453d
000002f0: 2d16 b03c 8889 33ba 955a 043e 6cbd b43c
00000300: ba5c 4a3d edba 033e 3f49 0a3e 42eb 0c3e
00000310: e1c9 5f3e 7eeb 343d 3476 3e3e 9230 643e
00000320: 2afe 4e3c 1f71 493e 4abe a33d bb60 0e3e
00000330: 9f6c c53d a605 4f3e 6223 713e 74f9 303e
00000340: c936 b93d e5bd 3e3e 10fb 8d3d 121f 473e
00000350: 41d4 8c3e c77e 893d 51a3 bc3d 597e 173e
00000360: 6113 6b3e 2164 dc39 b363 5c3e 628e d03c
00000370: 01ce 553d 26ce aa3d 34ec 503e ac63 013e
00000380: 3f39 0b3d 1184 563e 01ec b53d c761 663d
00000390: fcb7 673e ef2f 4e3e a500 a33d 2171 b93d
000003a0: f3e8 be3c 6d12 3e3d 6cae fd3d b6de 2e3e
000003b0: 43ca 363e 3cd4 273d cdea 123e b7d5 4d3e
000003c0: 3b84 2b3e d2f7 a23c 66b1 f83d b639 093e
000003d0: bf12 4f3e dd2d ed3d fdde c13d a207 44ba
000003e0: fb83 4f3e 2865 553e a63a 07bb dbc4 eb3d
000003f0: c322 5d3e df14 a43d 119d d73d e4ba 193d
0.027782364 0.17033012 0.107069984 0.14613439 0.20848355 0.033200864 0.19993389 0.12032711
0.0122671155 0.1632899 0.07665168 0.13629006 0.0953615 0.21646027 0.20688932 0.14084524
0.08426613 0.18065444 0.09447764 0.15938233 0.26974642 0.07784636 0.09554339 0.14404458
0.19246568 0.00017892233 0.25911006 0.05925941 0.08340847 0.06266862 0.21952397 0.14389539
0.13553986 0.216438 0.10362472 0.072533935 0.21032321 0.18537338 0.09883006 0.13577908
0.027680894 0.04553862 0.12167483 0.14616133 0.17556117 0.111061215 0.16056426 0.1161121
0.14155507 0.01482982 0.124694474 0.08763786 0.17347343 0.09032111 0.07991985 -0.00074882247
0.19555566 0.19245543 -0.0022061607 0.09787514 0.16391347 0.031661324 0.14143352 0.03428995
-0.014556529 0.01961767 0.012764037 0.027606616 -0.06088614 -0.015230659 0.010249693 0.022355046
-0.0095408205 -0.020946797 -0.00082669646 0.03823987 0.010836327 -0.052017342 0.0259901 0.015742486
9.953684e-05 0.013964185 0.0057270383 0.0360124 0.0040823533 0.01687457 -0.013789699 0.03275606
-0.075380325 0.0021705327 -0.035911676 0.005832685 0.012914401 -0.015642777 0.005316197 0.013111091
-0.00483045 -0.03555946 -0.008430211 -0.011589189 0.054294974 -0.01785695 -0.01293666 -0.007878223
-0.013863204 -0.011253052 0.008105173 0.018549692 -0.024473492 -0.021616548 0.022806656 0.039760295
0.041840445 0.0029691544 -0.01868388 0.014979602 0.06113424 -0.026895156 -0.00232381 -0.00010419099
0.026834909 -0.0051395195 -0.004388492 -0.022488233 -0.0012812879 -0.005242896 0.0038285358 -0.006991467
0.08078194 0.12394647 0.07758659 0.1260202 0.06603506 0.11980483 0.03071335 0.07594483
0.05064406 0.01686618 -0.08846824 0.018877104 0.093830526 0.11470224 -0.040029764 0.057791445
-0.095348634 0.024063082 -0.009898257 0.16308464 -0.02861067 0.08162467 0.06456025 0.11274666
0.08468 -0.060256228 0.14482239 0.037448503 0.06580978 0.11539954 0.09786683 -0.018244226
0.125044 0.10661456 0.035214696 0.011717127 -0.07895335 0.015426451 0.08191149 0.027693983
0.0988255 0.02869719 -0.016586652 0.021143546 0.10251608 0.04085622 0.056077622 0.12239753
0.041029092 0.029078757 0.046645265 0.002914569 0.12845787 0.14705335 -0.009514663 -0.004611768
0.022237359 0.06674154 0.023027975 0.04822334 0.02149495 -0.0006848802 0.1292518 0.02206298
0.049404837 0.12864275 0.13504504 0.13761619 0.21854354 0.044169895 0.18599778 0.22284153
0.01263384 0.19672059 0.07995279 0.13904087 0.096398585 0.20216998 0.23548654 0.17282659
0.090436526 0.18627127 0.06932652 0.19445446 0.27505687 0.06713634 0.09210838 0.14794292
0.22956611 0.00042036272 0.21522407 0.025458518 0.052198414 0.08340101 0.20402604 0.12635678
0.03399014 0.20948817 0.08882905 0.05624559 0.22628778 0.20135473 0.07959107 0.09054781
0.023304438 0.04640429 0.12386784 0.17077145 0.17850594 0.040973887 0.14347382 0.20101057
0.1674966 0.01989356 0.12143211 0.13400921 0.20221995 0.11581013 0.0946636 -0.0007477944
0.2026519 0.2083937 -0.0020634322 0.115121566 0.21595292 0.08011793 0.10528005 0.03753175

bias_hh_l0 f4 [256]
00000000: 1761 293d c331 3e3e 7b60 f03d b56d 133e
00000010: c6be 3e3e 9079 023d f3f5 573e 21ea f43d
00000020: 026e 993b c9a9 433e 3e0a a13d 6f55 133e
00000030: 2a66 813d 6628 5b3e bc0b 6b3e a657 eb3d
00000040: 67a0 a23d 0a55 423e 9779 f13d 4f77 223e
00000050: 6163 893e c62a 513d 0901 623d 3014 1a3e
00000060: 6af2 4a3e ad83 4739 06a8 693e c18a 3f3d
00000070: cd47 ce3d 9935 b53d 9bf0 1c3e c72d 1e3e
00000080: aa1f 763d 564f 393e 0866 8c3d 9729 9b3d
00000090: faed 633e baee 363e b468 a53d f236 093e
000000a0: eb49 6a3d 9118 403d 7f2b e63d cb8f 2c3e
000000b0: caf7 333e 1f8a f83d 4606 093e 2fbc 4a3e
000000c0: 73fb 2d3e 2f21 a33c 5d2f e33d e689 ec3d
000000d0: e6bf 5b3e 9d3b de3d b77c 833d 2a7c 44ba
000000e0: 37fd 1e3e b9b2 463e 9989 eeba aa7e 653d
000000f0: 5e28 383e 13ca 263d 2b31 303e 3895 c93b
00000100: 60b4 55bc dddb 0c3c f5df 483c f44e eb3c
00000110: 2bf1 71bd e2d6 4ebc 4414 b53a fba6 163d
00000120: f15a 1cbc 2fdb afbc 32b3 58ba c9a6 1c3d
00000130: eba2 0b3c 82da 5bbd 5f13 c13c 10d4 cc3c
00000140: 7ccd d138 ebd9 5d3c 5057 9e3b ced6 103d
00000150: 5c97 853b 97b9 883c 723e 6bbc bb9e ff3c
00000160: 7bf0 9bbd 304d 0e3b 48cb cfbc f08f c93b
00000170: 7638 4e3c 1cf6 9fbc efcb 033c 4bab d83c
00000180: 0f02 053c 2357 1dbd 5014 ddbb 7493 58bc
00000190: 2664 5e3d 9184 a7bc ee35 7bbc e04d e1bb
000001a0: f0b5 6ebc 1b4b 38bc 8780 053c 124b 993c
000001b0: 496d c2bc 9350 81bc 0628 c93c 1833 243d
000001c0: 18ae 273d f195 423b 3398 60bc 162e 7f3c
000001d0: 6485 793d ec9f d6bc 66b2 17bb 9451 dab8
000001e0: a34f 513c f34b 05bc 7c00 90bb 7e74 8bbc
000001f0: ec18 123c 9b44 9ebb 4fb0 453b f151 c7bb
00000200: aa7d 673d 41f9 d43d 7d26 36bb 5669 67bd
00000210: f774 193c 5148 f53d b4b3 f93d 13ee 343d
00000220: 848c 32bc 1ecc fc3d 17c5 c5bd f085 d83c
00000230: d76c 9e3d 129d dc3c 82b6 a23d da1d b33d
00000240: 1837 06be 2f7a 7c3c 0d3b d63d e67d d03b
00000250: 53f3 0bbe 1a5f 513d fed3 be3d 3f32 0f3e
00000260: af32 103e 7e13 153c 4b2c e03d cced 063e
00000270: 0b11 f83d a5bb a43d 25dd 903d a1c1 23bd
00000280: bca1 d83d ba0a ea3c 711c 2a3e eb5c b43d
00000290: 1445 a23d 90b3 dc3d 5d39 183d 19c7 013e
000002a0: f7eb ad3d 624b 0abd 9ec4 2bbc f20e b03d
000002b0: a9b9 b73c 8b74 e13d aa76 b33d f316 b8bc
000002c0: 9060 203e 06ca 0bbd d83f 673d ab74 b03d
000002d0: 411e b43c 9149 023d a409 0a3c 778c 21bc
000002e0: da19 073e 5487 5d3c bc25 9a3d b3db a43d
000002f0: cdeb fc3d c081 523d a7c8 c93d d277 843c
00000300: ba1e 3c3d fe39 df3d 9e8d ea3d 8d9d 2f3e
00000310: 052a 413e f0f7 4d3d f9aa df3d 88f8 553e
00000320: c911 0b3c c61f 493e 2194 a03d be59 073e
00000330: 170a e23d 395b 533e 37bc 593e bac5 333e
00000340: 79be 9c3d 82e8 383e 6abd ec3d 5072 3a3e
00000350: 0ce5 8c3e bb2d 073d ebe7 7a3d 258f 163e
00000360: 86ee 863e 8eab 9139 5abf 7e3e e0b6 883d
00000370: 5d60 953d c0c8 463d 7e14 5e3e cb03 fe3d
00000380: bee1 f33d cc13 743e 2457 ef3d 6634 843d
00000390: 2ad1 5d3e e0dc 4d3e 0805 b13d ea59 e33d
000003a0: 2a41 d03c 8fad 483d ca22 0a3e d39a 243e
000003b0: 5e20 3a3e b476 003e 6710 183e a830 2c3e
000003c0: fd49 2c3e a953 803c 43ce 063e 4d47 db3d
000003d0: dfa1 6f3e ace5 923d 3ff3 853d a007 44ba
000003e0: 77df 103e 52b6 4e3e 3781 1abb 7dae 623d
000003f0: 2d3c 403e aed0 a33d ba6e b63d 64d3 c63c
0.041352358 0.1857367 0.11737152 0.14397319 0.18627462 0.031854212 0.21089916 0.11958719
0.0046823034 0.19107737 0.07863282 0.14388059 0.063183144 0.2140213 0.22953695 0.11491327
0.079407506 0.18977752 0.117907695 0.15865825 0.26833633 0.051066183 0.05517677 0.15046763
0.19819036 0.00019027172 0.22818002 0.046763185 0.10072289 0.088481136 0.15326159 0.1544715
0.06008879 0.1809667 0.068553984 0.07576292 0.2225875 0.17864504 0.08076611 0.13399866
0.0571994 0.04689843 0.11238765 0.16851728 0.17574993 0.121357195 0.133813 0.19798349
0.16990452 0.019913284 0.11093018 0.115497395 0.21459922 0.10851214 0.06420272 -0.00074953085
0.15526281 0.19404115 -0.0018198966 0.056029 0.17984149 0.040720057 0.17206256 0.0061518215
-0.013043493 0.008597341 0.012260427 0.028724171 -0.059067886 -0.012624474 0.0013815244 0.03678034
-0.0095431665 -0.02146682 -0.0008266448 0.038244996 0.008522729 -0.053675182 0.023568807 0.025003463
0.00010004171 0.013540725 0.004832186 0.035361104 0.0040768813 0.016690059 -0.01435815 0.031203618
-0.076142274 0.0021713488 -0.025365487 0.006151192 0.0125867035 -0.019526534 0.008044227 0.026448866
0.008118167 -0.03841318 -0.006746806 -0.013218749 0.054294728 -0.020448955 -0.015332682 -0.0068757385
-0.0145697445 -0.011248375 0.008148319 0.018712554 -0.023733752 -0.015785491 0.024555217 0.04008779
0.040937513 0.0029691423 -0.013708162 0.015574953 0.060918227 -0.026199304 -0.0023147105 -0.00010410245
0.0127753345 -0.0081357835 -0.004394589 -0.017023321 0.008917075 -0.0048299558 0.0030164903 -0.006082766
0.056516327 0.10399104 -0.0027793937 -0.05649694 0.0093662655 0.11976684 0.12192479 0.044172358
-0.010897759 0.1234362 -0.096567325 0.026431054 0.07735603 0.026930366 0.07944967 0.08745928
-0.13106954 0.01540999 0.10460482 0.0063626645 -0.1366704 0.051116087 0.09317778 0.13984011
0.14081834 0.009098886 0.10945948 0.1317665 0.12112626 0.08043603 0.0707343 -0.03997958
0.105777234 0.028569568 0.16612412 0.08806785 0.07923332 0.10776436 0.03716408 0.12673606
0.08492272 -0.033763297 -0.010483889 0.085966006 0.022427397 0.11008557 0.08762868 -0.02247188
0.15661836 -0.03412821 0.05645737 0.08616003 0.021987082 0.03180844 0.00842515 -0.00986015
0.13193455 0.013521034 0.075267285 0.08049717 0.12349663 0.05139327 0.098527245 0.016170416
0.04592774 0.10899733 0.114527926 0.17149945 0.18863685 0.05028528 0.10921282 0.20895588
0.008488127 0.19641027 0.07840753 0.13217828 0.11037081 0.20640267 0.21263205 0.17555895
0.07653517 0.18057445 0.11559565 0.1820767 0.275185 0.033002596 0.06125633 0.14703043
0.26353854 0.00027784373 0.24877682 0.06675506 0.072937705 0.048531294 0.21687505 0.12403067
0.11908291 0.23835677 0.11686543 0.06455307 0.21661821 0.20103788 0.08643538 0.11101134
0.025421698 0.048993643 0.13489833 0.16074686 0.1817641 0.12545282 0.14850007 0.16815436
0.168251 0.015664892 0.1316462 0.10706959 0.23401593 0.07172713 0.06540536 -0.0007477943
0.14147745 0.20186737 -0.0023575553 0.055342186 0.18772955 0.07998787 0.08907838 0.02427072

weight_ih_l0_reverse f4 [256, 45]
00000000: 1045 e23d d07d fe3d ac92 8c3d 7591 14bd
00000010: 42b4 9cbb 3666 743d edb0 993b 23d1 a7bb
00000020: d0f1 dc3c 1df7 f33c 3cab ed3c 5c02 a43d
00000030: b034 26bc bfad bebc 949d 933c 267a 7dbb
00000040: d3b2 45bc d3df 4c3d 06e6 e8bb 7483 833c
00000050: e57a 933b 0f02 353c 3bd4 f33b 45a2 05bd
00000060: 83df 19bd f706 1b3d e9a5 2d3d a5c8 753c
00000070: 9074 913a c6b4 ffbb ac2d 26bc 4374 3cbc
00000080: 796a 79bc a9df a1bb d252 18bc 6b0d 9a3c
00000090: 3563 a23a 5912 ae3d 1cc9 83bb f648 b1bc
000000a0: 2447 60bc 3807 99bc c4c5 48bb 0f36 cb3c
000000b0: 8439 bebb 5832 953d e2f2 683d 2cba 0b3d
000000c0: 766b ebb8 eb47 d5bb 0cbc 303d 74a6 74bc
000000d0: e8c6 ad3a bfb9 16bb 65bd 103d 3589 df3c
000000e0: 2ddf 423d 4a06 7cbc 5787 6c3c cead 803c
000000f0: fce2 83bb c187 6fbc 2291 b53d fc7e 84bc
00000100: 116d 033c 4ef0 b73b 5b24 073c c3f9 0a3c
00000110: 8c85 95bc ed9e 0e3a 86e8 a33c 1df3 133d
00000120: 4307 babc 861a 133b 0447 f0bb 335d 2abc
00000130: a983 48bc 8452 8abc 5775 b8bb b660 25bc
00000140: 1219 8f3b f29e 913a 7d66 a43d 1889 6abb
00000150: 6c19 e9ba b264 18bc 844e 36bc 8a24 0abc
00000160: a7ba 923c 5302 d1bb 74e0 9e3e 47ee 8f3b
00000170: 3e06 24bc 767c f8bc 8153 5d3d 3387 fe3d
00000180: b37a 96ba 587d a33c ff76 2a3e 5695 1e3e
00000190: 5ec9 5c3a 1f3b 403e 1ac6 1dbc 1e4b 0f3e
000001a0: da0e 023e d74b e33a fa42 643c 2f6b 3a3e
000001b0: 5889 35bc 9966 b03c b673 a13c 976a afba
000001c0: 7f77 973c eeb6 1fbc 6948 b83d 4a34 2bbc
000001d0: 8313 703d 8d1c b1bb 8e5d 75bb a53a 8abb
000001e0: 3b0c 693c 1885 573c c6d9 00bc 48b7 edbb
000001f0: d8e2 cabb 1f44 5b3c e94e fcbb 1306 223e
00000200: 1e79 383c ebee 783c 8745 16bb ff82 863c
00000210: 475a 9abb a26d 55ba d7d0 713c 8c1f 3c3d
00000220: 2a6f 7a3d ab13 ab3c 2d77 2e3d 4c27 11bb
00000230: d1c5 613d e01d e1bb b9c3 4c3c d82a d93c
00000240: 255a 5a3d 0b3f ce3c 6668 7c3d 1bcc 30bc
00000250: 0a1d 873c ecca 563b d832 57bb 8bb4 6bbc
00000260: a886 a63d ef40 90bb b77a 4c3c 5ec0 8b38
00000270: 150a 413c 66ef 15bb 7944 c2bc 01ac 1dbc
00000280: 3696 cf3c af9b 1a3d c783 91bc 2391 31ba
00000290: 95c6 cfbb 69ee 7bbb 5456 c13a d20e d9bc
000002a0: 0171 57bb 826d 0cbc 4aa8 933c 2e07 813b
000002b0: 97a8 813d 3347 ffba 6c89 61bc 671a 44bc
000002c0: 97c4 29bc e382 c1bb d736 cb3c 9080 abbb
000002d0: 4a6c 90bd 1d71 efbc edf2 c4bd 6621 023d
000002e0: 8752 2dbb f44e 16bd a1ec 82bc 4854 103c
000002f0: 9258 7a3d 474e 563c 130d f5bb 71b1 1f3d
00000300: 157d 22bb 17a7 903d 718f 37bc 9f56 c13c
00000310: 9a69 af3c 696e bfbb c5dc fcbb d462 a8bc
00000320: 02f6 45bc 267b 833b 5ee0 823c 0c91 093c
00000330: e5c9 493c 39cb bb3c 7974 92bc cdfb 1fbb
00000340: 654c 253b ad1e 353b df32 4d3c af9b f5bb
00000350: c8af 02bd 0cd9 fd3c 55d9 793c 1c42 b03c
00000360: 15c1 be3c 1acc 43bc 672c 353c 5de6 adbc
00000370: 8402 2bbb 9ebc 87ba 7bab 67bc ac5f c53b
00000380: d4ed 09bc 558c 17bd b877 50bc ad2c f8bc
00000390: 4300 e2bb 15e0 0bbc e56f 9fbc 27c4 b9bc
000003a0: 901e 3fbc 2266 1a3d 298c e33c 0457 9cbb
000003b0: db39 303d 8ba1 eabb 0d46 1f3d b015 f9ba
000003c0: 8a3d cb3c 8e77 333c 9839 773c 25fd 0abc
000003d0: a887 0fbd cab8 2a3b 7a90 9ebb 3eee 38bb
000003e0: c170 493c 2578 5a3d 8288 91bc c50e bbbc
000003f0: 89aa 06bd 66f9 993a e973 bd3a d6cd 803b
0.11048329 0.124263406 0.06863913 -0.03627153 -0.0047822306 0.05966779 0.0046902806 -0.0051213666
0.026970774 0.029780919 0.029012315 0.080082625 -0.010144398 -0.023276208 0.018019475 -0.0038677542
-0.012066561 0.050018143 -0.007107499 0.016053893 0.004500734 0.011047854 0.0074410713 -0.032625455
-0.037566673 0.03784844 0.042394552 0.015001451 0.001109736 -0.0078035323 -0.010142725 -0.011502328
-0.015223139 -0.0049399924 -0.00929709 0.018805226 0.0012389185 0.08499593 -0.004021777 -0.021641236
-0.013688836 -0.0186802 -0.0030635456 0.02480605 -0.0058051962 0.07284993 0.056872256 0.034113094
-0.000112256894 -0.0065088174 0.043148085 -0.014932264 0.0013258131 -0.0022998897 0.03533687 0.027287105
0.04757612 -0.015382359 0.014436564 0.015707877 -0.0040248614 -0.014619769 0.088655725 -0.016173832
0.008021609 0.0056133633 0.008248414 0.008482399 -0.018252157 0.0005440552 0.020008337 0.036120523
-0.02270854 0.002244623 -0.0073326845 -0.010398197 -0.0122384215 -0.01688505 -0.0056292224 -0.010093858
0.0043670023 0.0011109991 0.080273606 -0.003578728 -0.0017784066 -0.009301351 -0.011127118 -0.008431563
0.017911268 -0.006378451 0.3103062 0.0043924185 -0.010011254 -0.030332785 0.054034714 0.12428131
-0.0011480659 0.01995723 0.16646956 0.15486655 0.000842234 0.18772553 -0.009629751 0.13993499
0.12700978 0.0017341328 0.013931984 0.1820495 -0.011080109 0.021533297 0.019708496 -0.0013383207
0.018489597 -0.009748204 0.08998186 -0.010449478 0.058612358 -0.005405015 -0.0037439796 -0.0042184168
0.014224107 0.013154291 -0.007864421 -0.007254515 -0.0061915927 0.013382941 -0.0076998365 0.1582263
0.011259345 0.015193681 -0.0022929625 0.016419886 -0.004710469 -0.0008141642 0.014759264 0.045928523
0.06114117 0.020883402 0.042594124 -0.0022148667 0.055120293 -0.0068700165 0.012497836 0.026509687
0.053308625 0.025176546 0.061623 -0.01079085 0.01649334 0.003277476 -0.0032836702 -0.0143863065
0.081311524 -0.004402272 0.012480429 6.663868e-05 0.011782189 -0.0022878288 -0.023714291 -0.009623528
0.02534018 0.037746128 -0.017763032 -0.0006773641 -0.0063408115 -0.0038441664 0.0014750459 -0.026496325
-0.0032873752 -0.008571031 0.018024582 0.0039376235 0.06330984 -0.0019476175 -0.013765674 -0.011969185
-0.010361812 -0.0059054955 0.024806423 -0.0052338317 -0.070519045 -0.029228741 -0.09616647 0.031770132
-0.0026446895 -0.03669639 -0.015981974 0.008809157 0.061119623 0.013080186 -0.007478365 0.03898758
-0.0024793793 0.0706312 -0.011203633 0.023600874 0.02141266 -0.0058420193 -0.0077167475 -0.020554937
-0.012082579 0.004012483 0.015976127 0.008396398 0.012316202 0.022924053 -0.017877804 -0.002441156
0.0025222537 0.0027636692 0.012524336 -0.0074953656 -0.03190592 0.030987285 0.01524957 0.021515898
0.023285428 -0.011950517 0.01105795 -0.02122801 -0.0026094029 -0.0010355895 -0.014140005 0.006023368
-0.008418519 -0.036999065 -0.012723856 -0.03029474 -0.006897004 -0.008537312 -0.019462535 -0.02267654
-0.0116650015 0.037695058 0.027776795 -0.0047711153 0.043023925 -0.0071603707 0.038885165 -0.0019003656
0.024809618 0.010953797 0.015089415 -0.008483206 -0.03504148 0.0026050084 -0.0048390003 -0.0028218175
0.012294949 0.053337235 -0.017765287 -0.022834191 -0.03287748 0.00117473 0.00144541 0.0039307876

weight_hh_l0_reverse f4 [256, 64]
00000000: ea81 4e00 7b3b 7400 650a 7400 36a8 e500
00000010: 780a e480 c1a7 4800 1282 0f80 6bac 2f80
00000020: 1651 9000 990d 2f00 d884 4880 46f4 0f00
00000030: 35db 9480 a0e6 3080 635f d000 6628 6b00
00000040: 4cb7 3900 0ecb 5980 53ec b480 e810 2380
00000050: eafe 0f00 8046 5780 4fa8 3680 d303 2680
00000060: 9509 bc80 475d d280 0845 e801 eaf5 1100
00000070: 3431 7980 cc18 3c00 553a 7780 f340 1480
00000080: 2a88 6500 8d3a 3900 a073 4f80 af63 6e80
00000090: 0e70 2d80 302a 5680 5c4f 3700 1c6c 2d80
000000a0: ae7b c780 7ca1 ba00 cf7d 5880 880c 5800
000000b0: c0fe a180 4639 e580 f922 9400 1988 5300
000000c0: b489 c100 fa05 1400 7663 1680 5a68 3d80
000000d0: b4d5 0880 ccbc 7f80 e637 3c80 620c 1280
000000e0: e6d4 9700 cc5f 3100 07c2 9400 a291 7e80
000000f0: f11c 8a00 8fa7 d100 22a3 5480 bc7b 2700
00000100: 7197 d880 afb0 aa80 a13d bb80 dbab a280
00000110: 6fce 5480 08a1 8f00 9445 6f80 52ab b780
00000120: 4866 5280 ac34 0a00 adbb 0d80 acba 0b00
00000130: a6f6 2e00 7071 0580 991b b000 9492 2280
00000140: 66b5 9d00 80ce 6980 beac c580 f642 8d00
00000150: 6aba d200 c972 3c80 bed1 3f80 3ddb b300
00000160: 706b 1980 4007 8600 1b15 6f80 c9a8 4200
00000170: f1c3 9600 a002 0300 059f 2980 7b5d bc00
00000180: 20f6 8d80 e73a d200 0606 ad00 8b1d 6300
00000190: ac75 0e80 e27e bf00 2a93 8300 5185 8d00
000001a0: 405b 7200 a8e0 3d80 ef79 8100 4013 2e00
000001b0: 706a 7c00 707b 5d80 a3e8 b600 b795 c980
000001c0: b764 eb00 fff1 ba00 f5b8 bf00 bb4b 4c80
000001d0: e4ed 8800 7640 4f00 cee2 5400 24ca 8f00
000001e0: 4e8e bc00 4898 1800 46b4 0080 88fe e880
000001f0: f189 9100 015c 4f00 c173 8500 ac4d b980
00000200: 6627 5780 3e09 c500 f821 5e80 dbf1 6e00
00000210: e654 eb80 4773 a600 5637 4e80 f6bf 4380
00000220: e524 7a80 0b26 1500 c599 6c80 7061 5a80
00000230: 1178 e380 ae48 8181 5d4f d200 1806 1c00
00000240: 4394 1280 3c9d 5c80 34cb ea80 1757 af00
00000250: 30af 4a00 bf6f 9b81 0648 5780 7249 0e80
00000260: 2031 c200 a8b7 c980 7bdf 7300 0901 ce80
00000270: 7d21 3300 2c11 ba80 0f10 b280 972b 2280
00000280: 9c8c 7f00 ce86 bd00 018d 9c00 5203 6f80
00000290: c81e 0b00 dea6 9a80 2c46 3000 e6de 8200
000002a0: 31ad 6880 faa7 b480 8220 1180 dc90 a300
000002b0: 2e0f 6280 2740 7080 4ab7 5800 bb86 6e00
000002c0: dfe4 7f00 e0b5 6a80 a610 a200 6188 0180
000002d0: 169c 9b00 bd85 7e00 c129 cf00 25c9 2600
000002e0: 974f 1c00 7047 1b80 3761 8200 7b27 8000
000002f0: 0805 9b80 1128 a300 25bb b600 4882 a580
00000300: 1570 5900 405d 3580 1821 2300 ef10 5c00
00000310: a5b1 6a00 b19b 9600 213b ab80 539e bc00
00000320: ce22 2380 1244 1300 14a1 3180 6feb e680
00000330: 24e6 1a80 32b9 3280 ede2 7f80 f8cc 0300
00000340: df86 7300 b693 2980 70b4 9600 35f9 2b00
00000350: d57c d380 58ef a380 2f87 9180 2e09 c480
00000360: 9042 0600 f6a1 4b80 45e9 2280 8fa4 6e80
00000370: f513 b400 e800 7c00 d8e8 8600 ed4e 8900
00000380: fe10 3c80 692f b080 3999 9880 db18 2300
00000390: 7706 1980 5310 8601 a385 c280 2414 5180
000003a0: 9503 a680 1b89 bc80 f282 4780 6ae3 0100
000003b0: 6054 2001 06eb 2180 f4fb 7c00 34f2 af81
000003c0: a2a0 0200 80eb d280 52ad 0b00 9204 0980
000003d0: 0bb1 6e80 884f 2280 b0b6 5080 aa48 a900
000003e0: f4d0 2580 0a75 9680 d382 ad80 5197 cf00
000003f0: b832 d780 c470 1300 014a 4680 699b 3080
7.209773e-39 1.0674255e-38 1.0656646e-38 2.1090671e-38 -2.0942249e-38 6.672334e-39 -1.424193e-39 -4.37812e-39
1.32534e-38 4.321146e-39 -6.659811e-39 1.465161e-39 -1.367029e-38 -4.490836e-39 1.9136002e-38 9.84089e-39
5.300378e-39 -8.246201e-39 -1.6615166e-38 -3.220307e-39 1.468978e-39 -8.014979e-39 -5.019495e-39 -3.491121e-39
-1.726851e-38 -1.9318916e-38 8.5322395e-38 1.649421e-39 -1.1129746e-38 5.519025e-39 -1.094935e-38 -1.86001e-39
9.324232e-39 5.255627e-39 -7.296483e-39 -1.0137664e-38 -4.172795e-39 -7.912987e-39 5.079421e-39 -4.17138e-39
-1.8319632e-38 1.7139332e-38 -8.126655e-39 8.086019e-39 -1.4876902e-38 -2.1050874e-38 1.3604199e-38 7.671169e-39
1.777365e-38 1.838854e-39 -2.056061e-39 -5.6394e-39 -8.11346e-40 -1.1730836e-38 -5.530182e-39 -1.657481e-39
1.3943533e-38 4.534305e-39 1.3661257e-38 -1.1623516e-38 1.268368e-38 1.9253727e-38 -7.772703e-39 3.625972e-39
-1.9890794e-38 -1.5675416e-38 -1.7195346e-38 -1.4939e-38 -7.788236e-39 1.3190243e-38 -1.02187e-38 -1.6867354e-38
-7.567202e-39 9.3725e-40 -1.261187e-39 1.077156e-39 4.312914e-39 -4.99871e-40 1.6172947e-38 -3.174989e-39
1.4483246e-38 -9.716805e-39 -1.8153561e-38 1.2972826e-38 1.9352327e-38 -5.551307e-39 -5.860878e-39 1.6517202e-38
-2.334429e-39 1.2308557e-38 -1.0201311e-38 6.121691e-39 1.3845615e-38 2.76448e-40 -3.822301e-39 1.7298608e-38
-1.3037098e-38 1.9306584e-38 1.5889702e-38 9.102312e-39 -1.32791e-39 1.7586097e-38 1.2083243e-38 1.299663e-38
1.0501981e-38 -5.682557e-39 1.189052e-38 4.231338e-39 1.1425784e-38 -8.584982e-39 1.6797515e-38 -1.8512642e-38
2.1617471e-38 1.7168214e-38 1.760693e-38 -7.006665e-39 1.2574967e-38 7.278128e-39 7.795544e-39 1.320499e-38
1.7316123e-38 2.25868e-39 -6.467e-41 -2.1397144e-38 1.3365631e-38 7.288009e-39 1.2255646e-38 -1.701743e-38
-8.003822e-39 1.8094908e-38 -8.644722e-39 1.0188666e-38 -2.1611797e-38 1.5286046e-38 -7.18302e-39 -6.221841e-39
-1.1217166e-38 1.942193e-39 -9.973396e-39 -8.300149e-39 -2.088973e-38 -4.7491406e-38 1.9313924e-38 2.57358e-39
-1.706225e-39 -8.505271e-39 -2.1562402e-38 1.6102454e-38 6.858672e-39 -5.7098355e-38 -8.015525e-39 -1.312044e-39
1.7833709e-38 -1.8524818e-38 1.0641252e-38 -1.8918484e-38 4.695624e-39 -1.7087562e-38 -1.6352479e-38 -3.138044e-39
1.1713549e-38 1.7405268e-38 1.437692e-38 -1.0194931e-38 1.021233e-39 -1.4202527e-38 4.433277e-39 1.2018575e-38
-9.613021e-39 -1.6590648e-38 -1.572865e-39 1.5021152e-38 -9.005324e-39 -1.0308589e-38 8.147275e-39 1.0150237e-38
1.1745211e-38 -9.799807e-39 1.4883323e-38 -1.40759e-40 1.4290495e-38 1.1619249e-38 1.9024926e-38 3.561906e-39
2.599945e-39 -2.505185e-39 1.1973489e-38 1.1769106e-38 -1.4236307e-38 1.4983559e-38 1.6781195e-38 -1.5199593e-38
8.213567e-39 -4.900733e-39 3.226114e-39 8.45494e-39 9.79829e-39 1.3831176e-38 -1.5725081e-38 1.732187e-38
-3.226728e-39 1.769293e-39 -4.557723e-39 -2.1206622e-38 -2.470282e-39 -4.65821e-39 -1.1744514e-38 3.49035e-40
1.0609465e-38 -3.818244e-39 1.3840053e-38 4.038325e-39 -1.9422071e-38 -1.5055046e-38 -1.3364642e-38 -1.800305e-38
5.74891e-40 -6.945763e-39 -3.206088e-39 -1.0160937e-38 1.6537549e-38 1.1387927e-38 1.2389485e-38 1.2609776e-38
-5.516225e-39 -1.6180055e-38 -1.4013961e-38 3.223159e-39 -2.298207e-39 4.924725e-38 -1.7864026e-38 -7.4459e-39
-1.5245977e-38 -1.7314257e-38 -6.567295e-39 1.73416e-40 2.9447895e-38 -3.114882e-39 1.1477985e-38 -6.463239e-38
2.41295e-40 -1.9369936e-38 1.072366e-39 -8.28159e-40 -1.0165416e-38 -3.150937e-39 -7.412376e-39 1.5546266e-38
-3.472872e-39 -1.381731e-38 -1.5934472e-38 1.906423e-38 -1.9762826e-38 1.785327e-39 -6.455032e-39 -4.463854e-39

bias_ih_l0_reverse f4 [256]
00000000: 84bf 833d cc80 8d3d 1cac 8e3e 9e79 a13d
00000010: 7368 813c 9c9a a83d ec6b 5b3b f206 883d
00000020: d31d 393e 99b5 e43d 965a 1b3c a70e 1b3e
00000030: 627f 333e b950 8b3c 4567 973d fc03 87ba
00000040: 3e65 993d f475 1a3e ec48 bd3c fcae ed3d
00000050: 61b8 9c3d 5191 923d 29ec 4e3c 60ab 913d
00000060: 3147 8c3d 97af a73c 892a 34b4 64c2 793d
00000070: 0ad9 4a3c acdf 2e3d ecbb 163e 782e ef3d
00000080: 1c3c 2c3d 5341 033c d6cc 843d afa2 923d
00000090: 5d40 a63d 4e78 083e 63bd 183e 934a 883d
000000a0: cc0c 133d 6688 173e 0f07 5d3d 0717 433d
000000b0: 2ec6 513d e464 f53d e5d3 093e 8a83 e23d
000000c0: 3eaf 8c3d e1b4 1d3d d866 ae3b c675 c63d
000000d0: 0ada 453d d311 833d 6a02 223e a0a1 733d
000000e0: 0233 bb3d efe3 2e3d 6415 243e a744 3e3e
000000f0: 8772 0e80 8362 2f3b 39df 0437 2f05 033e
00000100: e59b 8680 ebe3 6900 582b 5081 20d1 0c00
00000110: 8409 2900 b2fb 4d81 6625 1d00 e33a 0480
00000120: a60b 2900 5e0f 8f80 378c e000 284b 7a80
00000130: a622 9c00 8d24 9480 7a83 3780 7774 d700
00000140: dadf 4780 04c3 6e00 afc8 0d00 03b3 1080
00000150: 3c92 4600 b3c7 5400 4936 0c80 41ce 7400
00000160: a79c 5f00 82e5 5c00 ef7c 7800 bdd9 5500
00000170: 7021 9480 6c24 4d80 fab8 e380 2ae4 4380
00000180: fe16 b580 7788 9280 95fb c180 34a0 c800
00000190: 8a06 6f00 2184 1700 e288 c680 f8b6 b980
000001a0: fea8 6300 6fc5 3500 5895 4180 0005 7000
000001b0: aa4f 1c00 c6fc 3900 603b e300 de63 7d80
000001c0: bc85 0980 7a0d 1080 5ac6 0200 7eba ac00
000001d0: 91ec 7680 63a6 5c80 a244 ae81 6b1a 6780
000001e0: b7ee 0500 373d bc80 943f 4980 92a5 1700
000001f0: db78 ad00 5820 4180 28ac a400 7d91 2180
00000200: 0387 5f3d db5e c43d 202d 7ebd 277e 763d
00000210: 311d d73c 0aa5 343d fbd7 bc3d 2ae0 b8ba
00000220: d0a0 0c3e ba32 e13d 52dd b83d 1e81 2e3e
00000230: d87a 06bd 9700 3f3d 79a8 903b 5b95 fcbc
00000240: 93da 333d 8835 463d 13a1 3a3b 6ae8 533d
00000250: 8939 5b3b c7a5 b43b 06c8 2fbd 9341 b8bb
00000260: 5cc8 253d 8efd fdbc e7b8 9dbb 6759 913d
00000270: fa96 2c3d 91e4 833d f1a2 063c d49d 983d
00000280: a18b 3b3d 84d8 8d3d 9370 a33d a8ff 033d
00000290: b49c 293d 1c68 d03d fff8 003e 320e 8dbb
000002a0: c6ce b63c 0203 af3d 849c d43d f05c e93d
000002b0: abcc ee3d a80e ac3c 9bb4 9d3d a198 da3d
000002c0: 71be 693d 58a0 683d 8f66 48bc 548c 0cbb
000002d0: 2442 f7bc d3e9 5c3d 9283 e33c d7c6 733d
000002e0: ea71 f93d b67b 4ebd 52c1 933d 41a3 253d
000002f0: 71bf 1bb7 e52d 9eba 219d 04bb 1c05 cdbc
00000300: 3d1c 993d af26 4f3d 0430 933e 346e 503d
00000310: eab3 a23d 3995 b23d d8f3 953b d61a 533d
00000320: 2ec0 1f3e c2df ed3d 098a 983c 95d4 bd3d
00000330: c178 1e3e 90d9 583c 3897 423d b2d1 deba
00000340: c476 bc3d 6e21 0b3e bf2e b83c d723 063e
00000350: b269 af3d d515 aa3d c4dc 963c 7436 323e
00000360: cee2 d03d 7273 b83c 4e37 33b4 e5b1 733d
00000370: e618 243c bf42 ca3c 596e ee3d 2f36 a23d
00000380: a41f 103d 1b9d c43b 3fbc a53d 9167 b73d
00000390: 2ec9 c53d 7f62 9b3d 7915 203e eca6 873d
000003a0: a3ca 1d3d 240c 453e 7636 f63c d20f bb3d
000003b0: 10ff 7e3d 519e cc3d 5fb9 f03d 9fb1 d13d
000003c0: 7cc6 a13d ea64 9d3c 8ba6 ae3b 4f28 c93d
000003d0: b100 593d 7edf 8a3d 6248 323e 00d9 aa3d
000003e0: a34f 173d 0ffd 393d a753 4b3e a909 373e
000003f0: c10f 2b80 a33d b0bb b253 1837 6426 d23d
0.06433013 0.06909332 0.27865684 0.07884525 0.015796876 0.082326144 0.0033481074 0.0664195
0.18077783 0.111674495 0.009482047 0.15142308 0.17529061 0.017006265 0.07392744 -0.001030087
0.074900135 0.15084058 0.02310606 0.11605641 0.07652355 0.07156623 0.012629547 0.07112765
0.06849516 0.02046947 -1.677928e-07 0.0609764 0.012380848 0.04269378 0.14720124 0.11678785
0.042049512 0.00801118 0.06484382 0.07159936 0.08117745 0.13327143 0.14915995 0.06654849
0.035900876 0.14798126 0.05396181 0.047629382 0.05121439 0.11982134 0.13459738 0.11060245
0.06869362 0.038502578 0.0053223185 0.09690432 0.04830364 0.06399884 0.15821233 0.05948031
0.09140588 0.042697843 0.16023785 0.18580876 -1.326782e-39 0.0026761598 7.919786e-06 0.12794946
-1.2361881e-38 9.724489e-39 -3.8234664e-38 1.177046e-39 3.768669e-39 -3.7833136e-38 2.676645e-39 -3.88467e-40
3.769434e-39 -1.3137989e-38 2.0621451e-38 -1.1230892e-38 1.4338767e-38 -1.3604765e-38 -5.098117e-39 1.9786411e-38
-6.600623e-39 1.0171863e-38 1.265853e-39 -1.533585e-39 6.480944e-39 7.78582e-39 -1.1215e-39 1.0726908e-38
8.780568e-39 8.531198e-39 1.1065077e-38 7.884127e-39 -1.3603649e-38 -7.084399e-39 -2.0913015e-38 -6.234828e-39
-1.6630473e-38 -1.3456937e-38 -1.7814501e-38 1.8424569e-38 1.0196086e-38 2.159615e-39 -1.8232533e-38 -1.7055204e-38
9.152337e-39 4.938107e-39 -6.022882e-39 1.0287369e-38 2.599972e-39 5.325301e-39 2.0867957e-38 -1.1515263e-38
-8.74494e-40 -1.474202e-39 2.54826e-40 1.5862606e-38 -1.0921453e-38 -8.508554e-39 -6.401599e-38 -9.468533e-39
5.44812e-40 -1.7287033e-38 -6.726799e-39 2.171612e-39 1.5930896e-38 -5.98091e-39 1.512278e-38 -3.082763e-39
0.054572117 0.09588405 -0.062054753 0.060178902 0.026259037 0.044102706 0.092208825 -0.0014104892
0.1373322 0.109960034 0.090265885 0.17041442 -0.032831997 0.046631422 0.0044146148 -0.030832937
0.04390962 0.048390895 0.0028477355 0.05173532 0.0033451042 0.0055129263 -0.042915367 -0.0056230514
0.04047428 -0.031004693 -0.004813302 0.0709713 0.04213617 0.0644008 0.008217559 0.07451978
0.045787457 0.06926063 0.07980456 0.032226235 0.04140921 0.10176107 0.12594984 -0.0043046707
0.022315394 0.085454956 0.103814155 0.113946795 0.11660131 0.021003082 0.077004634 0.10673643
0.057066385 0.05679354 -0.012231483 -0.0021445947 -0.030182905 0.05393393 0.027772699 0.0595158
0.121799305 -0.05041095 0.07214607 0.040438894 -9.283293e-06 -0.0012068121 -0.0020235258 -0.02502685
0.07476089 0.050574 0.2874757 0.050886348 0.07944472 0.08719868 0.0045761876 0.051539265
0.15600654 0.11614944 0.018620508 0.092690624 0.15475751 0.013235465 0.047507495 -0.001699975
0.0920234 0.13586971 0.022483228 0.1309961 0.08565082 0.083049454 0.018415816 0.17403585
0.101995096 0.022515986 -1.6690794e-07 0.059495825 0.010015702 0.02469003 0.11642141 0.07920491
0.035186425 0.0060001737 0.08092546 0.089553006 0.096575126 0.07587146 0.15633191 0.06623635
0.038523328 0.19242913 0.030055266 0.09133877 0.062254965 0.09991134 0.11754107 0.10238957
0.07899186 0.019213159 0.005329912 0.098221414 0.052979175 0.06780909 0.17410424 0.08342171
0.036941182 0.04540735 0.1985613 0.17874779 -3.954578e-39 -0.0053784414 9.079393e-06 0.10261229
