final_models/LSTM_5_visits_AdmDemo.pt (torch, 706589 bytes, 33 tensors)

weight_ih_l0 f4 [256, 45]
00000000: 2320 1fbb 0ecb 24bc 0109 80bc d55d e8ba
00000010: 94ea 61ba 27b2 6dbb 74dd 8c38 0e97 09bb
00000020: 5cd4 faba 2b20 29bb 5da4 06b9 c311 68bb
00000030: 2fd6 1839 acf6 9eba ed8c 043b a9c7 16b8
00000040: f7bf 8a39 7898 aabb fe63 0cba 0cf1 1939
00000050: 18fa 6739 e5ef 5cb9 7a25 54b9 966b db3a
00000060: 60e0 c5b8 28f9 72b9 0cb5 b937 e4dd 82ba
00000070: f5a6 8438 c124 d735 2776 35ba 836f 37ba
00000080: e2e8 18ba c48c 8bb7 d864 e337 58cf 1aba
00000090: b0a4 8cba 5623 d839 7858 6bb9 20f3 a4b9
000000a0: 6a3a ceb8 105d e6b9 0b06 b137 8f93 ea39
000000b0: 802c bd3a be0a 1e3d 7a63 eabb 1591 1a3d
000000c0: 3c32 f6bc b539 c63b dbf7 113d f00d 82bc
000000d0: f6b0 c9bc 7064 523d b283 063e 8474 233a
000000e0: 97a0 2d3e 872e ddbb d8d2 29bb a7fb d13c
000000f0: ec9b 6e3b d45b 5dbb 8e80 343e a946 00bd
00000100: db94 fa3c 2c05 583b 9665 89bb 4dd8 903d
00000110: a322 d6bc 9f08 173c c80a a13c 78e0 8a3c
00000120: fc53 363d d9b4 bbbb 6891 b3bb 8853 c73c
00000130: 3bf6 53bd 61b5 dcbc 040a 7a3c ee71 c639
00000140: 12e3 31bd 8853 cd3c 5007 983c 5e0e 353c
00000150: 0053 923d 0420 e4bb 48fd 143d 6a2f e0bb
00000160: df6f 01bc ae9d 973c aac6 9dbd e7e2 78bd
00000170: a96e d3bd 92bd c6bc 1d03 05bc eafa c3ba
00000180: c85b 6bba 4924 dbbd ea4a 0b3e a7dd d93d
00000190: 8d89 813c 910a 133e c440 633d 9532 4f3d
000001a0: 2385 b43d 4796 5c3c fcbf 57bd 56ed 393e
000001b0: 7368 b83c e8ac 54bd 8396 5a3c 36d1 7cbc
000001c0: 3c1c 023d 5f85 d8bc 6613 8f3a 479b 853d
000001d0: 211b 203d 36f3 73bd 0156 563a 52b9 a63b
000001e0: 69e2 da3c 500c 753c 2ccd b53d 13a5 863c
000001f0: 2420 34bc e5da 383d 127d 273c 7e43 743d
00000200: 292f 083a 6d1f f43c 9250 b83b 0bb9 89bd
00000210: 589f 523c 95b6 303c ea3a a4bc 4d76 f4bc
00000220: 897f 40bd 4da5 28bc 7ce2 2f3d 94e4 5cbb
00000230: d685 b4bc 0d5d 6abb 5546 20bb 942e 0bbc
00000240: a828 da3c 0a30 2f3b 8b50 24ba f496 46ba
00000250: 981d 7a3c bf22 4f3a aa8e 96bb dd22 3d39
00000260: 5fbd 873c 9ee5 8c3b 78fc cb3b d45d acbb
00000270: 12d7 d13a d690 103c f714 32bc 1ea0 e3b9
00000280: 1565 c9bc f106 0d3c 2867 903b 1686 843b
00000290: 4f07 a6ba c74a 91bb e43c 55ba 9cb5 10bc
000002a0: f2a3 493b 7c79 733a a297 023b 0716 783c
000002b0: b55e 8eb9 c18f 913b 0451 2abb 0caf 4c3b
000002c0: a67b 8e3b ea45 543b 068d 04bb 5b0f a83c
000002d0: c56b c9bc 4179 b83d edda 963b 77e2 493d
000002e0: 7076 8f3d 3e31 1d3b b36d bf3c 8541 5a3b
000002f0: cfbb 143e ee66 ae3d e6a6 2f3c 530f c63d
00000300: 6df6 a6bc d275 103e d0b1 ed3b d6f1 893c
00000310: 6e18 7c3d 6306 113e 8bb7 303b 1b12 12bd
00000320: 0cdd 773c af98 da3c 376d 153d 80bf 933c
00000330: 751c 8b3c 52a0 003c bdd2 803c 661e 823c
00000340: 4ee1 323c 4aeb 8cbb e124 a93b a563 683c
00000350: 5a4b 45bc 49c9 fd3c edd6 ee39 3b13 9c3b
00000360: 9195 b13c 0bc9 02bc fd32 953c 14e0 853d
00000370: d2bf cd3b 9032 513c db8a fdbb 2d1e adbb
00000380: 9565 843c 0c62 913d 034a 303e 54d5 543d
00000390: 5532 a23d ec30 d8bc 6c7f 853b d606 273b
000003a0: 9f9a 8f3d 5145 6b3c 77d1 913d ae6b 2a3c
000003b0: 1c3b a43d ef15 6e3c f7da 1abc 98ec 2f3c
000003c0: 504c b43b 01cb 0e3d 0596 af3c 7e8d bcbc
000003d0: afe3 e3bc 76dc fd3b 26d3 273c 65b8 2b3c
000003e0: 052b 253a bffc 873c 2bce c63c b579 4b3c
000003f0: 20e3 cabc 8b6c 0f3c be2a 8a3b 52ce 563c
-0.002428063 -0.010058178 -0.015629293 -0.001772816 -0.0008618024 -0.0036269517 6.716969e-05 -0.0020994577
-0.0019136774 -0.0025806527 -0.00012840466 -0.0035410977 0.00014575639 -0.0012127957 0.00202256 -3.5948735e-05
0.00026464436 -0.005206164 -0.0005355476 0.00014681014 0.00022123044 -0.00021070203 -0.00020231857 0.0016740437
-9.435485e-05 -0.00023171736 2.2138025e-05 -0.0009984341 6.325349e-05 1.6029445e-06 -0.0006922208 -0.00069975125
-0.0005833042 -1.663564e-05 2.7107468e-05 -0.00059055304 -0.0010730233 0.00041225058 -0.00022444304 -0.0003146166
-9.833726e-05 -0.00043938356 2.1102858e-05 0.00044741898 0.0014432818 0.038584463 -0.007152972 0.037736017
-0.03005325 0.0060493597 0.035636764 -0.015875787 -0.024620514 0.051365316 0.13136175 0.0006235319
0.16955791 -0.0067499313 -0.0025913026 0.025632693 0.0036408855 -0.0033776658 0.17627165 -0.031317387
0.030588558 0.0032962067 -0.004193018 0.07072506 -0.026139563 0.009218364 0.019658461 0.016952738
0.044513687 -0.005728346 -0.0054799803 0.024331823 -0.051748496 -0.026941957 0.015261177 0.00037850387
-0.04342944 0.025064245 0.018558174 0.011050789 0.07144737 -0.0069618244 0.03637436 -0.0068415897
-0.007900207 0.018507805 -0.07703908 -0.060763266 -0.10323841 -0.024260316 -0.008118418 -0.0014952098
-0.0008978215 -0.1070028 0.13602796 0.1063798 0.01581266 0.143595 0.055481687 0.05058535
0.08814456 0.013463563 -0.052673325 0.18156943 0.022510743 -0.05192271 0.013341549 -0.015430739
0.031765208 -0.026430784 0.0010915815 0.065237574 0.039088372 -0.059558116 0.0008176268 0.00508801
0.026719289 0.014956549 0.08877024 0.016436135 -0.010993991 0.04513063 0.01022269 0.059634678
0.00051950157 0.029800141 0.005624839 -0.06724747 0.012855373 0.010785718 -0.020047624 -0.029841566
-0.046996627 -0.010293317 0.0429406 -0.003370558 -0.022036474 -0.003576103 -0.0024455984 -0.008494992
0.026630715 0.0026731514 -0.00062681054 -0.00075755944 0.015265845 0.0007901601 -0.0045946436 0.00018037432
0.016569791 0.0042998334 0.006225165 -0.0052602086 0.001600953 0.008823594 -0.010869256 -0.0004341611
-0.024584332 0.008607612 0.0044068284 0.0040443046 -0.0012666973 -0.004433963 -0.00081343786 -0.008832362
0.0030767885 0.0009287817 0.0019926806 0.0151419705 -0.00027154913 0.0044421856 -0.002598823 0.0031232266
0.004348236 0.0032390305 -0.0020225658 0.020515135 -0.024587521 0.09007502 0.0046037347 0.04928824
0.07005012 0.002398565 0.023367738 0.0033303213 0.14524768 0.08515726 0.010720944 0.096708916
-0.020381177 0.14107445 0.007253863 0.01683895 0.061546735 0.14162593 0.002696487 -0.035661798
0.015128385 0.026684133 0.03648111 0.01803565 0.016981343 0.007850723 0.015725488 0.015883636
0.010917975 -0.0043005096 0.005161867 0.014183913 -0.012041891 0.03097977 0.0004555503 0.0047630346
0.021677764 -0.007982503 0.01821279 0.0653688 0.0062789703 0.012768403 -0.0077375 -0.0052831382
0.01616172 0.07098779 0.17215733 0.051961258 0.07919756 -0.026390515 0.0040740278 0.0025486252
0.070119135 0.014359788 0.071200304 0.010401649 0.08019087 0.014531597 -0.009451619 0.010737561
0.005502261 0.03486157 0.02143384 -0.023016687 -0.027818529 0.0077472283 0.010243213 0.010480975
0.0006300661 0.01660001 0.02426823 0.012419154 -0.024766505 0.008753906 0.004216521 0.013110714

weight_hh_l0 f4 [256, 64]
00000000: e4fb 47b9 4c7f 0438 7dfb 7039 59eb b938
00000010: 39f0 b139 2e26 0eba e6d9 1e38 18af a9b9
00000020: 50dc 3fb9 0a7a eab9 fce4 1bb8 9a05 3f3a
00000030: 04de 1bba fe40 0fba ef99 02ba 8c22 d5b9
00000040: 477a 5f3a 9c85 4cb8 6b6b bd38 90db 9db9
00000050: 4676 c6b8 5017 6db7 ce2b f1b8 4e73 92b9
00000060: 74da aeb9 491d 9eb8 0628 19ba 4b09 c139
00000070: 64cb 1039 e65f 38b9 be1e 9538 c799 73ba
00000080: 9f90 8038 c4af 30b9 5637 eab8 5283 7438
00000090: 80d2 b6b6 7275 56ba 7067 b4b8 61c3 41ba
000000a0: 1abd 9cb8 57ee ad39 5bc4 2e39 2448 feb8
000000b0: 6d57 d039 7f78 b438 08b5 c3b9 befb 0eba
000000c0: 53f4 57b9 aaeb 07b8 3d04 cb38 5359 d3b9
000000d0: 20f5 9db6 dce1 4839 ecd8 c937 e28c c2b9
000000e0: 7825 9fb9 3227 d2b9 fc78 1637 45c9 aa39
000000f0: 34a8 01ba 287f a038 8413 10b9 2321 2639
00000100: 1713 053b 5451 913c d85e c4bc ef94 4a3c
00000110: dbf8 83bc 5dbb 50bc fc1d 5ebc f0a8 0dbd
00000120: ccf3 6e3c b248 873b 73ed 103c ad3f 933b
00000130: 6bd4 f8bc 3232 27bd 3b4b 91bc 3b2b 20bd
00000140: 5620 e13b 67a6 aabc e8bb 5a3c fe95 1abb
00000150: 7c5c 0d3d 6d2c f63a 11c7 be39 0511 7eba
00000160: bd98 95ba c08f 043b 8a60 033c 9a2c 5cbb
00000170: 8f37 593a b6bf b13c 318f 75bc f085 0ebc
00000180: 7f38 da3b 7016 d2bc fde1 84b9 594d 4dbb
00000190: 1865 c0b9 828a 003c 0c2e 48ba 7270 23bc
000001a0: 2df1 833c ac62 2b3d 8bdd 15bc 59c1 d1ba
000001b0: 60af f9bb 864f 773c 1f84 3abc 2e71 c8bb
000001c0: cefa 66bb b589 debb bebd 643c 1280 1abc
000001d0: 4fe8 85bd 2a16 e73c 5bf4 7f3b ee26 32bc
000001e0: d12e 5e3b 20bd 93bc 9398 b0bb 3827 a23a
000001f0: bbad 4abc 9e58 203c c08e 613b bd84 2cbb
00000200: 5e8c 903a 0653 d6bc 5a00 1ebc db23 04bc
00000210: 2db8 813d 30f8 403c 0942 013c 9899 2b3d
00000220: 637d b4b8 53a6 093d 5279 07bb 94f0 86bc
00000230: 596e ba3c be5e ee3c 5ccd 683c f0b6 083d
00000240: 3be4 48bb eebb dbbb e36b 9b3b 511c bf3c
00000250: 004c 95bc 9344 8d3b 3fae 58bb 46f3 f0b9
00000260: 3747 253d 5eeb f23b 4a37 fe3c 3817 df3b
00000270: 9ea5 ba3b 74a4 52bc 0571 193d fd84 1c3d
00000280: a91d 17bc 6587 1d3d d157 9fbb 8522 013c
00000290: 1f78 e5b8 4608 1a3d 68f7 fc3b 4743 d73c
000002a0: e7f7 383c b7c1 44bd c68e f93c 8cf9 39ba
000002b0: 3761 673d 3e64 fcbb 34ca 613c f463 523d
000002c0: b716 ca3c fa64 6bbc 0085 b5bc 12e6 faba
000002d0: 9097 37bb 6b2e 1c3b 2f18 273c ab42 a4bc
000002e0: c5b7 c43c b91f 9e3d 904d b739 66b2 873b
000002f0: 8ea5 263d b0cf 6abb 77be 77bc fad8 e33b
00000300: adbb 22ba 5ec8 863b 3854 5ebb e2f7 353b
00000310: 54d2 2cbb cf51 74ba 1e84 f1ba dcab 023a
00000320: 873e 1d3a fba4 21bc 4f2f 16ba 3ce4 5b3a
00000330: 17e0 21bb bdbf 39bb 5227 863b 88f2 ec3a
00000340: 9272 e8bb f182 63bb b4b1 c039 e5c8 69bb
00000350: a5dd d83b a1b1 bbba d056 333b a3e8 0c39
00000360: 8466 a7bb dcf3 15bb 0373 883a 50c8 66ba
00000370: fb4c 5e3a 7425 213b da14 94ba f7bd 263b
00000380: 3f1c 383b 8763 8e3a 90ec 893b eaba 063b
00000390: ab4c 17b9 8091 3aba 93c8 473b 7c63 34bb
000003a0: e49b f6ba b794 323c 2734 ffbb ff86 81bb
000003b0: 882d 9fbb c4bc d83a 343e a4bb a303 32bb
000003c0: f343 59bc 5154 0bbb 4f60 083c 8983 bf3b
000003d0: d08e 2abc 7dd1 c33a f7d8 543b 3f4b a83b
000003e0: 452b 6aba faf8 bf3b e4fc 56ba a8e2 133b
000003f0: f418 c6ba 5681 a33b ccaf 433b a01d 13bb
-0.00019071955 3.1589807e-05 0.0002298187 8.865324e-05 0.0003393905 -0.00054225593 3.787307e-05 -0.00032364647
-0.00018297252 -0.00044722884 -3.7168138e-05 0.00072869065 -0.00059458637 -0.00054647017 -0.00049820443 -0.00040652265
0.00085249956 -4.8761824e-05 9.0322304e-05 -0.0003010896 -9.463406e-05 -1.4131729e-05 -0.00011499935 -0.000279332
-0.00033350626 -7.539482e-05 -0.0005842451 0.00036818752 0.00013808679 -0.00017583332 7.1106e-05 -0.0009292629
6.1304534e-05 -0.00016850146 -0.000111682966 5.8296435e-05 -5.448528e-06 -0.0008180953 -8.6023356e-05 -0.00073914794
-7.4738826e-05 0.00033174708 0.00016667081 -0.00012125101 0.0003973799 8.605513e-05 -0.00037328177 -0.00054543826
-0.00020595016 -3.2405987e-05 9.680584e-05 -0.00040311608 -4.707501e-06 0.00019157626 2.406208e-05 -0.0003710753
-0.0003035476 -0.00040083524 8.968866e-06 0.00032574884 -0.00049460237 7.653079e-05 -0.0001374018 0.00015843338
0.0020305568 0.017738976 -0.023971006 0.01236461 -0.016109874 -0.012739983 -0.0135569535 -0.03458494
0.014584493 0.004128539 0.008845675 0.0044936747 -0.030374726 -0.040819354 -0.017736068 -0.039103728
0.00687031 -0.0208313 0.013350464 -0.0023587937 0.034512028 0.001878155 0.0003638794 -0.0009691867
-0.0011413317 0.0020227283 0.008018622 -0.003359592 0.0008286172 0.02169786 -0.014987753 -0.008698925
0.006659567 -0.025645465 -0.00025345376 -0.003132662 -0.00036696414 0.007845523 -0.0007636256 -0.0099755395
0.016106213 0.041842148 -0.009147058 -0.0016003057 -0.0076197833 0.015094643 -0.011384039 -0.0061170077
-0.0035244706 -0.0067913183 0.013961254 -0.009429948 -0.0653845 0.02820881 0.003905556 -0.010873539
0.0033902416 -0.018034518 -0.005389282 0.0012371307 -0.012370522 0.009786753 0.003441736 -0.0026324235
0.0011028161 -0.026162636 -0.0096436385 -0.008065189 0.06333957 0.0117779225 0.007889279 0.041894525
-8.606424e-05 0.033605885 -0.0020671678 -0.016472138 0.022757696 0.029097911 0.014209118 0.033377588
-0.0030653614 -0.0067057526 0.0047430857 0.023328932 -0.018224716 0.004311153 -0.0033062843 -0.0004595762
0.04035112 0.007413312 0.031032223 0.006808188 0.0056960126 -0.0128565915 0.0374613 0.038212765
-0.00922338 0.0384592 -0.0048627635 0.007881765 -0.00010941945 0.037605546 0.007719923 0.026277198
0.011289573 -0.048036303 0.030463587 -0.00070943753 0.056489196 -0.0077023795 0.013781119 0.051364854
0.024669034 -0.014367336 -0.022158146 -0.0019142053 -0.0028013922 0.0023831378 0.010198637 -0.020051321
0.02401341 0.07720894 0.0003496227 0.00414114 0.04068523 -0.0035829358 -0.015121094 0.006953356
-0.00062077754 0.004113241 -0.003392471 0.0027766158 -0.0026370483 -0.0009320052 -0.0018426215 0.00049847155
0.0005998392 -0.009865995 -0.00057290954 0.00083881966 -0.0024700218 -0.0028343045 0.004094043 0.0018077651
-0.007093736 -0.0034715498 0.00036753493 -0.003567272 0.006618219 -0.0014319905 0.0027364977 0.00013438104
-0.0051086564 -0.0022880947 0.0010410253 -0.00088036526 0.0008480099 0.0024588974 -0.0011297718 0.0025442818
0.0028093008 0.0010863402 0.0042091087 0.0020558187 -0.00014429043 -0.0007117018 0.0030484542 -0.0027525118
-0.001881477 0.010899714 -0.0077881995 -0.0039528604 -0.0048577227 0.0016535749 -0.005012298 -0.0027162812
-0.013260829 -0.0021259973 0.008323743 0.0058445376 -0.010410026 0.0014939752 0.0032477954 0.005135923
-0.0008932839 0.0058585377 -0.0008201136 0.0022565518 -0.0015113638 0.0049897833 0.0029859422 -0.0022448078

bias_ih_l0 f4 [256]
00000000: 71e5 8ebb 19ea 433e a378 593e 2f8b ba3c
00000010: 3ac7 5c3e f0b1 9d3d 3a1d 463e e737 273e
00000020: 753b f03b 6bac b63d 43b5 0fbc a5ee 643e
00000030: 2b7b c63d f1d8 1f3e 6a24 533d 0bbc a83e
00000040: 83d8 ab3d 53c5 993e bc41 eb3d 6557 5d3e
00000050: 4a08 1b3e 2950 8aba c599 a1bc d2cc 08bc
00000060: a6ae 5d3e 7734 e3b9 7d90 5e3e b1d0 0abb
00000070: 24e4 a5bb a135 393d 3643 423e dcf4 f13c
00000080: 61f7 b83c 3c5f 4d3e cb43 993b 084e 63bb
00000090: 322d 22bb 8c88 1d3e a10e 91bc 001b be3d
000000a0: 8dfa d43b af95 4d3e c147 773e db37 853c
000000b0: a8a3 393e 1846 413b f1d4 353d c2d5 2e3e
000000c0: 569f 193e 6086 143e 6196 073e b068 b03d
000000d0: 96a0 743e 09d0 233e d84e 17bc 33cc 103e
000000e0: fdde 423e 5a15 803e 58f7 b2bb 033b 1fbc
000000f0: 9940 3e3e 2018 fdbb 1728 b83d 3239 2a38
00000100: b139 bfba c033 fe3d f648 a43d 3a26 e53b
00000110: 649b 3f3d 09e8 d33c 588a 783d 4b9d 0d3e
00000120: 86f7 9b3b f641 073d f964 99bb 6a9c 133c
00000130: 4f07 c73c cdf3 81bc 9f38 bbbb 4e54 a93d
00000140: 9959 c13c 3b24 3c3d ab24 cf3d 9d77 ac3d
00000150: f859 bd3c a225 adbb ead7 3fbb b360 6abb
00000160: f2a5 44bd 4060 013b 531c a0bb 6f52 35ba
00000170: b42c 99b9 2ff5 583d 8fa1 e33b 9914 24b9
00000180: c4f2 4a3c 0f48 bd3b f4fc 513a 91c5 fd3b
00000190: 4161 10ba f0c1 e23b c207 2e3b eb9b 1e3d
000001a0: 21ad 223c 82cd e63c 7963 e23c b361 1c3c
000001b0: 66f3 963c 4ab7 863b 1223 813c 03a6 4d3c
000001c0: f9c4 3d3d 41c5 873d 615d ab3d 6c47 473d
000001d0: eaa2 cf3d b649 453d c206 333b 1133 433d
000001e0: db3e d33d 82ef 6e3d 7893 23ba 1488 5abb
000001f0: 39ae 123d 90b3 933b 4c26 6e3d 3250 9c3a
00000200: 5acf 2f3c 8a5e 073e d13b 863d d3a2 163d
00000210: 2ec1 063d 41dd e33d 1e8a eabc 3ed9 cd3d
00000220: bddc c33b 80fc 91b5 7989 5abd 1566 a0bc
00000230: 82d8 823d e3b3 903d 0ab6 14bd 0e2c 1c3d
00000240: 642a bbbd f23b 343c 2ef0 5f3c d495 0f3e
00000250: ab47 eabc 094c 073d 99d9 0b3d fc9b febb
00000260: b960 753d 1c4f b3bc f51b 083e eb00 9fbc
00000270: cc22 5b3c 86b9 d33d 0d92 713d 28b4 28bc
00000280: 25f8 b53d 2f4c bc3d ea9a de3c d38e 88bc
00000290: e5ce 31bc 5614 b73b 7c29 8b3c 1141 3a3c
000002a0: 2d26 7a3c 91e6 273d 97d4 b3bb dfd6 b5ba
000002b0: cfa4 9e3d 8b29 eabb b2d0 903c e57d c03d
000002c0: 2b7d 3ebc b39a 393d b6ef 823d 645d e23b
000002d0: 0d6b c93d be14 9f3d 5520 aebc 37fa 62bd
000002e0: 9bb3 733c 7b79 8f3d 4cb3 03bc caa8 aeba
000002f0: 5129 babb 6e81 b8b9 132a 0a3e 3a09 78bc
00000300: cd85 90bb e1b1 103e ba66 3a3e 8964 a63c
00000310: 49f8 653e c47f 9a3d ce21 453e 2083 253e
00000320: c5a9 d13b dc36 af3d c1a5 13bc 68c6 603e
00000330: 06ec c33d 22cd 173e 4e00 6b3d 76b2 b23e
00000340: b409 b13d 4b66 823e 2da3 b33d 0d30 513e
00000350: eb1a 013e b387 81ba 8a28 b4bc 14ad 08bc
00000360: 2703 693e c2e3 1fba 39d4 473e d483 12bb
00000370: 0662 afbb 4ff7 523d d345 2e3e 75b0 193c
00000380: bd14 79bb 60ac 4b3e 548c 0dbb 7428 92bb
00000390: 9c9b 22bb da57 273e fd41 9fbc e04b b33d
000003a0: 5926 973b 716d 3e3e 94c1 523e 180c 943c
000003b0: a40c 3a3e 5956 7fbb ae90 303d 315d 3e3e
000003c0: be2f 253e 792c 003e c20a e23d 88c3 bb3d
000003d0: 6d4f 8b3e 30dd 083e 2574 15bc fd86 133e
000003e0: 1aa2 593e da2d 653e 789d b3bb 833f 20bc
000003f0: e8a5 573e 982e 03bc 47c8 9d3d 8238 94b7
-0.0043608476 0.1913227 0.21237426 0.022771446 0.21560374 0.076999545 0.19347087 0.16329919
0.0073313066 0.08919605 -0.0087712435 0.2235666 0.09691461 0.156101 0.0515484 0.32955965
0.08390906 0.3003336 0.11487147 0.2161537 0.15139881 -0.0010552454 -0.019726643 -0.008349614
0.21648654 -0.00043335903 0.21734805 -0.0021181519 -0.005062597 0.04521716 0.18970951 0.029535703
0.022578897 0.2005586 0.004677271 -0.0034683961 -0.0024746177 0.1538412 -0.01770717 0.092824936
0.0064995945 0.20076631 0.24148466 0.016261986 0.18128836 0.0029491242 0.04439253 0.1707373
0.15002188 0.14504385 0.13240959 0.086137176 0.23889384 0.15997328 -0.009235106 0.14140396
0.19030376 0.2501629 -0.0054616146 -0.009718659 0.1857933 -0.007723823 0.089920215 4.0584426e-05
-0.0014589337 0.12412214 0.08021729 0.0069930824 0.04677905 0.025867479 0.06067881 0.13829534
0.0047597317 0.03302189 -0.0046812263 0.00900946 0.024295477 -0.015863324 -0.005713537 0.08268033
0.023602294 0.04593299 0.10114416 0.08421252 0.02311419 -0.005284027 -0.0029272982 -0.0035763204
-0.04800982 0.0019741207 -0.004886189 -0.00069168856 -0.0002921574 0.0529682 0.0069467495 -0.00015647932
0.012386981 0.0057764123 0.000801041 0.007744499 -0.0005507656 0.006920092 0.0026554917 0.038722914
0.009928972 0.028174166 0.027635323 0.009544778 0.018426608 0.004111205 0.015763793 0.012551787
0.046330426 0.0662942 0.0836742 0.048652098 0.10138495 0.048166 0.002731726 0.047656123
0.10314723 0.05833388 -0.0006239931 -0.003334527 0.035810683 0.0045074895 0.05814199 0.0011925756
0.010730589 0.13219658 0.06554378 0.036776375 0.032899074 0.11126185 -0.028630313 0.10051201
0.005977242 -1.0876829e-06 -0.05335376 -0.019579927 0.06388952 0.07065561 -0.03630642 0.03812795
-0.09138945 0.01100062 0.013668103 0.14021999 -0.028598627 0.033031497 0.034143064 -0.0077700596
0.059906695 -0.021888308 0.13291915 -0.019409617 0.013374995 0.1033812 0.058977176 -0.010296859
0.088852204 0.09194218 0.027173478 -0.016669666 -0.01085255 0.005587141 0.016987555 0.011368052
0.015267891 0.04099137 -0.005487989 -0.0013873241 0.077462785 -0.0071460656 0.017677639 0.093990125
-0.011626522 0.04531355 0.063933775 0.0069081057 0.098348714 0.07767628 -0.021255651 -0.055414405
0.014874364 0.070055924 -0.008038353 -0.001332545 -0.005681195 -0.00035191647 0.13492613 -0.0151389185
-0.0044104815 0.14130355 0.1820325 0.02031161 0.22457995 0.075439006 0.19251177 0.16163301
0.006398412 0.085553855 -0.009011687 0.21950686 0.09566502 0.14824346 0.057373337 0.3490178
0.08644429 0.25468668 0.08771358 0.20428486 0.12607925 -0.000988236 -0.021991987 -0.008342046
0.22755109 -0.0006099307 0.1951455 -0.0022356408 -0.0053522615 0.051505383 0.17018823 0.00938045
-0.0038006746 0.19889975 -0.0021598535 -0.004460389 -0.0024811989 0.16342106 -0.019440645 0.087547064
0.0046127257 0.18596436 0.20581657 0.018072173 0.18168885 -0.003896138 0.043106727 0.18590237
0.16131493 0.12516965 0.11037208 0.09168154 0.27209035 0.13365626 -0.009121929 0.14406963
0.21253243 0.22380772 -0.005481418 -0.009780767 0.21059382 -0.008006714 0.077042155 -1.7669288e-05

bias_hh_l0 f4 [256]
00000000: 4ae5 8ebb 44ea 4a3e 50f1 5e3e 6531 ba3c
00000010: 2e02 5a3e 2930 9d3d a934 473e 0cd2 263e
00000020: 8639 f03b 811a cf3d 7b92 0fbc eeef 653e
00000030: 80cb c43d b118 1f3e b772 703d 8364 a43e
00000040: 4136 ab3d 999d 9d3e c392 f93d a51d 5d3e
00000050: 9d74 193e 205d 8eba c2ea a3bc cfcc 08bc
00000060: 2730 5f3e 7734 e3b9 9b5c 503e 9fd7 0abb
00000070: 00d8 a5bb 8a3b 4e3d 2b93 333e 6404 083d
00000080: 9af2 263c cb11 423e 881d 063a 4787 5cbb
00000090: 332d 22bb d95e 1b3e 5583 96bc 3a8d bd3d
000000a0: 4c8f d53b e4c4 4d3e 3180 743e 8e95 8e3c
000000b0: 84b0 393e 0be8 483b 8bf8 303d 2950 3a3e
000000c0: 3167 223e e002 163e f675 013e ef68 d03d
000000d0: ff15 853e ffa3 253e 695d 19bc 30cc 103e
000000e0: 2312 1f3e 5778 833e 58f7 b2bb e4a2 1fbc
000000f0: 0922 483e bf40 f1bb 751e cd3d 964f 2a38
00000100: ec39 bfba 344e df3d 8d44 9a3d 9d2c e53b
00000110: c6e9 3f3d 838f d43c aaaf 763d 18e3 1d3e
00000120: 86f7 9b3b b3f5 053d f764 99bb 44e6 143c
00000130: 9ffe c63c e187 83bc 9c5b c2bb 35d2 b23d
00000140: d258 c13c 48dc 313d 044a cd3d a5a1 ab3d
00000150: 7815 bd3c a625 adbb d1e5 3fbb ae60 6abb
00000160: 5f16 45bd 4160 013b b4d2 cfb8 7c52 35ba
00000170: 962c 99b9 396a 553d f28c ef3b 2620 a83b
00000180: 9ca2 663c 4f7c af3b dac1 6f3a e98f fd3b
00000190: 4b61 10ba 97a3 d73b 04bd 2d3b 5abe 1e3d
000001a0: 18ad 223c 724b e73c 12d9 e53c 267f 1c3c
000001b0: b464 973c 9f1b 873b e82b 813c 77c0 4e3c
000001c0: d156 3c3d 43b8 873d d67d b73d 5343 4b3d
000001d0: 22e2 cd3d 705f 453d da06 333b 1133 433d
000001e0: e9e7 9c3d 5679 313d 8492 23ba 0288 5abb
000001f0: 8419 3e3d aa08 943b b368 6b3d db4f 9c3a
00000200: d7f6 c53b 19bf e93d e49c 72bc 3c05 d6bd
00000210: a41d 90bc 08cc e33d c1c3 4d3d e6f4 913d
00000220: 1571 a1bc b2c2 cc3d 1cb4 71bd 5f93 57bc
00000230: 0026 543d 6934 debb 3434 8a3d ab5a 863d
00000240: aa91 febd 5b98 173b 1e79 e43d 9f7a 89bb
00000250: 3a2f 11be 815f 713c 1639 503d 6b1e bcbb
00000260: 5d71 e33d c546 a4bb ebd4 cc3d c332 c43c
00000270: 2dcb 163d 6d29 9d3d 3f5f 0e3d ba3f f0bc
00000280: 71bb 983d 725e ab3c e116 013e 95f6 243d
00000290: be93 223a 1afe b73d c9d7 39bc 3609 c43d
000002a0: 6ff9 0b3c f115 5ebc c1f8 e139 30e2 5e3d
000002b0: c533 98bb 2fdc 0b3d fa83 313d 74ec 0dbd
000002c0: 7d78 cb3d a89c 3ebc b51d 953d 1dae ac3d
000002d0: ed65 99bb 79b5 69bc 5569 20bc ced7 9dbd
000002e0: fb65 f93d b5ca 843c c7f1 523a b6d6 8d3c
000002f0: 6a02 bd3d dadf 0d3d 3366 e03d ddfe 89bc
00000300: e385 90bb 8d47 033e 66ab 2a3e c093 af3c
00000310: 5efd 613e 55f9 9c3d a5ab 3a3e 11cb 1c3e
00000320: 92a6 d13b 09e7 ae3d decd 13bc 1b53 5f3e
00000330: 73df c43d 2008 193e 4363 4d3d 7d11 b33e
00000340: a070 af3d 76e7 7f3e 480d e93d 92dc 4c3e
00000350: 7991 013e 95ba 87ba 2bef b7bc 14ad 08bc
00000360: d2a2 723e b6e3 1fba bd8e 583e 7261 12bb
00000370: bf4a afbb 16a6 2a3d 9be0 303e 9d80 0a3c
00000380: 9bfa 933c bc0f 563e bc4a 1a3b 80f5 86bb
00000390: 9c9b 22bb 8c3d 273e 7963 9cbc c61d b93d
000003a0: d23e 973b 890f 3f3e 297b 593e fe07 8e3c
000003b0: 2a61 3b3e c392 acba 5cab 313d e574 393e
000003c0: 5691 253e 4330 fd3d 8ca5 ef3d a531 963d
000003d0: 49b6 933e 4914 fd3d 020e 1bbc ff86 133e
000003e0: 3700 243e 4191 493e 7c9d b3bb 2dff 20bc
000003f0: 3791 443e 5551 03bc aaf8 8e3d 1604 94b7
-0.0043608295 0.19815928 0.21771741 0.022728631 0.21289894 0.076752014 0.19453682 0.16291064
0.007331076 0.10112477 -0.008762951 0.22454807 0.09609127 0.15536763 0.05870315 0.32107934
0.083599575 0.307843 0.12186196 0.2159334 0.1498589 -0.0010861494 -0.020009402 -0.008349611
0.21795712 -0.00043335903 0.20347826 -0.002118565 -0.0050611496 0.05034975 0.17536609 0.033207312
0.010189677 0.189521 0.0005116095 -0.0033649968 -0.002474618 0.151729 -0.01837317 0.092554525
0.0065173265 0.20094639 0.23877026 0.017405298 0.18133742 0.0030655887 0.04320578 0.18194641
0.15859677 0.14649534 0.12642655 0.101762645 0.25993344 0.16175841 -0.00936065 0.14140391
0.15534262 0.2567775 -0.0054616146 -0.009743426 0.19544233 -0.0073624547 0.10015575 4.060528e-05
-0.0014589406 0.10903588 0.07532606 0.0069938437 0.046853803 0.025947338 0.06022612 0.1541866
0.0047597317 0.03270502 -0.0046812254 0.009088103 0.024291335 -0.016056003 -0.005931331 0.087315
0.023601923 0.043422967 0.10023883 0.083804406 0.023081526 -0.005284029 -0.0029281268 -0.0035763192
-0.048117038 0.001974121 -9.909776e-05 -0.0006916893 -0.00029215653 0.052103255 0.007310503 0.0051307855
0.014076855 0.005355395 0.00091460126 0.0077381027 -0.0005507662 0.0065807807 0.0026510367 0.038755752
0.009928964 0.028234217 0.028057609 0.009551799 0.018480636 0.0041231657 0.015768006 0.012619129
0.045981232 0.06626942 0.08959548 0.049624752 0.10052897 0.04818672 0.0027317316 0.047656123
0.07661421 0.043328606 -0.0006239789 -0.0033345227 0.046411052 0.0045176344 0.057472896 0.0011925654
0.0060413885 0.11413402 -0.014807913 -0.10450217 -0.017592259 0.111229 0.050235514 0.07126789
-0.019707242 0.09998073 -0.059009656 -0.013157695 0.051794052 -0.00678115 0.06748238 0.06560262
-0.12430127 0.0023131582 0.11155914 -0.004195526 -0.14178172 0.014732243 0.05083569 -0.005740931
0.11105607 -0.005013319 0.100015484 0.023949986 0.036814857 0.07673917 0.034758803 -0.029327262
0.074576266 0.020919058 0.12606384 0.04027422 0.0006201825 0.08984013 -0.011342951 0.09572069
0.008543356 -0.013555036 0.0004310068 0.054414928 -0.0046448433 0.03414553 0.043338753 -0.034649327
0.09935091 -0.011634029 0.07281057 0.08431647 -0.00468134 -0.014264458 -0.009790738 -0.07707177
0.12177654 0.01620994 0.0008046892 0.017314296 0.09228976 0.03463731 0.10956993 -0.016845161
-0.004410492 0.12820263 0.16666946 0.021432757 0.22069308 0.07664744 0.1822954 0.15311839
0.0063980306 0.0854016 -0.0090212505 0.21809046 0.09612932 0.14944506 0.05014349 0.3497428
0.085664034 0.24990639 0.11379486 0.20006016 0.1265315 -0.0010355288 -0.022452911 -0.008342046
0.23694924 -0.00060993 0.211482 -0.0022335914 -0.0053494866 0.0416623 0.1727318 0.008453515
0.018063834 0.2090444 0.002354308 -0.0041186213 -0.0024811989 0.16332072 -0.019090401 0.09038882
0.004615643 0.1865827 0.21238388 0.017337795 0.18298784 -0.0013166297 0.04337631 0.18110998
0.16168723 0.12362721 0.117014974 0.07333688 0.2885001 0.12357385 -0.009463789 0.14406966
0.16015707 0.19684316 -0.00548142 -0.009826464 0.1919602 -0.008014997 0.06981023 -1.7644878e-05

weight_ih_l0_reverse f4 [256, 45]
00000000: 3b2f 363c 71f4 183d 4760 403c 76da 11bc
00000010: e8d9 1bbc ec3c 1ebb 5fd1 b33c d752 ef3b
00000020: d2f5 6fbb d618 9cbc 382b 1b39 9d7e 8a3a
00000030: eb19 2f3b a261 ebbc 5571 4abb f952 13bb
00000040: ef3e 1c3c 8dec 85bc c9ed 8b3c 3dff 3e3a
00000050: cbac 703b e683 d0bb d55e 59bb 38e7 acbc
00000060: c537 013a 7132 7c3c cbe8 533b 6008 dab7
00000070: 4356 35bb ae71 f6ba 4d5a 0bbc a9c0 02bc
00000080: 9240 7a3b 0693 3bbb 5539 0abb 41f4 20bc
00000090: ca34 c13b c0c5 933b 3f83 bb3b 2002 26bc
000000a0: b922 cdba cf86 afbb efcb 14bb e821 8e3a
000000b0: 752a 80bb b440 2fbb 0e9d 5ebb 0b0e ddbb
000000c0: d5f4 a9ba d6ca 5bbc e29f f0bb 5d52 6a3c
000000d0: e145 943a 3edb b6bb 3536 c4bc 96f7 14bb
000000e0: 4a97 e8bb 4252 073b 30b3 c2bc 1d1b 21bc
000000f0: 5c40 4ebb 597f fe3b 38d3 d7bb 1f8a 413c
00000100: 8988 cbbb f8d9 a13b 932b 88bb 821a aab9
00000110: 1b79 54bc 2212 f33a 063f 5f3c 01aa aaba
00000120: 249d 68bb 45f0 15bb b25d 69bb 9b77 84bb
00000130: 2b4b a1bb 2478 90bb d168 20ba 0661 9fba
00000140: 9ceb eebb 2c35 be3b f9d0 5d3b 2cdb 103c
00000150: 5454 b4bb f43c a3ba 81d4 b6ba bad6 92bb
00000160: fa06 143a 0a6d 47bb 2278 b83e 720a 883d
00000170: 7885 9a3d 1008 37bd 68b9 d53c c0c6 363e
00000180: 7741 cc3c 468a 0e3d a751 543e f004 d03d
00000190: d0c8 f5bb 8c95 603e 23c1 90bb 2e4b c63d
000001a0: 353a 933d 3471 243b c3f0 c2bc 3a56 773e
000001b0: 4368 9fbb 2f54 64bd 26c9 ce3c 544d a93b
000001c0: 8769 b63d 1804 ae3c e5e4 c13c 2e76 f03b
000001d0: abd3 0d3d fbee 163c 3165 f2ba 8227 9ebb
000001e0: b69b 813d 42e8 7c3c bbac 08bd 84f6 b5bb
000001f0: ef05 e6bb e67d 573c 86fc 3b3c 1d8a c23d
00000200: c924 1b3d 7063 e0bc aa8f 803b c537 193c
00000210: 8562 0dbc 2ca7 793c 816c 5abd 432e 7bbc
00000220: 0b53 dcbb 591c a0bc 6408 afbb 97f5 f1ba
00000230: 5894 16bc a230 ed3b 7496 feba 57c8 c6bb
00000240: 0300 70bc 5436 b1ba d862 343a bdfb 9dba
00000250: 7d2a a2bc 6e61 a33b b512 26bb 70ee c33b
00000260: 964d 1bbc 7106 9d3b cbe8 36bb 9134 d53a
00000270: 7984 16bb 0a6f c8bb 12dd 26bc 7ac8 39b8
00000280: 0b51 513c a850 21bb 3746 b4bb 77ce c8ba
00000290: 470f ebba dc58 65bb b62f 9fbb 2353 7f3b
000002a0: 2ca2 763b 158f 313a c819 80bb 143f 463b
000002b0: 44ae 0f3b 07f9 0a3c 9c38 95ba 2569 d1ba
000002c0: face feba e298 0cbb 7727 6d3b 8c1a 613a
000002d0: a21e 92b9 e8fd d83b 01e4 a73b 8b40 2bbc
000002e0: 40d0 55bb deaa d1ba 1a98 9dbb f18e 0e3c
000002f0: ae3c ccbb 8de0 f8bb e3ae 9139 6ba2 7bbb
00000300: 69f0 e63a 9a55 23bc 4420 b4bb 5b8b 173b
00000310: 48ed f2bb c2ec 7cbb 0a85 02bc 446a b339
00000320: 2c8a 9e3a 6bca f23a 941c d63a 42e7 e5ba
00000330: b019 feb8 cf3c e1bb a1e0 e13a 0577 79ba
00000340: a012 933a 1986 bc3a 4c0f ba3a 7a07 8b3a
00000350: 0170 07bb ce51 d03a 917d 9939 363d 5d3a
00000360: c944 d8bb 9f64 8abb 1e23 40ba 3539 ebba
00000370: 6f8b 7c39 d2e3 9d3b 8a72 9dba 2333 bf3a
00000380: 24ff dbba 939d dc3a 4f48 f13a 145d adbc
00000390: d55d b1bc 006c 9c3c 0820 f23b 6b17 d9ba
000003a0: 22f2 e83b d747 b23c 9a9f 883c 4daa 3cbb
000003b0: 646e 273d 417f 12bc f5c7 2e3c 0ec9 b33c
000003c0: 850a 03bc f4ff 0c3c 88d5 0c3d bd3d e13b
000003d0: afcd 243c 343c 8b39 7aa0 7bbb 271d f9bc
000003e0: 326c c0bc 0a80 413c de22 013d c468 6d3c
000003f0: 6292 28bc c8e7 1fbb 5fa2 7dbb 1dfb e1bb
0.011119659 0.037342492 0.011741704 -0.008902183 -0.009512402 -0.00241452 0.021950422 0.0073035765
-0.0036615026 -0.019054811 0.00014798052 0.0010566298 0.002671833 -0.028733078 -0.0030890305 -0.0022479875
0.009536489 -0.016348148 0.017081158 0.0007285958 0.0036724086 -0.00636338 -0.0033168097 -0.021106347
0.000492927 0.015392886 0.00323348 -2.5991525e-05 -0.0027669824 -0.001880219 -0.008505416 -0.007980504
0.003818546 -0.0028621568 -0.0021091301 -0.00982386 0.0058961855 0.0045096576 0.005722433 -0.010132343
-0.0015650607 -0.0053566466 -0.0022704562 0.0010843845 -0.0039113113 -0.0026741447 -0.0033968124 -0.006746059
-0.0012966642 -0.013415059 -0.0073432783 0.0143018635 0.001131233 -0.005580335 -0.02395163 -0.002273058
-0.007098113 0.0020648395 -0.023767084 -0.0098331245 -0.0031471467 0.007766646 -0.0065864585 0.011812716
-0.0062113446 0.004939314 -0.004155585 -0.00032444677 -0.012968327 0.0018544833 0.013625866 -0.0013020636
-0.0035494054 -0.0022878808 -0.0035608825 -0.0040425784 -0.004922291 -0.004408853 -0.00061191345 -0.0012159653
-0.0072912704 0.0058046784 0.0033846481 0.008841317 -0.0055032168 -0.0012454079 -0.0013948829 -0.004481164
0.00056467915 -0.0030429983 0.36029154 0.06642617 0.075449884 -0.044685423 0.026089385 0.17849255
0.02493356 0.034799837 0.20734273 0.10157192 -0.0075007454 0.21932048 -0.004417555 0.09682308
0.071888365 0.0025091888 -0.023796445 0.24153987 -0.004864724 -0.055744346 0.0252424 0.005166689
0.089068465 0.021242186 0.023668716 0.007338307 0.03462569 0.009212251 -0.0018493292 -0.004826487
0.06328528 0.015436234 -0.033367854 -0.0055530686 -0.0070197503 0.013152575 0.0114737805 0.09498999
0.037876878 -0.027391165 0.003923376 0.009351675 -0.008629446 0.015237611 -0.053326134 -0.015330854
-0.0067237667 -0.019544767 -0.0053415764 -0.0018460032 -0.009190641 0.0072384635 -0.0019423501 -0.006066363
-0.01464844 -0.0013520219 0.0006881184 -0.0012053173 -0.01979565 0.0049859798 -0.002534074 0.0059793517
-0.009478947 0.0047920276 -0.0027909752 0.0016266276 -0.0022967143 -0.0061167525 -0.010184543 -4.4294145e-05
0.01277567 -0.0024614725 -0.0055015343 -0.001532032 -0.001793363 -0.0034995591 -0.0048579825 0.0038959465
0.0037633283 0.0006773335 -0.0039093234 0.003025 0.0021923939 0.008482224 -0.0011384669 -0.001597677
-0.0019440346 -0.002145343 0.0036186853 0.00085870246 -0.00027870113 0.006622065 0.0051236157 -0.0104524
-0.0032625347 -0.0015996357 -0.0048093917 0.008701072 -0.0062328195 -0.007595128 0.00027786856 -0.003839637
0.0017619255 -0.0099691395 -0.0054970104 0.0023123834 -0.00741354 -0.0038593267 -0.007966289 0.00034220715
0.0012095622 0.001852346 0.0016335421 -0.0017540234 -0.000121164485 -0.006873704 0.0017233082 -0.00095163315
0.0011220761 0.0014383226 0.0014195233 0.0010607087 -0.0020666125 0.001589352 0.00029275988 0.0008439602
-0.0065999967 -0.0042234208 -0.00073294516 -0.0017946126 0.00024084536 0.004818418 -0.0012012285 0.0014587383
-0.0016784412 0.0016831629 0.001840839 -0.021162547 -0.021651188 0.019094467 0.0073890723 -0.0016562765
0.0071089426 0.021762772 0.016677666 -0.002878803 0.04087676 -0.0089414725 0.010667791 0.021946456
-0.0079981135 0.008605946 0.034383327 0.006873815 0.010058804 0.00026557 -0.0038395212 -0.030409409
-0.023489092 0.011810312 0.031527393 0.01449031 -0.010288807 -0.0024399627 -0.0038701517 -0.00689639

weight_hh_l0_reverse f4 [256, 64]
00000000: ea81 4e00 7b3b 7400 650a 7400 36a8 e500
00000010: 780a e480 c1a7 4800 1282 0f80 6bac 2f80
00000020: 1651 9000 990d 2f00 d884 4880 46f4 0f00
00000030: 35db 9480 a0e6 3080 635f d000 6628 6b00
00000040: 4cb7 3900 0ecb 5980 53ec b480 e810 2380
00000050: eafe 0f00 8046 5780 4fa8 3680 d303 2680
00000060: 9509 bc80 475d d280 682a 9481 eaf5 1100
00000070: 3431 7980 cc18 3c00 553a 7780 f340 1480
00000080: 2a88 6500 8d3a 3900 a073 4f80 af63 6e80
00000090: 0e70 2d80 302a 5680 5c4f 3700 1c6c 2d80
000000a0: ae7b c780 7ca1 ba00 cf7d 5880 880c 5800
000000b0: c0fe a180 4639 e580 f922 9400 1988 5300
000000c0: b489 c100 fa05 1400 7663 1680 5a68 3d80
000000d0: b4d5 0880 ccbc 7f80 e637 3c80 620c 1280
000000e0: e6d4 9700 cc5f 3100 07c2 9400 a291 7e80
000000f0: f11c 8a00 8fa7 d100 22a3 5480 bc7b 2700
00000100: 7197 d880 afb0 aa80 a13d bb80 dbab a280
00000110: 6fce 5480 08a1 8f00 9445 6f80 52ab b780
00000120: 4866 5280 ac34 0a00 adbb 0d80 acba 0b00
00000130: a6f6 2e00 7071 0580 991b b000 9492 2280
00000140: 66b5 9d00 80ce 6980 beac c580 f642 8d00
00000150: 6aba d200 c972 3c80 bed1 3f80 3ddb b300
00000160: 706b 1980 4007 8600 1b15 6f80 c9a8 4200
00000170: f1c3 9600 a002 0300 059f 2980 7b5d bc00
00000180: 20f6 8d80 e73a d200 0606 ad00 8b1d 6300
00000190: ac75 0e80 e27e bf00 2a93 8300 5185 8d00
000001a0: 405b 7200 a8e0 3d80 ef79 8100 4013 2e00
000001b0: 706a 7c00 707b 5d80 a3e8 b600 b795 c980
000001c0: b764 eb00 fff1 ba00 f5b8 bf00 bb4b 4c80
000001d0: e4ed 8800 7640 4f00 cee2 5400 24ca 8f00
000001e0: 4e8e bc00 4898 1800 46b4 0080 88fe e880
000001f0: f189 9100 015c 4f00 c173 8500 ac4d b980
00000200: 6627 5780 3e09 c500 f821 5e80 dbf1 6e00
00000210: e654 eb80 4773 a600 5637 4e80 f6bf 4380
00000220: e524 7a80 0b26 1500 c599 6c80 7061 5a80
00000230: 1178 e380 4c8e a781 5d4f d200 1806 1c00
00000240: 4394 1280 3c9d 5c80 34cb ea80 1757 af00
00000250: 30af 4a00 35f1 bf81 0648 5780 7249 0e80
00000260: 2031 c200 a8b7 c980 7bdf 7300 0901 ce80
00000270: 7d21 3300 2c11 ba80 0f10 b280 972b 2280
00000280: 9c8c 7f00 ce86 bd00 018d 9c00 5203 6f80
00000290: c81e 0b00 dea6 9a80 2c46 3000 e6de 8200
000002a0: 31ad 6880 faa7 b480 8220 1180 dc90 a300
000002b0: 2e0f 6280 2740 7080 4ab7 5800 bb86 6e00
000002c0: dfe4 7f00 e0b5 6a80 a610 a200 6188 0180
000002d0: 169c 9b00 bd85 7e00 c129 cf00 25c9 2600
000002e0: 974f 1c00 7047 1b80 3761 8200 7b27 8000
000002f0: 0805 9b80 1128 a300 25bb b600 4882 a580
00000300: 1570 5900 405d 3580 1821 2300 ef10 5c00
00000310: a5b1 6a00 b19b 9600 213b ab80 539e bc00
00000320: ce22 2380 1244 1300 14a1 3180 6feb e680
00000330: 24e6 1a80 32b9 3280 ede2 7f80 f8cc 0300
00000340: df86 7300 b693 2980 70b4 9600 35f9 2b00
00000350: d57c d380 58ef a380 2f87 9180 2e09 c480
00000360: 9042 0600 f6a1 4b80 45e9 2280 8fa4 6e80
00000370: f513 b400 e800 7c00 d8e8 8600 ed4e 8900
00000380: fe10 3c80 692f b080 3999 9880 db18 2300
00000390: 7706 1980 2b8b e981 a385 c280 2414 5180
000003a0: 9503 a680 1b89 bc80 f282 4780 6ae3 0100
000003b0: 782d 2e01 06eb 2180 f4fb 7c00 5aca c401
000003c0: a2a0 0200 80eb d280 52ad 0b00 9204 0980
000003d0: 0bb1 6e80 884f 2280 b0b6 5080 aa48 a900
000003e0: f4d0 2580 0a75 9680 d382 ad80 5197 cf00
000003f0: b832 d780 c470 1300 014a 4680 699b 3080
7.209773e-39 1.0674255e-38 1.0656646e-38 2.1090671e-38 -2.0942249e-38 6.672334e-39 -1.424193e-39 -4.37812e-39
1.32534e-38 4.321146e-39 -6.659811e-39 1.465161e-39 -1.367029e-38 -4.490836e-39 1.9136002e-38 9.84089e-39
5.300378e-39 -8.246201e-39 -1.6615166e-38 -3.220307e-39 1.468978e-39 -8.014979e-39 -5.019495e-39 -3.491121e-39
-1.726851e-38 -1.9318916e-38 -5.4427464e-38 1.649421e-39 -1.1129746e-38 5.519025e-39 -1.094935e-38 -1.86001e-39
9.324232e-39 5.255627e-39 -7.296483e-39 -1.0137664e-38 -4.172795e-39 -7.912987e-39 5.079421e-39 -4.17138e-39
-1.8319632e-38 1.7139332e-38 -8.126655e-39 8.086019e-39 -1.4876902e-38 -2.1050874e-38 1.3604199e-38 7.671169e-39
1.777365e-38 1.838854e-39 -2.056061e-39 -5.6394e-39 -8.11346e-40 -1.1730836e-38 -5.530182e-39 -1.657481e-39
1.3943533e-38 4.534305e-39 1.3661257e-38 -1.1623516e-38 1.268368e-38 1.9253727e-38 -7.772703e-39 3.625972e-39
-1.9890794e-38 -1.5675416e-38 -1.7195346e-38 -1.4939e-38 -7.788236e-39 1.3190243e-38 -1.02187e-38 -1.6867354e-38
-7.567202e-39 9.3725e-40 -1.261187e-39 1.077156e-39 4.312914e-39 -4.99871e-40 1.6172947e-38 -3.174989e-39
1.4483246e-38 -9.716805e-39 -1.8153561e-38 1.2972826e-38 1.9352327e-38 -5.551307e-39 -5.860878e-39 1.6517202e-38
-2.334429e-39 1.2308557e-38 -1.0201311e-38 6.121691e-39 1.3845615e-38 2.76448e-40 -3.822301e-39 1.7298608e-38
-1.3037098e-38 1.9306584e-38 1.5889702e-38 9.102312e-39 -1.32791e-39 1.7586097e-38 1.2083243e-38 1.299663e-38
1.0501981e-38 -5.682557e-39 1.189052e-38 4.231338e-39 1.1425784e-38 -8.584982e-39 1.6797515e-38 -1.8512642e-38
2.1617471e-38 1.7168214e-38 1.760693e-38 -7.006665e-39 1.2574967e-38 7.278128e-39 7.795544e-39 1.320499e-38
1.7316123e-38 2.25868e-39 -6.467e-41 -2.1397144e-38 1.3365631e-38 7.288009e-39 1.2255646e-38 -1.701743e-38
-8.003822e-39 1.8094908e-38 -8.644722e-39 1.0188666e-38 -2.1611797e-38 1.5286046e-38 -7.18302e-39 -6.221841e-39
-1.1217166e-38 1.942193e-39 -9.973396e-39 -8.300149e-39 -2.088973e-38 -6.15503e-38 1.9313924e-38 2.57358e-39
-1.706225e-39 -8.505271e-39 -2.1562402e-38 1.6102454e-38 6.858672e-39 -7.0508434e-38 -8.015525e-39 -1.312044e-39
1.7833709e-38 -1.8524818e-38 1.0641252e-38 -1.8918484e-38 4.695624e-39 -1.7087562e-38 -1.6352479e-38 -3.138044e-39
1.1713549e-38 1.7405268e-38 1.437692e-38 -1.0194931e-38 1.021233e-39 -1.4202527e-38 4.433277e-39 1.2018575e-38
-9.613021e-39 -1.6590648e-38 -1.572865e-39 1.5021152e-38 -9.005324e-39 -1.0308589e-38 8.147275e-39 1.0150237e-38
1.1745211e-38 -9.799807e-39 1.4883323e-38 -1.40759e-40 1.4290495e-38 1.1619249e-38 1.9024926e-38 3.561906e-39
2.599945e-39 -2.505185e-39 1.1973489e-38 1.1769106e-38 -1.4236307e-38 1.4983559e-38 1.6781195e-38 -1.5199593e-38
8.213567e-39 -4.900733e-39 3.226114e-39 8.45494e-39 9.79829e-39 1.3831176e-38 -1.5725081e-38 1.732187e-38
-3.226728e-39 1.769293e-39 -4.557723e-39 -2.1206622e-38 -2.470282e-39 -4.65821e-39 -1.1744514e-38 3.49035e-40
1.0609465e-38 -3.818244e-39 1.3840053e-38 4.038325e-39 -1.9422071e-38 -1.5055046e-38 -1.3364642e-38 -1.800305e-38
5.74891e-40 -6.945763e-39 -3.206088e-39 -1.0160937e-38 1.6537549e-38 1.1387927e-38 1.2389485e-38 1.2609776e-38
-5.516225e-39 -1.6180055e-38 -1.4013961e-38 3.223159e-39 -2.298207e-39 -8.579038e-38 -1.7864026e-38 -7.4459e-39
-1.5245977e-38 -1.7314257e-38 -6.567295e-39 1.73416e-40 3.1991375e-38 -3.114882e-39 1.1477985e-38 7.228939e-38
2.41295e-40 -1.9369936e-38 1.072366e-39 -8.28159e-40 -1.0165416e-38 -3.150937e-39 -7.412376e-39 1.5546266e-38
-3.472872e-39 -1.381731e-38 -1.5934472e-38 1.906423e-38 -1.9762826e-38 1.785327e-39 -6.455032e-39 -4.463854e-39

bias_ih_l0_reverse f4 [256]
00000000: a1c7 27bc ca75 8abc 3e4a 9d3e 99b2 79bc
00000010: 3488 75bc 70da 293d 3b55 ccbb 65ac 7bbc
00000020: 056e 173e ea92 ab3c 23ea 61bc 7ad2 1c3c
00000030: 7e02 113e 8bc1 b7bb 5a02 733b 069a 0fb2
00000040: 6c71 da3b e6d2 823d 21a6 4b3d fe6b 103d
00000050: 9ac2 513a b800 03bc 6cf4 0b3c b8bc 7a3c
00000060: 730d 1fbc f099 0eba 3e23 8480 e71d 8e3c
00000070: 179a b03b 86c6 cd3b 4000 193e 20ae 013e
00000080: e58e 9fbb 46d1 00ba 89e9 70bb e8dd 593b
00000090: c7d3 153d 246f 2a3d 1d87 053e b6dc 89bc
000000a0: 6855 863c 2e6b b03d 415c c73b bde2 b0bc
000000b0: 0be9 27bc 4624 663c 29b9 17bb aceb 2c3d
000000c0: 19d2 a1bc 8b48 50bc a4f3 2d3e 0a89 de3e
000000d0: a6b9 6b3c 3b50 173a 3b57 ce3d c43d 26bc
000000e0: 7074 a73c 9d36 b63d 58dd de3d 6623 2a3e
000000f0: 53e0 8309 de35 0d3e be90 9f27 7094 1c3e
00000100: e59b 8680 ebe3 6900 b01a 5481 20d1 0c00
00000110: 8409 2900 fc71 0002 6625 1d00 e33a 0480
00000120: a60b 2900 5e0f 8f80 378c e000 284b 7a80
00000130: a622 9c00 8d24 9480 7a83 3780 7774 d700
00000140: dadf 4780 04c3 6e00 afc8 0d00 03b3 1080
00000150: 3c92 4600 b3c7 5400 4936 0c80 41ce 7400
00000160: a79c 5f00 82e5 5c00 ef7c 7800 bdd9 5500
00000170: 7021 9480 6c24 4d80 fab8 e380 2ae4 4380
00000180: fe16 b580 7788 9280 95fb c180 34a0 c800
00000190: 8a06 6f00 2184 1700 e288 c680 f8b6 b980
000001a0: fea8 6300 6fc5 3500 5895 4180 0005 7000
000001b0: aa4f 1c00 c6fc 3900 603b e300 de63 7d80
000001c0: bc85 0980 7a0d 1080 5ac6 0200 7eba ac00
000001d0: 91ec 7680 63a6 5c80 6432 a901 6b1a 6780
000001e0: b7ee 0500 373d bc80 943f 4980 92a5 1700
000001f0: db78 ad00 5820 4180 28ac a400 7d91 2180
00000200: c84c 2f3d 2db3 9f3d 9787 c1bd 533f 083d
00000210: 7711 aa3a bdb7 a3bc 6e05 f43c 728b 1dba
00000220: aaca d23d 3bed 713d 61e6 cb3d 7c91 003e
00000230: f6e7 2ebb 7cef 433c 5d43 cbbb 1110 8fba
00000240: f18c 6f3c 1884 353d d881 58bb b5bd 993c
00000250: 9c8d f138 b3ba 3c3c 712d 51bd 7ebe 6dbb
00000260: f4d5 fe3c 7780 c0bc 4f00 acb4 ac80 8a3d
00000270: a034 a7ba 3848 0b3d 72db 1d3c be5e ee3d
00000280: d553 173d d83d 0bbc b33d fc3c 9e7c c23b
00000290: 3182 013d 3cc0 ab3d 00e0 cf3d 7458 ddbb
000002a0: e55d 343d 090c 4a3d 12b1 893d bd0d b03d
000002b0: 6ba5 593d fff3 8a3c f8e3 fab7 4e83 4c3d
000002c0: 8fe8 203d e569 e33c 6033 7dbb 429c 0f3d
000002d0: 9406 c33b 5772 c13c 71e1 0a3d 00f1 ed3b
000002e0: 99b2 713d b4a5 68bd 3eda 883d 7939 f33c
000002f0: 96fb 1eb6 c730 1abd 030e c6ba d050 44bc
00000300: 9a35 11bc 788d b1bc 70b3 a53e 0ff9 94bc
00000310: 2ce1 69bc 4679 1f3d 861a cebb 85c2 8dbc
00000320: 6df4 0f3e 01ee b33c 19d4 1cbc cf1e 9cb8
00000330: a40f 063e 8a57 bbbb c459 e1ba dfa3 13b2
00000340: 1d82 cc3b 414f 803d b84e 4c3d 2c7d 203d
00000350: 0414 703b ae8d f2bb ef6f 0c3c ca3e 373d
00000360: 5a69 7fbb 82d0 0fba 4670 5880 93cd 7e3c
00000370: 7e21 9b3b 6a1b 793b d72a 0b3e b63e cb3d
00000380: c171 c8bb d3b8 ffb9 ab1e 6dbb 4e77 973b
00000390: a187 123d 713b f13c 8789 073e 4dbe 8dbc
000003a0: 7709 923c c8a9 bf3d 91bc 94bb 7c91 84bc
000003b0: ae4b 25bc 929c f63b c45c 1bbb deae 2f3d
000003c0: 617d a1bc d673 59bc 251f 2c3e d207 ea3e
000003d0: 1f5b 7d3c 1c75 293a cf3d d63d ab93 28bc
000003e0: 9018 963c a750 bf3d 8ccc f63d 5195 2a3e
000003f0: 8e45 9809 6f21 0f3e 68b9 e427 2f73 0f3e
-0.010240466 -0.01690187 0.30720705 -0.015240335 -0.014986087 0.041468084 -0.006235746 -0.015360926
0.14788063 0.020944078 -0.013788733 0.009571666 0.14161107 -0.005607789 0.003708026 -8.358716e-09
0.006666353 0.06387882 0.04971898 0.03525924 0.0008001715 -0.007995777 0.008542161 0.015303783
-0.009707796 -0.00054398086 -1.2134928e-38 0.017348243 0.0053894627 0.0062797694 0.14941502 0.1266408
-0.0048693293 -0.00049139967 -0.0036760292 0.0033243839 0.03657892 0.0416099 0.13039823 -0.016828876
0.016398147 0.08614193 0.0060839956 -0.021592492 -0.010248433 0.014046734 -0.0023151136 0.04221694
-0.019753503 -0.012712608 0.16987473 0.43463928 0.014387524 0.0005772148 0.10075232 -0.010146562
0.020441264 0.088971354 0.10882062 0.16615066 3.1748056e-33 0.1379008 4.4288295e-15 0.15291
-1.2361881e-38 9.724489e-39 -3.8957398e-38 1.177046e-39 3.768669e-39 9.436667e-38 2.676645e-39 -3.88467e-40
3.769434e-39 -1.3137989e-38 2.0621451e-38 -1.1230892e-38 1.4338767e-38 -1.3604765e-38 -5.098117e-39 1.9786411e-38
-6.600623e-39 1.0171863e-38 1.265853e-39 -1.533585e-39 6.480944e-39 7.78582e-39 -1.1215e-39 1.0726908e-38
8.780568e-39 8.531198e-39 1.1065077e-38 7.884127e-39 -1.3603649e-38 -7.084399e-39 -2.0913015e-38 -6.234828e-39
-1.6630473e-38 -1.3456937e-38 -1.7814501e-38 1.8424569e-38 1.0196086e-38 2.159615e-39 -1.8232533e-38 -1.7055204e-38
9.152337e-39 4.938107e-39 -6.022882e-39 1.0287369e-38 2.599972e-39 5.325301e-39 2.0867957e-38 -1.1515263e-38
-8.74494e-40 -1.474202e-39 2.54826e-40 1.5862606e-38 -1.0921453e-38 -8.508554e-39 6.21531e-38 -9.468533e-39
5.44812e-40 -1.7287033e-38 -6.726799e-39 2.171612e-39 1.5930896e-38 -5.98091e-39 1.512278e-38 -3.082763e-39
0.042797834 0.07797847 -0.0944969 0.033263516 0.0012975176 -0.019985074 0.029787745 -0.00060098537
0.10292561 0.05906413 0.09956051 0.12555498 -0.0026688552 0.011958953 -0.0062030987 -0.0010914822
0.014621005 0.044315428 -0.0033036377 0.018767217 0.00011518152 0.011519122 -0.051068727 -0.0036276872
0.03110788 -0.023498757 -3.203772e-07 0.067628235 -0.0012756772 0.03400442 0.009634839 0.116391644
0.036945183 -0.008498631 0.03079114 0.0059352657 0.0316183 0.08386275 0.101501465 -0.006754929
0.044034857 0.049327884 0.067232266 0.0859637 0.05313627 0.01696205 -2.9908479e-05 0.04992991
0.039284285 0.027760455 -0.0038635358 0.03506113 0.005951712 0.023614092 0.033906404 0.0072613955
0.059008215 -0.05679865 0.066822514 0.029690491 -2.3690277e-06 -0.037644174 -0.0015110377 -0.011982158
-0.008862877 -0.021673903 0.32363462 -0.018185167 -0.014274877 0.038934015 -0.006289783 -0.017304668
0.14058085 0.021964075 -0.009572052 -7.444398e-05 0.13091904 -0.0057172226 -0.001719289 -8.593786e-09
0.0062410966 0.062651165 0.04987976 0.039181873 0.0036633024 -0.0074021434 0.008571609 0.044737615
-0.0038972707 -0.0005486087 -8.1218e-39 0.015551942 0.004734217 0.0038010725 0.13590561 0.099240705
-0.006117076 -0.00048775095 -0.003618161 0.0046223765 0.035773877 0.02944729 0.13236056 -0.017302657
0.017826779 0.09358555 -0.0045390804 -0.016182654 -0.010088844 0.007525989 -0.0023706416 0.042891376
-0.019713106 -0.013272246 0.16808756 0.4570909 0.0154636195 0.0006464289 0.10461008 -0.010289113
0.01832226 0.09341555 0.12050733 0.16658522 3.6658078e-33 0.13977598 6.348373e-15 0.14008783
