final_models/LSTM_3_visits_AdmDemo.pt (torch, 705373 bytes, 33 tensors)

weight_ih_l0 f4 [256, 45]
000000 17 6d 59 bc fa 0e d0 bc 4e b1 a5 bb 60 76 03 bb
       -0.013270638 -0.025397766 -0.0050565368 -0.002005957
000010 66 c8 35 bc cf 6a 5a bc c4 28 b2 3b 8a 50 0f 3b
       -0.011095142 -0.013331129 0.0054369885 0.0021868073
000020 eb e1 6c bc f9 26 02 bc c2 1b b0 bb e4 1e ee bb
       -0.01445816 -0.007943862 -0.0053744027 -0.007266866
000030 56 22 82 bb e8 e6 28 bc 79 db 6b bb fc 18 06 bb
       -0.0039713783 -0.010308959 -0.003598897 -0.002046167
000040 4a 05 aa 3b c4 6f ae bc b1 52 4d bb 2c 96 4c bb
       0.005188619 -0.021293528 -0.0031329805 -0.003121744
000050 1e 62 c4 3a 3a d9 49 bb 57 2b 24 ba 69 14 a3 bb
       0.0014982854 -0.0030799643 -0.00062625617 -0.0049767983
000060 e2 d8 71 ba a7 fe 4c 3b 58 fe 21 bb d4 e5 26 bc
       -0.00092257385 0.0031279714 -0.002471825 -0.010186631
000070 20 c7 d4 b9 3a 93 c9 ba ad 8e f9 3b 85 be c1 b9
       -0.0004058415 -0.001537896 0.007615885 -0.00036953777
000080 fc 91 f4 bb 4b df 01 3b c4 25 88 bb c9 d5 58 3c
       -0.0074636918 0.001981693 -0.0041548926 0.013234564
000090 31 8f 0a bc 80 26 90 3b 2a dd ea 38 dc a3 32 bb
       -0.008456991 0.004399121 0.000111991845 -0.0027258312
0000a0 8b 79 83 bb 9e b3 35 bb 87 ec 37 bb 40 e9 37 bb
       -0.004012292 -0.0027725468 -0.0028064565 -0.0028062612
0000b0 c7 08 a0 ba 74 f9 01 3d 1e a3 3b bc 75 50 02 3d
       -0.0012209647 0.031732038 -0.011452464 0.03181501
0000c0 2b 84 18 3c 38 bd fc 3c ff 3c 28 3d 48 09 61 bb
       0.009308855 0.030851945 0.041073795 -0.0034337807
0000d0 f6 3d 4b bc c4 cf 43 3d 28 54 95 3d 6a fd aa bb
       -0.012404909 0.047805563 0.07291442 -0.0052181976
0000e0 de 45 a2 3d 80 53 8a bc a2 3d 2e 3d a9 18 2a 3b
       0.07923482 -0.016885519 0.042539246 0.002595464
0000f0 e8 4e 14 bb 01 db 14 3c 9b b3 0a 3e d0 43 27 bd
       -0.002263004 0.009085418 0.13545077 -0.040836155
000100 e2 54 bc 3c ce fa 5b 3c 13 89 ff 3a a7 79 cb 3c
       0.022989694 0.013426496 0.0019495807 0.024838282
000110 78 b8 22 bd d2 40 1c bc 89 c2 1c 3d d5 17 af 3c
       -0.039726704 -0.009536939 0.03827146 0.021373669
000120 1a 40 30 bc 62 18 39 bb 77 84 0e bc 85 b8 c8 3c
       -0.0107574705 -0.0028243293 -0.008698574 0.024502048
000130 6f 39 67 bc e4 3e ab 3b d7 66 88 ba 0c c5 7f bc
       -0.014112814 0.005226003 -0.0010406625 -0.0156109445
000140 13 0a 19 bc 33 ab fd bb 5a 7b 34 3d d0 a9 ef 3b
       -0.009340781 -0.007741356 0.04406295 0.0073139444
000150 71 5e 23 3d 72 e9 78 bc 92 07 9c 3c 4f e9 9b bc
       0.03988499 -0.015192376 0.019046579 -0.019032149
000160 ec 2b 4c 3c e8 bf d4 3c 7e b4 94 3b 5f de bb bd
       0.012461644 0.025970414 0.004538118 -0.09173273
000170 03 f7 c3 bd 99 77 80 bd 2b e7 13 3d 02 24 96 3c
       -0.09568598 -0.062728114 0.03610913 0.018327717
000180 39 ed a3 bb b9 0f a9 bc c1 61 a3 3d 98 40 5c 3d
       -0.0050026444 -0.02063738 0.079776295 0.05377254
000190 4c 22 e3 3b a3 3a 96 3d 7c 79 97 3b 4f 17 4d 3d
       0.0069315787 0.07335403 0.0046226364 0.050071057
0001a0 75 c1 76 3d f7 24 97 bb 76 73 22 bc b7 10 b9 3d
       0.06024309 -0.004612561 -0.009915223 0.09036391
0001b0 1c 09 7e ba 58 4a 69 3c e5 96 2a 3b 67 28 62 bb
       -0.00096906885 0.014238916 0.0026029882 -0.0034508945
0001c0 23 60 41 3c 2b ff 09 bd 9a 0a 3c bd 3c 7a a0 3d
       0.011802706 -0.033690613 -0.045908548 0.07835814
0001d0 56 62 86 3c 50 f4 15 bd 41 26 72 3b 81 7d 73 3a
       0.016404312 -0.036609948 0.003694907 0.0009288416
0001e0 50 9a 9b 3a ed 0d ac bc 2a 66 a7 3d 42 31 fa 39
       0.001187155 -0.021002734 0.08173783 0.00047720416
0001f0 b4 94 6d bc 74 0f 0e 3d cb e5 9c bb b0 d0 84 3d
       -0.014500786 0.034682706 -0.0047881356 0.064851165
000200 cb 2a 4e bc 82 fa ff 3b 49 af 02 bc be 5d f2 bc
       -0.012583445 0.0078118453 -0.007976362 -0.029585715
000210 b2 12 95 bb 56 7c 46 3c 2b c5 24 bc c3 5a 1a bd
       -0.004549348 0.012114605 -0.010056774 -0.037684213
000220 fd 0a d9 bd cb b4 01 be a2 6e 5f bd f0 63 1e 3c
       -0.10597799 -0.12666623 -0.054548867 0.009667382
000230 6a 59 27 bd e7 97 88 bc 26 c1 7e bd a6 fa d8 3d
       -0.040856756 -0.016673995 -0.06219592 0.105946824
000240 d1 38 1c 3d ae f5 48 ba 19 29 b7 bd 4a 85 83 3c
       0.03814012 -0.00076660037 -0.08943386 0.016054768
000250 7c 36 77 3e ec a0 a1 3d a0 c7 ae 3a 8e 92 39 3d
       0.24141878 0.078920215 0.0013334639 0.04530578
000260 2e 67 4f 3d 16 d7 c7 3c 6e a5 64 3b 30 ea 15 3c
       0.05063551 0.024394553 0.0034888643 0.009150073
000270 72 4a 1c bc 00 d6 0e bc 74 72 fd 3c 25 29 e2 bc
       -0.0095392335 -0.008718014 0.030938365 -0.02760751
000280 0f 26 c5 bc 22 97 ed bb ee 88 9a bc 2a 58 13 bb
       -0.024066 -0.0072506825 -0.018864121 -0.002248297
000290 bf 34 76 3a f6 65 9e bc e0 1c 5a 3d cc b2 c7 3c
       0.0009392015 -0.019335728 0.053250194 0.02437725
0002a0 0b 04 9b 3b 01 7a d4 3b e9 64 aa 3c 11 fc 87 3b
       0.0047307066 0.0064842706 0.02080007 0.0041499217
0002b0 a9 70 f3 bb b9 a3 aa bb a4 12 4c 3d 52 11 3e 3c
       -0.0074292016 -0.0052075055 0.049822465 0.011600809
0002c0 c5 07 b4 3c dd a8 ad 3c a1 a5 87 bc 4e 9c ce bb
       0.021976361 0.021198684 -0.01655847 -0.006305254
0002d0 72 5c 70 bd c2 de cb 3d 93 79 07 3c f3 f8 12 bc
       -0.058681913 0.09954597 0.008268732 -0.008970487
0002e0 54 69 c5 3d 32 98 ac bc 16 e6 87 bb f8 c1 d2 3c
       0.0963923 -0.021068666 -0.0041473014 0.025727257
0002f0 a6 64 22 3e 1f e7 c4 3d 38 62 ec 3a d5 09 ec 3d
       0.15858707 0.09614395 0.0018034643 0.11525313
000300 b5 1f 1e bb 6b dc 17 3e 1b 1f 75 3b cf 82 b8 3c
       -0.0024127786 0.14830177 0.0037402574 0.022523312
000310 4f da a8 3d dd 6e 16 3e 9d ef 86 3b 2b 9e b8 bb
       0.08244764 0.14690728 0.0041179196 -0.0056340895
000320 68 9c eb b8 e3 fb 73 3c de c4 69 3c 7d 51 c5 3b
       -0.00011234806 0.014891597 0.014268128 0.006021677
000330 39 00 df 3c 1b ff 33 3d 0d 02 00 3c e2 6a d7 3c
       0.027221786 0.04394446 0.007812989 0.026296083
000340 8f 10 29 3c d6 48 7c bb 6f 3f 80 bb 21 3c 9d 3c
       0.010318889 -0.0038495562 -0.003913812 0.01919371
000350 0e 20 aa bc 90 14 07 3d 62 87 ce 3b 49 67 05 3d
       -0.020767238 0.032978594 0.00630276 0.032569204
000360 08 63 1e 3d e0 93 06 bc 78 d4 c7 3c d1 0d 17 3d
       0.038668662 -0.008213967 0.024393305 0.03687841
000370 f9 91 49 3c 94 64 17 bb ea df 29 b9 17 0a 1a bc
       0.012302869 -0.002310072 -0.0001620051 -0.00940182
000380 03 67 38 bb d7 ec 3f 3c 41 cf 8b 3d e6 b5 90 3c
       -0.0028137572 0.011714182 0.0682664 0.017664861
000390 d7 b7 43 3d 3e 66 72 bc 56 cc 25 bc 76 be fb bc
       0.047782745 -0.014794884 -0.010119518 -0.030730467
0003a0 8d 2b 32 3d 15 03 8d 3b b6 64 e4 3c a9 c0 ae 3b
       0.043498565 0.004303346 0.027880054 0.0053330255
0003b0 65 99 1e 3d 03 ab e9 3b 2f b7 0f bc da ed ad 3c
       0.038720507 0.007130982 -0.008771702 0.02123158
0003c0 13 9b c7 3b b0 29 aa 3c 89 97 ee bc 61 dc 33 bc
       0.0060914843 0.020771831 -0.029124992 -0.010977835
0003d0 68 86 41 bd e1 e6 48 bc 4b 29 ee 3b 3b 3d 86 bc
       -0.04724732 -0.012262077 0.007268106 -0.016386619
0003e0 f7 7e df 3b 0c c9 c9 3b c6 3a a3 3c 34 be 54 3c
       0.0068205553 0.006158 0.019925486 0.012984801
0003f0 27 fb fc bc dc 5a 1a 3a 0b e5 87 ba 2e d4 5a 3c
       -0.030881478 0.0005888173 -0.0010367943 0.013356252

weight_hh_l0 f4 [256, 64]
000000 33 37 29 bb 1e b4 87 bb 5e 9b 21 ba 16 d1 53 bb
       -0.0025820255 -0.0041413447 -0.0006164814 -0.003232067
000010 14 a2 1c bb 31 3b 09 bb d3 ef fa ba 4e 74 ae bb
       -0.0023900317 -0.0020939822 -0.001914496 -0.005323923
000020 5d 92 bd ba 61 47 19 bb e7 4e 97 3b 47 af b7 bb
       -0.0014463175 -0.0023388492 0.00461756 -0.0056056115
000030 c6 4f 9b bb 40 67 00 ba 2b 2f 3e ba fa 3d 37 bb
       -0.0047397343 -0.0004898198 -0.00072549534 -0.0027960525
000040 e3 d9 a2 3b 87 be 32 bb 3e 22 76 bb 31 a3 c8 bb
       0.004969822 -0.0027274208 -0.003755703 -0.0061229696
000050 89 af f0 ba 90 f8 43 3a 0c 13 bb b9 77 67 18 bb
       -0.001836286 0.00074756984 -0.0003568161 -0.002325503
000060 78 36 88 39 db 4f 8a 3a 50 39 40 bb 2f 06 63 bb
       0.00025980524 0.0010552363 -0.0029331036 -0.0034641137
000070 dc a1 6c bb 1a 06 71 bb 9a 49 51 bb 95 af d0 bb
       -0.0036107218 -0.0036777318 -0.003193474 -0.0063685873
000080 09 c9 81 bb 37 0d 14 bb af 01 8c bb d5 69 4f bb
       -0.003960733 -0.0022590884 -0.0042726616 -0.0031648774
000090 6b 98 5b 3a a2 02 e1 ba 24 c8 96 bb d8 1a 18 ba
       0.0008376899 -0.0017166922 -0.0046014953 -0.000580234
0000a0 a2 81 e7 ba 2d 3f f4 ba e6 fe 84 bb c0 ad 9d 3a
       -0.0017662535 -0.001863455 -0.0040587066 0.0012029931
0000b0 7a 90 56 bb 8e 31 5d bb d0 24 66 ba b4 36 2f bb
       -0.0032739923 -0.003375146 -0.0008779289 -0.0026735486
0000c0 7e 91 19 b9 43 ac 02 bb 25 58 99 bb 4d 04 e6 ba
       -0.00014645417 -0.0019939102 -0.004679697 -0.0017548889
0000d0 a2 dd f9 3a 01 f2 21 bb 61 29 3c bb 8c 4b 1f ba
       0.0019063244 -0.0024710896 -0.0028711187 -0.0006076626
0000e0 35 2f da ba 75 f6 a3 ba 61 2f cc ba 8f 36 9b bb
       -0.0016646149 -0.0012509363 -0.0015578085 -0.0047367285
0000f0 59 db 89 bb b0 a3 39 bb 5a 2c 9c bb fb cc 09 ba
       -0.0042070565 -0.0028326325 -0.0047660293 -0.000525668
000100 82 69 72 bb 19 98 b1 ba 9f b2 0c 3a fb 96 79 bb
       -0.0036989157 -0.0013549357 0.0005367193 -0.0038084376
000110 68 79 68 bc 95 d0 ee bb fc a6 13 bb 68 b4 a7 bc
       -0.014189102 -0.0072880485 -0.002252995 -0.020471767
000120 20 e2 04 3a 59 51 4e bc 1f 40 ad 3b 2f e9 a9 bc
       0.00050690956 -0.012592637 0.005287185 -0.020741073
000130 78 04 9d bc e0 8c 2f bc 8e ba 50 bc 9a 54 dd bb
       -0.01916717 -0.01071474 -0.012739791 -0.00675447
000140 72 0d 07 3c 57 95 59 bb 88 01 ec b9 e6 23 2f bc
       0.008242952 -0.0033200586 -0.0004501457 -0.010689711
000150 94 6a 0f bb c7 cc 0d 3c 90 a2 2d 3b 49 91 ca ba
       -0.0021883594 0.00865478 0.00264946 -0.0015454675
000160 b9 bc f7 bb 5d ec 74 bb 7f 02 ad bb e6 f2 85 bb
       -0.0075603393 -0.0037372329 -0.0052798386 -0.0040877936
000170 0e c1 05 bc c1 dd 09 b9 21 92 9e bc d4 62 88 bc
       -0.008163704 -0.00013147948 -0.019356789 -0.016648687
000180 75 7b 50 bb e0 3d 32 bc 59 33 94 bb 37 e0 94 bb
       -0.0031811867 -0.01087901 -0.0045227227 -0.00454333
000190 b9 7d 64 bc 20 75 76 bc 8f f3 19 bc 8c c4 8d bb
       -0.01394599 -0.015042573 -0.009396448 -0.0043264087
0001a0 48 c6 a3 3b 05 ea 34 39 92 58 51 bc 42 74 43 bc
       0.004998002 0.00017253317 -0.012777464 -0.0119295735
0001b0 24 22 47 bc 30 1f ce ba 86 cb 02 3b 99 47 0d bc
       -0.012154136 -0.0015725847 0.0019957735 -0.008623027
0001c0 1d 75 e4 bb 37 98 41 bc ce ba d2 bb 91 c2 17 bc
       -0.006971969 -0.011816076 -0.0064309603 -0.009262697
0001d0 6d a7 ca bb 16 3f 7d bb f0 70 35 b7 8d cf 4d 3b
       -0.0061845095 -0.0038642338 -1.0814736e-05 0.0031404227
0001e0 de f7 5d bb 1a 39 3a bc ed a5 fc 38 d1 e6 f1 bb
       -0.0033869664 -0.011366153 0.000120472025 -0.007382252
0001f0 36 70 47 bc 31 64 0f 3a 6f cb b6 bb 23 40 e5 3b
       -0.012172749 0.0005469947 -0.0055784504 0.006996171
000200 08 ed 0a bb 11 03 3d bc 5f c2 8c 3a e4 d0 32 bc
       -0.002119841 -0.011536376 0.001073908 -0.010914061
000210 af 36 13 3c 71 f3 6d ba a0 f4 01 bc bd 5f ad bb
       0.008985206 -0.0009077108 -0.007931858 -0.005290954
000220 88 e7 9c ba 2b 86 00 bb 1e e1 0c 3b 36 1e 13 bd
       -0.0011970857 -0.001961122 0.0021496485 -0.035917483
000230 7c 63 c7 bb be 67 2a 3c 13 c4 26 3c 88 5a 62 39
       -0.0060848575 0.010400711 0.010178584 0.00021586765
000240 25 65 94 3b 15 fc 98 b9 76 3b c5 bb c1 30 32 bc
       0.004528659 -0.00029179515 -0.006019051 -0.010875882
000250 7f 84 39 bc 7b be c8 3b b2 26 01 bb b1 00 22 bb
       -0.011323093 0.0061262227 -0.0019706902 -0.002471965
000260 9d 3d 01 3c d0 7b bb 3b 97 b6 33 3c 1a be 49 3b
       0.007888225 0.0057215467 0.010968826 0.0030783475
000270 c0 71 62 bb a2 9a 7e bc 8e 56 65 bb 66 1d 11 3b
       -0.0034552664 -0.015539797 -0.0034994218 0.0022142767
000280 5b 4a 13 bc c1 ae 80 3c 36 1e 3f bc 78 3a a0 bb
       -0.008989896 0.01570833 -0.011664918 -0.0048897825
000290 d8 81 51 38 a5 d5 d9 3b a6 eb 0c bc 2e 35 3c 3c
       4.995041e-05 0.006647783 -0.008601105 0.011487288
0002a0 c4 87 4e bc 67 cf c6 bc a4 fb 95 bc 5c d6 45 bb
       -0.012605611 -0.024268819 -0.018308468 -0.0030187583
0002b0 83 17 ae 3b ba 02 8a bc c8 e9 f5 ba e8 68 3f 3a
       0.0053128614 -0.016847003 -0.0018761689 0.0007301704
0002c0 fb dd 12 ba 0e 3f 5c bc a6 69 5b bc 5f fc ed bb
       -0.00056025357 -0.013442768 -0.013391888 -0.007262751
0002d0 8a 3f 30 3a 7b fd 53 bc ad 1b 0c bc 3e 81 44 ba
       0.0006723335 -0.012938852 -0.00855152 -0.0007496065
0002e0 a9 2e f3 3b ee 23 64 3c 5f 23 45 bb bc 96 41 bc
       0.007421334 0.013924582 -0.0030080897 -0.011815723
0002f0 f9 0f 57 3b 77 01 c2 bb 34 b8 89 bc 43 e4 0d 3c
       0.0032815917 -0.005920585 -0.016811468 0.008660379
000300 e8 96 c7 39 bd 25 b0 3b 29 33 ee bb 5f 79 e4 b9
       0.00038068672 0.0053755925 -0.0072692824 -0.00043577977
000310 d6 3c 26 3b e5 d0 62 3b 62 59 ad 3b 0f bc 5f 3c
       0.002536585 0.0034609374 0.0052901963 0.0136556765
000320 e5 9b 25 bb 3d 86 37 3b 8e a6 25 bb 8d fa a9 3b
       -0.0025269922 0.0028003596 -0.0025276276 0.0051873387
000330 85 14 f6 3a 78 23 63 3c 0c bc b3 3c 79 95 3a 3c
       0.0018774426 0.013863437 0.021940254 0.011388176
000340 e1 78 d4 bb 71 7e 21 bb 62 42 f2 bb 8f e0 af ba
       -0.0064841365 -0.0024642015 -0.0073931674 -0.0013418364
000350 6a 3c c4 3b 69 a2 1b bb 86 c2 5f b9 73 a3 01 3c
       0.005988647 -0.0023747927 -0.00021339403 0.0079125045
000360 37 ab d7 3b 03 2a b2 bb e9 c5 6b 3c c8 94 41 3a
       0.0065816897 -0.005437137 0.014390447 0.0007384536
000370 cb 71 90 3b f8 9d 8b ba 30 07 8d 3b 19 ee 6b 3c
       0.0044080964 -0.0010651937 0.0043038353 0.014400029
000380 7f cd 6d 3b db f2 3a 3c 59 34 4a 3b cc 97 52 ba
       0.0036285815 0.01141044 0.0030853956 -0.0008033484
000390 a0 25 44 3b f4 31 ed 3b b4 bf bb 3b 95 09 05 3b
       0.0029929653 0.007238621 0.00572964 0.00202999
0003a0 ea 76 e8 bb 56 9c 38 ba 84 f5 d1 3a d6 c5 66 3c
       -0.007094254 -0.0007042339 0.0016018604 0.014085254
0003b0 dc e6 17 3c 58 36 ff b8 b2 c5 01 bc 52 9d 05 3a
       0.00927135 -0.0001216947 -0.007920669 0.000509699
0003c0 c6 34 67 3c 5b ae f0 3b 36 76 22 3b 80 b1 89 3b
       0.014111703 0.0073450035 0.0024789697 0.004202068
0003d0 24 76 f5 3b 40 10 4c 3b 68 20 09 ba a8 89 f0 3a
       0.00749089 0.0031137615 -0.0005230964 0.0018351572
0003e0 7c 16 29 3b 7b 1e 0f 3c 7e f0 49 bb 2c aa b3 3b
       0.0025800755 0.008735294 -0.003081351 0.0054829326
0003f0 e9 e8 52 3b 27 4c 91 ba 0a da a8 3b 02 8e 85 bb
       0.0032182282 -0.0011085317 0.0051529454 -0.0040757665

bias_ih_l0 f4 [256]
000000 cc b5 9f bc 04 38 1b 3e 47 f6 e7 3d 94 f1 0c 3e
       -0.019495867 0.15158087 0.113262706 0.1376403
000010 0b 66 79 3e 59 1f db 3c 79 e6 28 3e 21 51 19 3e
       0.24355333 0.026748346 0.16494168 0.14972354
000020 a5 08 03 bc 76 00 aa 3d ea ed 7d 3b 2b bd 73 3e
       -0.0079976665 0.08300869 0.0038746544 0.2380263
000030 88 a7 62 3e 87 ed 35 3e 44 cd 0e 3e 11 b2 db 3d
       0.2213422 0.1776639 0.1394549 0.10727323
000040 b4 90 a4 3c ea ad 71 3e e0 27 ad 3d 54 14 3c 3e
       0.020088531 0.23601499 0.08454871 0.1836713
000050 d7 df 57 3e 5b b4 30 bc 0c 1e d5 3d 0e 25 43 3e
       0.21081482 -0.010785188 0.104061216 0.19057104
000060 25 e0 27 3e 72 cd 97 3d 9c aa 7a 3e 95 ac 7f bb
       0.16394098 0.074122325 0.24479145 -0.003901278
000070 e7 82 51 3c 27 e5 4e 3d 1f b7 8c 3e 8c 15 f9 3d
       0.012787557 0.050511505 0.2748346 0.12162313
000080 e8 58 9f 3d ef fa 72 3e ad 63 ce 3d ac 88 f2 3b
       0.077806294 0.23728536 0.100776054 0.0074015465
000090 2e 3b 23 3e c7 9b 4f 3e 9a 3e 2c 3d 56 c5 04 3e
       0.15940544 0.20274268 0.04205189 0.12965903
0000a0 d0 4e 69 3d e0 cb 42 3e a1 61 1b 3e 42 75 60 3e
       0.056959927 0.19023085 0.15173961 0.2191973
0000b0 c3 02 1e 3e 20 73 84 3d c5 6d f9 3d 27 41 26 3e
       0.15430741 0.06467271 0.1217914 0.16235791
0000c0 97 b4 1c 3e 43 f1 8f 3d b4 f5 f8 3d 37 70 c2 3d
       0.15303265 0.07028439 0.12156239 0.094940595
0000d0 79 c6 33 3e 44 84 ce 3d d1 15 27 3d c8 5e e8 bb
       0.1755618 0.100838214 0.04079229 -0.007091377
0000e0 2a 21 35 3e ff cd 64 3e 74 f8 43 bc 60 2e 5a 3d
       0.17688432 0.22344206 -0.011961091 0.053266883
0000f0 d2 02 4e 3e 6d 94 91 3c 92 4d 00 3e dd 51 b1 bb
       0.20118263 0.01777097 0.1252959 -0.00541137
000100 bb 90 5d bb e3 6a 38 3d fb 8b 20 3d c2 1f 37 3d
       -0.003380819 0.04502381 0.039195996 0.04470802
000110 b4 36 e1 bc da 8f 19 3b 90 88 96 3c eb b5 30 3d
       -0.027491905 0.002343169 0.018375665 0.04314224
000120 fe f4 e5 ba b8 4b 78 3d 22 95 b3 3b 39 75 2e 3c
       -0.0017544327 0.060619086 0.0054804245 0.010648065
000130 ee 8b 86 3d 48 4b 7d 3b d2 65 a1 3c 9e 07 9b 3c
       0.06569658 0.0038649607 0.019701872 0.01892453
000140 07 17 1c 3c 53 c3 1f 3d a7 99 e4 3c 0d 66 8e 3d
       0.0095269745 0.039004635 0.027905298 0.069530584
000150 08 68 b1 3d 4d 5c c6 bb 3d 3e 9f 3b fb 02 cb 3d
       0.086624205 -0.0060534836 0.0048597143 0.09912678
000160 ae e3 e5 bc 6f 63 aa 3c 61 6b 90 bc 05 77 96 bb
       -0.028062668 0.020799367 -0.017629327 -0.004591825
000170 3e e2 cc bb ba 55 ad 3c c1 f3 3a 3d 11 26 6b 3d
       -0.006252556 0.021159042 0.045642618 0.05740935
000180 66 9f a1 3c 79 78 dd bc d7 8e dd 3c 6c 16 b5 bb
       0.019729327 -0.027034985 0.02704565 -0.0055263545
000190 4c d5 3a 3d 25 ed db bc 1f 95 08 3b 79 79 70 3d
       0.045613572 -0.026846478 0.0020840836 0.058709595
0001a0 8d a9 d3 3c d6 55 2b bd df 68 91 3b 88 1f 95 3d
       0.025837684 -0.041829906 0.0044375504 0.07281405
0001b0 4a 2f 43 bd 18 3c 80 3c 42 db 3a 3d 47 40 97 3d
       -0.04765252 0.015653655 0.045619257 0.07385307
0001c0 3a 41 aa 3d 97 d7 3f 3c b8 fb b7 3c 91 91 04 3d
       0.08313222 0.0117091155 0.022458896 0.032365385
0001d0 5a d3 ae 3d cf 50 ef 3c 10 fc 43 3c 82 ef ae ba
       0.08536406 0.029213337 0.011961952 -0.0013346525
0001e0 d7 20 2a 3c 5e 89 cc 3c 3a 1c bb 3a 49 25 b6 3a
       0.010383806 0.024967846 0.001427538 0.001389661
0001f0 35 6b 42 3d 05 f5 29 3c 29 ad 15 3d 40 b0 55 3b
       0.04746552 0.010373359 0.03654209 0.0032606274
000200 04 1f 57 3d 6c dc 08 3e 62 74 96 3d 7b c8 48 3d
       0.052519813 0.13365334 0.07346417 0.049019318
000210 a1 bd 54 3d 36 1a e2 3d 83 b6 51 3b f0 3f a7 3d
       0.051938657 0.110401556 0.0031999655 0.08166492
000220 0e 14 a5 3c 51 f6 8a 3c 4b 4e a2 bd 7e d0 85 3c
       0.020151164 0.016963156 -0.079250894 0.016334768
000230 f1 51 81 3d e2 3c b9 3d ed 76 81 bc e3 f6 c0 3d
       0.06314457 0.090448156 -0.015803779 0.0942209
000240 6a e0 a8 bd 85 ab 04 3d 50 5a 25 3c 85 9d 0d 3e
       -0.082459286 0.032390136 0.010092333 0.1382962
000250 5e ff 3c bd ba cd df 3c 86 a1 90 3d 0c 3e db 3d
       -0.046141975 0.027319778 0.07062058 0.10705194
000260 66 a7 8b 3d f0 c0 74 bc 59 51 14 3e e3 18 6c 3c
       0.06819038 -0.014938578 0.14484157 0.01441023
000270 10 3c 61 3d 69 23 d0 3d d5 02 9d 3d 02 8f 3b 3c
       0.05498892 0.10163004 0.07666556 0.01144767
000280 0d e3 e0 3d dd 8d c9 3d ab b5 70 3d 46 87 7c 3c
       0.109808065 0.098415114 0.058767002 0.015413111
000290 dc ab 93 bd 10 94 11 bb 05 39 bc 3d 63 3b 47 3d
       -0.07210514 -0.0022213496 0.09190563 0.04864062
0002a0 50 73 92 3d 4d 2d 73 3d 3d 42 a4 bc 51 cc e0 3a
       0.071509 0.059369374 -0.020051116 0.0017150735
0002b0 fe ab db 3d 21 f9 c9 3c 61 be 00 3d e2 c0 f1 3d
       0.10726164 0.024654927 0.03143156 0.118043676
0002c0 c6 4c 92 bb 74 3d 04 3d 81 33 5e 3d 08 69 e1 bb
       -0.0044647185 0.03228517 0.054248337 -0.006878976
0002d0 21 7d ec 3d d9 ae e2 3d 74 9e 4f 3b 95 30 69 bb
       0.11547304 0.11068506 0.0031680139 -0.0035581936
0002e0 b4 42 22 3c 37 40 5a 3d d5 8a c8 3b 7f 95 8a 3d
       0.009903599 0.053283896 0.0061200657 0.06766795
0002f0 86 c8 85 3c 79 f2 cd 3b af 77 07 3e fe 2d 2c bc
       0.016330969 0.0062850085 0.1322925 -0.010509012
000300 a6 0f a2 bc 3f bd d8 3d 48 02 e1 3d 28 c3 0b 3e
       -0.019782852 0.10582971 0.10986763 0.13648665
000310 05 1c 82 3e e6 17 c6 3c e3 a3 0d 3e 70 33 49 3e
       0.25412002 0.024181318 0.13832049 0.19648528
000320 36 a8 1e bc 95 12 ce 3d df 7f 74 3b d2 69 78 3e
       -0.009683659 0.10062138 0.0037307662 0.24259117
000330 a0 40 73 3e 25 33 34 3e 35 99 29 3e d3 6c e4 3d
       0.23755121 0.17597635 0.1656235 0.11153569
000340 fa d3 a5 3c 33 b2 63 3e 89 ac 2d 3d d3 cc 39 3e
       0.02024268 0.22235946 0.04240087 0.1814454
000350 01 76 51 3e 83 53 35 bc 8d 11 cb 3d 59 7a 2c 3e
       0.20455171 -0.011067274 0.09915457 0.16843547
000360 ce ec 3d 3e 6b 8e 89 3d 94 65 54 3e 56 b8 8d bc
       0.18547365 0.06716617 0.20741874 -0.017299812
000370 72 60 a5 ba 1c 01 86 3d b9 da 90 3e 07 17 a8 3d
       -0.0012617244 0.0654318 0.28291872 0.08207517
000380 53 f9 2c 3c 6c fe 6e 3e b5 a0 9c 3d 16 e8 9a ba
       0.01055749 0.23339242 0.0764784 -0.0011818435
000390 2d 4b 31 3e bd 91 5b 3e ac 31 b3 3c 5e b9 a6 3d
       0.17313834 0.21442313 0.021874271 0.08140825
0003a0 8c e1 30 3d af b0 41 3e 4e 8e 1f 3e 1e 3b 6c 3e
       0.04318385 0.18915056 0.15581629 0.23069426
0003b0 85 50 22 3e c7 42 09 3d e1 75 e0 3d 7c 87 57 3e
       0.15851028 0.03351095 0.109599836 0.21047777
0003c0 e9 c1 2a 3e cf 1e 91 3d 59 02 d8 3d 53 a2 f1 3d
       0.16675533 0.070859544 0.10547323 0.11798539
0003d0 49 d7 4b 3e 45 3e cb 3d d0 bb 49 3d a6 4c e7 bb
       0.19906344 0.09923986 0.049251378 -0.0070586978
0003e0 5f 0b 3f 3e fe 48 79 3e 49 6d 77 bc 80 8c 67 3d
       0.18656681 0.2434425 -0.015101739 0.056530476
0003f0 6f 79 74 3e a2 ae 21 3d ba 11 be 3d ca 3e b1 bb
       0.23874448 0.039473183 0.09280725 -0.0054090964

bias_hh_l0 f4 [256]
000000 a5 9e 93 bc b1 0e 26 3e b1 67 f5 3d ee 79 0c 3e
       -0.018019984 0.16216542 0.11982668 0.13718387
000010 e0 a7 6d 3e 83 7c d7 3c c9 07 2f 3e 82 b6 18 3e
       0.2320857 0.026304489 0.17092814 0.14913371
000020 25 09 04 bc 41 bb e3 3d 3d 95 83 3b 35 bd 7a 3e
       -0.008058821 0.111197 0.0040155933 0.24486239
000030 8d a9 5d 3e 3a 94 34 3e c6 b5 23 3e 16 01 b3 3d
       0.2164671 0.17634669 0.1598731 0.087404415
000040 72 46 93 3c 9a 55 7a 3e 42 d6 c7 3d b3 c9 3b 3e
       0.017977927 0.24446717 0.09757663 0.18338661
000050 08 d7 56 3e 03 fa 4b bc 39 71 b9 3d f3 60 4a 3e
       0.20980465 -0.012449744 0.09054799 0.19763546
000060 6f 69 2a 3e 9c 15 98 3d e6 70 63 3e 9b 32 f8 bb
       0.16641782 0.07425997 0.22211036 -0.007574392
000070 3a 9f 8d 3c db 67 80 3d b5 6c 75 3e 1b e8 04 3e
       0.01728784 0.06269809 0.2396725 0.12979166
000080 d8 82 14 3d 85 45 5d 3e bd 2e 9e 3d 91 04 0b 3c
       0.036257595 0.21608551 0.07723758 0.008484975
000090 4c 58 2e 3e 89 23 4d 3e 07 99 02 3d 72 a0 03 3e
       0.1702587 0.20033087 0.03188422 0.12854174
0000a0 84 0e 86 3d 19 63 43 3e 24 13 16 3e e6 46 68 3e
       0.065457374 0.19080772 0.14655739 0.22683296
0000b0 f2 47 1e 3e 5c 67 8c 3d 7d b8 e5 3d 78 c9 4c 3e
       0.15457132 0.06855652 0.11216829 0.19998729
0000c0 08 13 32 3e cd 18 91 3d b3 33 e6 3d d6 70 eb 3d
       0.17390072 0.070848085 0.112403296 0.11496131
0000d0 9e 1e 51 3e b1 f1 de 3d c9 79 0f 3d 7d 5e e8 bb
       0.20421836 0.10885943 0.035028253 -0.007091342
0000e0 a6 f1 25 3e 46 65 68 3e 00 5d 41 bc ec 52 09 3d
       0.16205463 0.22694883 -0.011801958 0.033526346
0000f0 eb 3f 5a 3e 63 7d b7 3c 73 7f 15 3e 16 6b c3 bb
       0.21313445 0.022398656 0.145994 -0.0059636934
000100 fb 4f 5c bb 96 7f 0b 3d ca f9 1a 3d 2f 18 37 3d
       -0.0033617008 0.034057222 0.037835874 0.044700798
000110 a6 38 d8 bc 16 fb 30 3b 05 64 5b 3c 8c f4 76 3d
       -0.0263942 0.0027005128 0.013390546 0.06029181
000120 f6 f4 e5 ba 96 17 76 3d 1f 95 b3 3b 78 8d 3d 3c
       -0.0017544318 0.060081087 0.005480423 0.011569373
000130 c9 a7 85 3d 43 2f 56 3b 66 30 8c 3c 99 7c e7 3c
       0.06526143 0.0032681979 0.017112922 0.028257655
000140 07 17 1c 3c 8b 20 1c 3d 73 65 df 3c 8a cd 8d 3d
       0.0095269745 0.038116973 0.027270054 0.06923969
000150 39 68 b1 3d e3 6e c6 bb 4c 80 8c 3b 3f 78 c1 3d
       0.08662457 -0.006055699 0.004287755 0.09446763
000160 ea 82 e7 bc 2c 60 aa 3c 90 94 fb bb 8c 28 93 bb
       -0.028260667 0.020797811 -0.007677622 -0.0044909175
000170 4c 1c d0 bb 22 a5 9d 3c 2b 73 41 3d 12 01 92 3d
       -0.0063510295 0.01924378 0.047228973 0.071291104
000180 c0 98 da 3c fd 8f eb bc c4 90 e8 3c 7a 15 bf bb
       0.026684165 -0.028755182 0.028389342 -0.0058314176
000190 53 d1 3b 3d 08 f6 de bc 8b 2c 9d 3a b4 f5 75 3d
       0.045853924 -0.027216926 0.0011991424 0.060048774
0001a0 15 09 d2 3c 4e 18 2b bd e3 aa 97 3b 5d a0 95 3d
       0.025639096 -0.041771226 0.0046285256 0.073059775
0001b0 22 eb 40 bd 31 53 8e 3c 69 99 3d 3d 34 da 97 3d
       -0.04709924 0.017373653 0.04628888 0.07414666
0001c0 a9 e7 a8 3d 9a d6 3f 3c 66 67 dd 3c 25 7c 07 3d
       0.08247311 0.01170888 0.027026843 0.033077378
0001d0 39 e0 ad 3d 00 bd f0 3c c6 07 44 3c 72 ef ae ba
       0.08490033 0.029386997 0.011964744 -0.0013346507
0001e0 9f 62 2f 3b dc 70 a8 3c b9 0e bb 3a b9 fb 60 3b
       0.0026761664 0.020561628 0.0014271355 0.0034329726
0001f0 8c 3d 7b 3d 6e 06 2e 3c 2c 27 12 3d bd b8 55 3b
       0.061337993 0.01062165 0.03568189 0.0032611333
000200 f2 31 0e 3d 2d 69 eb 3d 46 98 ef bb c9 b3 ed bd
       0.0347156 0.1149467 -0.0073118536 -0.11606557
000210 16 af 94 bb b7 09 e2 3d 8d 9b b7 3d d3 89 50 3d
       -0.0045374734 0.11037009 0.08965216 0.05091269
000220 04 d1 b0 bc 45 98 f6 3d 6a 75 af bd 3f 71 c5 3c
       -0.021584041 0.12040762 -0.08567317 0.024101852
000230 62 2d 45 3d aa cb 10 3c 61 2e c9 3d 64 85 f9 3d
       0.048138984 0.00883762 0.09823299 0.12183645
000240 ee 35 f1 bd 43 93 c1 3c 70 10 ea 3d 27 d5 0f bc
       -0.117778644 0.02362979 0.114289165 -0.008778847
000250 97 d0 20 be f3 df 9d 3b 5c 26 c7 3d 23 8f 0a 3e
       -0.1570457 0.0048179566 0.09724113 0.13531165
000260 e3 44 f8 3d 1e 61 84 3d 23 b6 e2 3d 32 7d c7 3d
       0.12122514 0.06463836 0.11069896 0.09740676
000270 47 3f d3 3d 89 5b 91 3d 88 58 4f 3d 1b 75 18 bc
       0.103148036 0.07097537 0.05062154 -0.009305264
000280 8e 9c bd 3d e3 15 c1 3c 65 65 38 3e fb e7 a3 3d
       0.09258376 0.023570007 0.18007429 0.08003231
000290 da 0f b0 3d 49 11 af 3d 62 71 62 3d b2 f5 10 3e
       0.085967734 0.08548219 0.05528391 0.14156225
0002a0 17 0d 76 3d 20 ae c7 ba 1b 8e 60 bc 7c 6a 7a 3d
       0.060071077 -0.0015234388 -0.013705756 0.061136708
0002b0 34 e5 98 3c b7 8b a9 3d a6 3a 7b 3d 09 81 a6 bc
       0.01866398 0.082786016 0.06133523 -0.0203252
0002c0 10 57 ea 3d 4f 89 c7 bc ef 06 82 3d e4 9d 92 3d
       0.11442387 -0.024357466 0.06348979 0.071590215
0002d0 87 15 31 3c 8c de a5 3b c5 14 94 3c a0 cf 1c bc
       0.010808355 0.00506193 0.01807631 -0.009570986
0002e0 51 ee e9 3d ca e1 06 b9 c2 3a 66 3d 8f 2a c3 3d
       0.11422408 -0.00012863349 0.05620838 0.09529602
0002f0 7c c3 ec 3d 3a cd 50 3d 5c 1a d5 3d e6 5a 72 bc
       0.11560723 0.05097697 0.10405418 -0.01479218
000300 06 60 a5 bc 0f c9 b7 3d 6e 6d bb 3d 32 27 15 3e
       -0.02018739 0.08973896 0.091517314 0.14565733
000310 9b a1 74 3e 4f cb d7 3c f6 49 c2 3d f2 b5 3c 3e
       0.23889773 0.026342062 0.09486763 0.18428782
000320 43 92 1f bc 3d 60 cd 3d a7 bf 69 3b 78 6a 70 3e
       -0.009739461 0.100281216 0.0035667212 0.23478115
000330 df 0c 75 3e e9 6d 36 3e e6 71 13 3e d2 cf e8 3d
       0.23930691 0.17815365 0.14398918 0.113677636
000340 96 b3 84 3c a1 55 5e 3e ce f6 9b 3d 34 c4 34 3e
       0.016198914 0.21712352 0.07615434 0.1765297
000350 33 b4 51 3e 63 b4 5c bc fc c4 b3 3d 9f 4a 2b 3e
       0.20478897 -0.013470742 0.08777806 0.16727684
000360 b7 20 4d 3e 0a 0d 85 3d e6 ee 6e 3e 9a ad 7c bb
       0.20032011 0.06496628 0.2333332 -0.0038555623
000370 5c db b2 3b 58 08 3d 3d 1e c9 93 3e 8d 3b a4 3d
       0.0054582786 0.046150535 0.28864378 0.08019171
000380 01 13 89 3d 33 c0 80 3e 6a 94 ca 3d a1 20 33 3b
       0.06693078 0.25146636 0.09891589 0.002733268
000390 8f 61 27 3e d4 7c 5b 3e 65 d0 e3 3c a7 87 c1 3d
       0.1634581 0.21434337 0.027809331 0.09449702
0003a0 0b 6c 34 3d c5 24 43 3e e4 5b 2a 3e 88 b6 6a 3e
       0.04404835 0.19056995 0.16636616 0.22921193
0003b0 de 22 28 3e bf 55 9b 3d b1 00 e4 3d d6 c6 47 3e
       0.16419551 0.07584714 0.111329444 0.19509444
0003c0 64 7e 2b 3e 31 07 90 3d b1 4e e9 3d 67 62 c0 3d
       0.16747433 0.07032622 0.11391962 0.09393769
0003d0 74 c9 62 3e 67 7d 9a 3d b1 af 0f 3d a6 4c e7 bb
       0.22147161 0.0754345 0.03507966 -0.0070586978
0003e0 f9 c3 26 3e 69 7a 6d 3e 5f a2 78 bc 7c 24 b3 3c
       0.16285695 0.23191227 -0.015175431 0.021867983
0003f0 8d f7 5d 3e 87 5b 21 3d 85 fa a4 3d 9d 03 bb bb
       0.21676464 0.039393928 0.08055595 -0.005707218

weight_ih_l0_reverse f4 [256, 45]
000000 78 6e 18 3d 88 59 84 3d c8 ac 4b 3d 4e 79 b6 bc
       0.037214726 0.06462389 0.049725324 -0.02227464
000010 62 13 61 bc a2 b4 b5 3c 86 7f 74 3c 43 7d da 3c
       -0.013737531 0.022180859 0.014922982 0.026671058
000020 6a fa ad 3c 74 04 54 bc e7 51 2a bc c6 1c 30 3d
       0.02123757 -0.012940515 -0.010395504 0.04299619
000030 4d 03 10 bc a8 d3 fa bc f6 3b a0 3b 1e fe 28 bb
       -0.0087898495 -0.030618504 0.0048899604 -0.0025786231
000040 21 ad 6e bb 50 a6 c9 3b 4a fa 80 bb 1b ea ad 3c
       -0.003641911 0.006153859 -0.003936087 0.021229794
000050 6f 72 85 3b 8d 54 da ba b4 a1 a6 bb fe 59 d3 bc
       0.0040724794 -0.0016657278 -0.0050851945 -0.025799748
000060 1a c4 11 bd b9 4b c8 3c 96 1b d4 3b 75 cd 98 3c
       -0.035587408 0.02445017 0.006473015 0.018652657
000070 19 40 7c 3b 93 7c ae bb 62 2a 98 3c b5 87 d1 bb
       0.0038490354 -0.005324909 0.018574897 -0.0063943514
000080 f2 91 85 bb 29 cd 1a 3b 16 b1 23 bc 2c 2b 68 3c
       -0.004076236 0.002362082 -0.009990951 0.014170449
000090 67 4d 7b bc 08 ed 28 3d 3e f4 22 39 80 0a c1 bc
       -0.015338278 0.041241676 0.00015540511 -0.023564577
0000a0 60 e9 32 bc 11 52 c4 bb 7c ba 11 bb 51 9e 39 bb
       -0.010919899 -0.0059912284 -0.0022236397 -0.0028323124
0000b0 65 c0 e7 bb 16 76 8c 3c 78 19 6d 3a dc 3d d1 3c
       -0.0070724958 0.017146152 0.00090446277 0.025542192
0000c0 6f 3d f9 ba 7b 5f d6 bc 4f 54 29 3c 47 27 0e 3c
       -0.0019015501 -0.026168576 0.010335042 0.008676357
0000d0 f0 8c d1 3c 90 b4 2a 3b ee 68 e9 bb 2c bf 1b bc
       0.0255799 0.0026047565 -0.0071231043 -0.009506028
0000e0 06 32 ba 3c e2 42 18 bc 1b 31 6b bc f6 f1 54 3b
       0.022728931 -0.00929329 -0.014354969 0.0032492853
0000f0 64 21 33 bb e7 7d 5f bb 13 a7 83 3c 96 84 9b bb
       -0.0027333135 -0.0034102143 0.016070878 -0.00474603
000100 59 ca 9c 3b 82 bb cb 3b db 2a c7 ba d9 1f ac ba
       0.004784864 0.006217421 -0.0015195267 -0.001313205
000110 18 2c 72 bc 45 e5 9e bc 7f 05 5a 3c 07 cc d5 3b
       -0.014781021 -0.019396434 0.013306974 0.006524566
000120 6e 95 0b 3b cf a8 80 3b 61 c4 cb bb 78 b4 8f 3c
       0.0021298784 0.0039263736 -0.0062184785 0.017542109
000130 f4 b0 82 bb 05 db d2 bb 8d cf c4 3b b6 13 31 bc
       -0.0039883796 -0.0064348006 0.0060061873 -0.010807922
000140 53 7d 43 3c 29 e0 85 bc 65 bf 11 3d d5 f5 4e 3b
       0.011931735 -0.01634224 0.03558292 0.0031579633
000150 9b 7b 48 bc 66 6c 14 bc ed 9a a0 bb 1e ce 66 bb
       -0.012236501 -0.009059047 -0.004901281 -0.003521807
000160 d2 8f 65 bb 61 78 ad bb 77 61 ad 3e 01 b3 6e bd
       -0.003502835 -0.0052938913 0.33863422 -0.05827618
000170 f3 fb 48 3b 6c 5b 28 bd 2f 8e 96 3d 84 db 1b 3e
       0.0030667752 -0.04110281 0.07351338 0.15220457
000180 6f 61 14 3c 42 5e bd 3c a1 15 50 3e 58 ab 2d 3e
       0.009056433 0.023116235 0.20320751 0.16959894
000190 cc 18 c2 bc 3d f9 44 3e d3 53 cd bc d6 0f 48 3e
       -0.023693465 0.19235702 -0.025064385 0.19537291
0001a0 08 90 18 3e 2e 12 ca 14 e9 2d e0 bb 25 0c 67 3e
       0.14898694 2.0403958e-26 -0.0068414104 0.22563227
0001b0 39 02 e5 bb 4e 51 81 3c a5 0b fb 3c f4 09 0a bb
       -0.0069887904 0.01578584 0.030645201 -0.0021063061
0001c0 92 ff d2 3c 9e ae 15 bc c4 70 9e 3d fc 73 4e bc
       0.025756631 -0.00913587 0.07736352 -0.012600895
0001d0 dc 8d 83 3d 3c ab 8b bb 41 12 03 bb 13 da 8b bb
       0.06423542 -0.004262356 -0.0019999894 -0.00426794
0001e0 73 df 5a 3d aa bd ea 3c 1b 0a e6 bc 52 f7 50 bb
       0.053435754 0.028654892 -0.02808099 -0.0031885696
0001f0 98 8c 1f bc 7f a6 d2 3a 22 c7 17 bc 56 1c 20 3e
       -0.00973811 0.0016071348 -0.009263786 0.1563581
000200 86 e1 a4 3c 8b 74 81 3b 76 81 08 bc 2f 1a 88 3c
       0.02012707 0.0039506606 -0.008331647 0.016614048
000210 94 57 90 3b 00 1b 67 bb e8 2d cb bc b0 ae 94 bb
       0.0044049714 -0.0035263896 -0.024802163 -0.004537426
000220 6b 1e 5e 3c df 21 3f ba db 7e 81 3c f7 bc 93 bb
       0.013557057 -0.0007291119 0.01580756 -0.0045086103
000230 2d fb 2c 3c bc 52 90 3a aa 14 81 3c a4 90 83 3b
       0.010557932 0.0011010985 0.015756924 0.0040150452
000240 10 5d c7 bb 2e ce 23 bc 83 16 b7 3c f3 6e db bb
       -0.006084092 -0.009997888 0.022349602 -0.006696576
000250 27 04 a3 bc b3 04 23 bc fe 2d 1b ba c7 20 d3 ba
       -0.01989944 -0.009949851 -0.0005919634 -0.0016107791
000260 5b b3 89 3c c8 a0 3b bb 19 5c 6e 3c c0 80 6e bb
       0.016809156 -0.0028629769 0.014548325 -0.003639266
000270 41 89 3c bb 27 58 fd bb b8 d5 5a bc 8f 59 82 bc
       -0.0028768333 -0.007731456 -0.013356619 -0.015911845
000280 39 9a 73 3c 7a 73 53 3b 88 2a a2 bb 1e d3 29 bb
       0.0148683125 0.0032264874 -0.004948918 -0.002591319
000290 21 47 95 bb b7 5e 98 3c 30 b9 c4 bb 00 c5 d0 bb
       -0.0045555984 0.018599851 -0.0060035214 -0.0063711405
0002a0 b7 48 df 3b 41 a1 e8 bb f4 fb 8c 3c 3e 09 25 bc
       0.006814088 -0.007099301 0.017209984 -0.010073004
0002b0 5b 42 cc 3c 14 e9 82 3b fb 3d de bb 81 72 33 bc
       0.024933985 0.0039950702 -0.006782291 -0.010952593
0002c0 cd 5e 04 bc 19 08 f1 ba 0d 81 00 3b af 8c 05 bc
       -0.008079243 -0.0018389254 0.001960817 -0.008151217
0002d0 c0 24 5a bd da 64 1c bc fe 4d 96 bd 05 29 fb 3b
       -0.053257704 -0.009545529 -0.073390946 0.007664802
0002e0 ba 65 18 bc 7a 1c cd bc 87 16 3c bc b4 56 06 3c
       -0.009301597 -0.025037993 -0.01147998 0.008199383
0002f0 32 5c 83 3a 9d e2 8a 37 84 6b b5 3b c9 13 6c bc
       0.0010021983 1.6556407e-05 0.0055364985 -0.014409014
000300 f3 9a b6 3b 5c 08 94 3c 6e a6 35 bc 54 93 de 3b
       0.0055726706 0.018070392 -0.011087043 0.006792465
000310 87 42 96 3b 74 f7 82 bc 27 e3 a1 bb c9 14 05 bd
       0.0045855674 -0.015987135 -0.0049404087 -0.032490525
000320 ba c1 e7 ba 4e 27 c3 3b 1b e1 bd ba 60 7d e6 3a
       -0.0017681636 0.005955613 -0.0014486642 0.0017584972
000330 f0 ce 11 3c bc 31 33 ba 26 9c 3f ba cc 36 da 3a
       0.008899435 -0.0006835719 -0.00073093397 0.0016648411
000340 59 6e 81 ba 20 7e 25 3a f8 87 70 ba 0c 8d f8 bb
       -0.0009874805 0.00063130446 -0.00091755344 -0.0075851735
000350 12 fb bb bb 0d 54 a2 3b ec 59 01 3c 45 ad 08 bb
       -0.005736717 0.0049538673 0.007894974 -0.002085523
000360 4a 9b a1 3c f9 df 00 bb 96 b3 35 b9 ba 35 c0 bb
       0.019727368 -0.0019664748 -0.00017328406 -0.0058657797
000370 40 2c ad 3b ec 63 67 3a fa 67 a4 ba 04 58 b8 b8
       0.005284816 0.000882684 -0.0012543194 -8.790198e-05
000380 09 38 56 bb 83 b1 8c 3b fd 9c 5a bc 9b 75 ad bc
       -0.0032687208 0.004293622 -0.013343093 -0.021174243
000390 71 c7 d7 bb 4c b9 e5 3b 07 b9 31 3a 9a 1f 95 ba
       -0.0065850546 0.0070106145 0.00067795854 -0.0011377216
0003a0 8b 6b ff 3b 68 0f cf 3c e7 5b 36 bc 39 b1 3c bc
       0.0077948025 0.025275901 -0.01113031 -0.011516863
0003b0 9a 26 c6 3c 36 ad c5 bb 71 7d c9 3b e3 8f f8 3b
       0.024188329 -0.0060326112 0.006148987 0.007585512
0003c0 91 92 48 b9 af 83 09 3a 23 ad c6 3c 93 7c 98 bb
       -0.00019128087 0.00052457576 0.02425248 -0.0046535223
0003d0 04 08 a6 3c 9a 28 48 bc be 2a 85 bb 2d 11 a6 bc
       0.020267494 -0.012216711 -0.004063933 -0.020271862
0003e0 ef a0 76 bc ed d1 4d bb 99 30 f2 3c 13 1e e6 3b
       -0.015053018 -0.0031405643 0.029564189 0.007022628
0003f0 ec 9f cd bb af a8 9f b9 e8 2a b4 ba ae 29 75 3c
       -0.0062751677 -0.00030452522 -0.0013745697 0.0149635505

weight_hh_l0_reverse f4 [256, 64]
000000 ea 81 4e 00 7b 3b 74 00 65 0a 74 00 36 a8 e5 00
       7.209773e-39 1.0674255e-38 1.0656646e-38 2.1090671e-38
000010 78 0a e4 80 c1 a7 48 00 12 82 0f 80 6b ac 2f 80
       -2.0942249e-38 6.672334e-39 -1.424193e-39 -4.37812e-39
000020 16 51 90 00 99 0d 2f 00 d8 84 48 80 46 f4 0f 00
       1.32534e-38 4.321146e-39 -6.659811e-39 1.465161e-39
000030 35 db 94 80 a0 e6 30 80 63 5f d0 00 66 28 6b 00
       -1.367029e-38 -4.490836e-39 1.9136002e-38 9.84089e-39
000040 4c b7 39 00 0e cb 59 80 53 ec b4 80 e8 10 23 80
       5.300378e-39 -8.246201e-39 -1.6615166e-38 -3.220307e-39
000050 ea fe 0f 00 80 46 57 80 4f a8 36 80 d3 03 26 80
       1.468978e-39 -8.014979e-39 -5.019495e-39 -3.491121e-39
000060 95 09 bc 80 47 5d d2 80 40 19 94 81 ea f5 11 00
       -1.726851e-38 -1.9318916e-38 -5.4402846e-38 1.649421e-39
000070 34 31 79 80 cc 18 3c 00 55 3a 77 80 f3 40 14 80
       -1.1129746e-38 5.519025e-39 -1.094935e-38 -1.86001e-39
000080 2a 88 65 00 8d 3a 39 00 a0 73 4f 80 af 63 6e 80
       9.324232e-39 5.255627e-39 -7.296483e-39 -1.0137664e-38
000090 0e 70 2d 80 30 2a 56 80 5c 4f 37 00 1c 6c 2d 80
       -4.172795e-39 -7.912987e-39 5.079421e-39 -4.17138e-39
0000a0 ae 7b c7 80 7c a1 ba 00 cf 7d 58 80 88 0c 58 00
       -1.8319632e-38 1.7139332e-38 -8.126655e-39 8.086019e-39
0000b0 c0 fe a1 80 46 39 e5 80 f9 22 94 00 19 88 53 00
       -1.4876902e-38 -2.1050874e-38 1.3604199e-38 7.671169e-39
0000c0 b4 89 c1 00 fa 05 14 00 76 63 16 80 5a 68 3d 80
       1.777365e-38 1.838854e-39 -2.056061e-39 -5.6394e-39
0000d0 b4 d5 08 80 cc bc 7f 80 e6 37 3c 80 62 0c 12 80
       -8.11346e-40 -1.1730836e-38 -5.530182e-39 -1.657481e-39
0000e0 e6 d4 97 00 cc 5f 31 00 07 c2 94 00 a2 91 7e 80
       1.3943533e-38 4.534305e-39 1.3661257e-38 -1.1623516e-38
0000f0 f1 1c 8a 00 8f a7 d1 00 22 a3 54 80 bc 7b 27 00
       1.268368e-38 1.9253727e-38 -7.772703e-39 3.625972e-39
000100 71 97 d8 80 af b0 aa 80 a1 3d bb 80 db ab a2 80
       -1.9890794e-38 -1.5675416e-38 -1.7195346e-38 -1.4939e-38
000110 6f ce 54 80 08 a1 8f 00 94 45 6f 80 52 ab b7 80
       -7.788236e-39 1.3190243e-38 -1.02187e-38 -1.6867354e-38
000120 48 66 52 80 ac 34 0a 00 ad bb 0d 80 ac ba 0b 00
       -7.567202e-39 9.3725e-40 -1.261187e-39 1.077156e-39
000130 a6 f6 2e 00 70 71 05 80 99 1b b0 00 94 92 22 80
       4.312914e-39 -4.99871e-40 1.6172947e-38 -3.174989e-39
000140 66 b5 9d 00 80 ce 69 80 be ac c5 80 f6 42 8d 00
       1.4483246e-38 -9.716805e-39 -1.8153561e-38 1.2972826e-38
000150 6a ba d2 00 c9 72 3c 80 be d1 3f 80 3d db b3 00
       1.9352327e-38 -5.551307e-39 -5.860878e-39 1.6517202e-38
000160 70 6b 19 80 40 07 86 00 1b 15 6f 80 c9 a8 42 00
       -2.334429e-39 1.2308557e-38 -1.0201311e-38 6.121691e-39
000170 f1 c3 96 00 a0 02 03 00 05 9f 29 80 7b 5d bc 00
       1.3845615e-38 2.76448e-40 -3.822301e-39 1.7298608e-38
000180 20 f6 8d 80 e7 3a d2 00 06 06 ad 00 8b 1d 63 00
       -1.3037098e-38 1.9306584e-38 1.5889702e-38 9.102312e-39
000190 ac 75 0e 80 e2 7e bf 00 2a 93 83 00 51 85 8d 00
       -1.32791e-39 1.7586097e-38 1.2083243e-38 1.299663e-38
0001a0 40 5b 72 00 a8 e0 3d 80 ef 79 81 00 40 13 2e 00
       1.0501981e-38 -5.682557e-39 1.189052e-38 4.231338e-39
0001b0 70 6a 7c 00 70 7b 5d 80 a3 e8 b6 00 b7 95 c9 80
       1.1425784e-38 -8.584982e-39 1.6797515e-38 -1.8512642e-38
0001c0 b7 64 eb 00 ff f1 ba 00 f5 b8 bf 00 bb 4b 4c 80
       2.1617471e-38 1.7168214e-38 1.760693e-38 -7.006665e-39
0001d0 e4 ed 88 00 76 40 4f 00 ce e2 54 00 24 ca 8f 00
       1.2574967e-38 7.278128e-39 7.795544e-39 1.320499e-38
0001e0 4e 8e bc 00 48 98 18 00 46 b4 00 80 88 fe e8 80
       1.7316123e-38 2.25868e-39 -6.467e-41 -2.1397144e-38
0001f0 f1 89 91 00 01 5c 4f 00 c1 73 85 00 ac 4d b9 80
       1.3365631e-38 7.288009e-39 1.2255646e-38 -1.701743e-38
000200 66 27 57 80 3e 09 c5 00 f8 21 5e 80 db f1 6e 00
       -8.003822e-39 1.8094908e-38 -8.644722e-39 1.0188666e-38
000210 e6 54 eb 80 47 73 a6 00 56 37 4e 80 f6 bf 43 80
       -2.1611797e-38 1.5286046e-38 -7.18302e-39 -6.221841e-39
000220 e5 24 7a 80 0b 26 15 00 c5 99 6c 80 70 61 5a 80
       -1.1217166e-38 1.942193e-39 -9.973396e-39 -8.300149e-39
000230 11 78 e3 80 b0 c1 ce 01 5d 4f d2 00 18 06 1c 00
       -2.088973e-38 7.5950377e-38 1.9313924e-38 2.57358e-39
000240 43 94 12 80 3c 9d 5c 80 34 cb ea 80 17 57 af 00
       -1.706225e-39 -8.505271e-39 -2.1562402e-38 1.6102454e-38
000250 30 af 4a 00 e3 68 bb 81 06 48 57 80 72 49 0e 80
       6.858672e-39 -6.8843456e-38 -8.015525e-39 -1.312044e-39
000260 20 31 c2 00 a8 b7 c9 80 7b df 73 00 09 01 ce 80
       1.7833709e-38 -1.8524818e-38 1.0641252e-38 -1.8918484e-38
000270 7d 21 33 00 2c 11 ba 80 0f 10 b2 80 97 2b 22 80
       4.695624e-39 -1.7087562e-38 -1.6352479e-38 -3.138044e-39
000280 9c 8c 7f 00 ce 86 bd 00 01 8d 9c 00 52 03 6f 80
       1.1713549e-38 1.7405268e-38 1.437692e-38 -1.0194931e-38
000290 c8 1e 0b 00 de a6 9a 80 2c 46 30 00 e6 de 82 00
       1.021233e-39 -1.4202527e-38 4.433277e-39 1.2018575e-38
0002a0 31 ad 68 80 fa a7 b4 80 82 20 11 80 dc 90 a3 00
       -9.613021e-39 -1.6590648e-38 -1.572865e-39 1.5021152e-38
0002b0 2e 0f 62 80 27 40 70 80 4a b7 58 00 bb 86 6e 00
       -9.005324e-39 -1.0308589e-38 8.147275e-39 1.0150237e-38
0002c0 df e4 7f 00 e0 b5 6a 80 a6 10 a2 00 61 88 01 80
       1.1745211e-38 -9.799807e-39 1.4883323e-38 -1.40759e-40
0002d0 16 9c 9b 00 bd 85 7e 00 c1 29 cf 00 25 c9 26 00
       1.4290495e-38 1.1619249e-38 1.9024926e-38 3.561906e-39
0002e0 97 4f 1c 00 70 47 1b 80 37 61 82 00 7b 27 80 00
       2.599945e-39 -2.505185e-39 1.1973489e-38 1.1769106e-38
0002f0 08 05 9b 80 11 28 a3 00 25 bb b6 00 48 82 a5 80
       -1.4236307e-38 1.4983559e-38 1.6781195e-38 -1.5199593e-38
000300 15 70 59 00 40 5d 35 80 18 21 23 00 ef 10 5c 00
       8.213567e-39 -4.900733e-39 3.226114e-39 8.45494e-39
000310 a5 b1 6a 00 b1 9b 96 00 21 3b ab 80 53 9e bc 00
       9.79829e-39 1.3831176e-38 -1.5725081e-38 1.732187e-38
000320 ce 22 23 80 12 44 13 00 14 a1 31 80 6f eb e6 80
       -3.226728e-39 1.769293e-39 -4.557723e-39 -2.1206622e-38
000330 24 e6 1a 80 32 b9 32 80 ed e2 7f 80 f8 cc 03 00
       -2.470282e-39 -4.65821e-39 -1.1744514e-38 3.49035e-40
000340 df 86 73 00 b6 93 29 80 70 b4 96 00 35 f9 2b 00
       1.0609465e-38 -3.818244e-39 1.3840053e-38 4.038325e-39
000350 d5 7c d3 80 58 ef a3 80 2f 87 91 80 2e 09 c4 80
       -1.9422071e-38 -1.5055046e-38 -1.3364642e-38 -1.800305e-38
000360 90 42 06 00 f6 a1 4b 80 45 e9 22 80 8f a4 6e 80
       5.74891e-40 -6.945763e-39 -3.206088e-39 -1.0160937e-38
000370 f5 13 b4 00 e8 00 7c 00 d8 e8 86 00 ed 4e 89 00
       1.6537549e-38 1.1387927e-38 1.2389485e-38 1.2609776e-38
000380 fe 10 3c 80 69 2f b0 80 39 99 98 80 db 18 23 00
       -5.516225e-39 -1.6180055e-38 -1.4013961e-38 3.223159e-39
000390 77 06 19 80 c7 2d 92 01 a3 85 c2 80 24 14 51 80
       -2.298207e-39 5.3697617e-38 -1.7864026e-38 -7.4459e-39
0003a0 95 03 a6 80 1b 89 bc 80 f2 82 47 80 6a e3 01 00
       -1.5245977e-38 -1.7314257e-38 -6.567295e-39 1.73416e-40
0003b0 38 ae 2c 01 06 eb 21 80 f4 fb 7c 00 e0 d1 c3 01
       3.1716407e-38 -3.114882e-39 1.1477985e-38 7.1932843e-38
0003c0 a2 a0 02 00 80 eb d2 80 52 ad 0b 00 92 04 09 80
       2.41295e-40 -1.9369936e-38 1.072366e-39 -8.28159e-40
0003d0 0b b1 6e 80 88 4f 22 80 b0 b6 50 80 aa 48 a9 00
       -1.0165416e-38 -3.150937e-39 -7.412376e-39 1.5546266e-38
0003e0 f4 d0 25 80 0a 75 96 80 d3 82 ad 80 51 97 cf 00
       -3.472872e-39 -1.381731e-38 -1.5934472e-38 1.906423e-38
0003f0 b8 32 d7 80 c4 70 13 00 01 4a 46 80 69 9b 30 80
       -1.9762826e-38 1.785327e-39 -6.455032e-39 -4.463854e-39
