final_models/LSTM_last_visits_AdmDemo.pt (torch, 705501 bytes, 33 tensors)

weight_ih_l0 f4 [256, 45]
000000 eb ec 7b bc 39 56 af bb 74 8b df bc 70 81 85 3b
       -0.01537631 -0.0053508547 -0.027288176 0.004074268
000010 82 12 16 3a e4 22 ae bc 4e e1 03 bb 59 30 d9 bb
       0.0005724804 -0.021256872 -0.0020123306 -0.006628078
000020 80 dd 17 bc d3 bc 5f bc d0 76 69 bb c3 c1 17 bc
       -0.009269118 -0.013655859 -0.0035623796 -0.009262505
000030 34 87 05 bb 9c 9f 14 bc aa 82 75 3b 37 b6 cd bb
       -0.0020374777 -0.009071257 0.0037461915 -0.006277825
000040 53 20 51 3b e0 31 c1 bc e4 89 f2 39 5d 06 f3 bb
       0.0031910136 -0.023583353 0.00046260573 -0.00741653
000050 86 ac a2 3a 89 cf e2 b9 f7 99 f2 b9 e3 36 53 bb
       0.0012411035 -0.00043260705 -0.0004627255 -0.003222876
000060 1e 68 89 bb 19 d4 b9 3a 71 c0 f0 38 c7 8e 45 bc
       -0.00419332 0.001417759 0.00011479937 -0.012057967
000070 a4 5e b3 38 60 65 55 39 32 5c 91 ba 78 7b 90 3a
       8.553013e-05 0.00020351028 -0.0011090098 0.0011023125
000080 a0 9a a4 ba 6c 9f 8c bb 9e 66 75 3a 5f c5 d3 ba
       -0.0012558289 -0.0042914655 0.00093612995 -0.0016156844
000090 d6 7b f7 36 8c 1d 83 3b fd f4 15 3b d9 35 2d 3a
       7.37559e-06 0.004001325 0.002288162 0.000660745
0000a0 34 2a 35 bb 43 42 8f 3b 31 80 89 bb 2d 30 2a 3b
       -0.0027643563 0.0043719127 -0.00419619 0.0025968656
0000b0 2e 79 11 ba 93 d6 d5 3c c0 ed aa 3c c0 d1 30 3d
       -0.0005549368 0.026103294 0.020865321 0.043168783
0000c0 42 db c9 3c fe ce c6 3c 05 ed 54 bc 9d 0e 60 bc
       0.024640683 0.024268623 -0.012995963 -0.013675359
0000d0 e5 6e 99 bc dc e5 46 3c 85 fc 9e 3d 3a 1c e6 bb
       -0.018729636 0.012139764 0.07763008 -0.007022408
0000e0 18 17 3d 3d 32 af ce 3b 5b e3 b1 3c 5c d8 83 38
       0.046164602 0.006307506 0.021714857 6.286867e-05
0000f0 4a d4 ea bb b2 ae f1 b8 22 33 d9 3d c8 2a 92 bc
       -0.00716642 -0.00011524315 0.10605456 -0.017842665
000100 f5 7b 1f 3d 44 82 73 3c c8 60 db bb fe 22 0e 3b
       0.038936574 0.014862601 -0.006694887 0.0021688337
000110 2d ae d3 bc cf 0f 3d bc 3c f4 c6 3c 0c 97 d4 3b
       -0.02583989 -0.011539414 0.024286382 0.0064877328
000120 60 61 57 bd da 77 70 3b 6c 08 1e bb b3 0d a3 3c
       -0.0525831 0.003669253 -0.0024113907 0.019903993
000130 40 4e fe bb ad f8 7c 3c ac 4c cd bb cf d4 b3 3b
       -0.007760793 0.015440148 -0.0062652435 0.0054880152
000140 e2 47 53 bc 86 96 5b 3b a0 da 33 3d 0f 01 f1 3b
       -0.012895556 0.0033506467 0.04390967 0.0073548625
000150 98 d0 cd 3c 07 00 3c bc 0b 87 13 3c d4 99 94 bc
       0.02512388 -0.011474616 0.009004365 -0.018139757
000160 0a 17 a2 3b 5d 43 78 3b 61 c3 9c bd f6 e9 4a bc
       0.004946594 0.0037881949 -0.07654453 -0.012384882
000170 1f 73 aa bb b6 be 8f 3d 99 2e 07 bd 0c fe 8f bd
       -0.005201712 0.07018797 -0.033003423 -0.070308775
000180 fa 07 2a bc e7 c8 80 3c 9e fc ac 3d e9 07 f2 3d
       -0.010377878 0.015720798 0.084466204 0.11817915
000190 2c 80 a2 3c 1e c9 de 3d 26 67 0e 3d 81 3c 63 3d
       0.019836508 0.10878204 0.03476634 0.055477623
0001a0 0a 78 68 3d c9 51 7b 3b bd 49 18 bc 32 16 0a 3e
       0.056755103 0.0038348308 -0.009294924 0.1348503
0001b0 0e 10 a9 3c 5b 1e 27 bd c2 10 65 3c 35 33 9d 3a
       0.020637538 -0.040800434 0.013981046 0.001199341
0001c0 cc 6e 70 bd 6e 6b 00 3c 28 e3 27 bd 27 79 92 3d
       -0.058699414 0.007838113 -0.040988117 0.07152014
0001d0 c1 ee ee 3a 81 b0 b7 bc 03 ae ae 3a 47 a6 9c 38
       0.0018229113 -0.02242303 0.0013327006 7.469631e-05
0001e0 2d d1 12 3c ab c2 fb bb c2 97 c4 3d 65 93 75 3c
       0.008961004 -0.0076831183 0.09599258 0.014988755
0001f0 b6 04 9f bb fa d7 c8 3c 1e 37 17 3c 7b 46 b2 3d
       -0.0048528565 0.024517048 0.00922945 0.08704849
000200 6d 10 ff 3a e4 0f 89 3d a2 f8 df bb 56 11 08 3c
       0.0019459851 0.06692484 -0.0068350593 0.008304914
000210 0b fa 84 3b e1 11 92 bb ed bb cf bc 3a 53 04 bd
       0.0040581278 -0.0044576977 -0.025358165 -0.032305934
000220 fa 08 bb bd 4c f1 21 bd bb 05 c4 bd 47 58 9b 3d
       -0.091325715 -0.03953676 -0.095714055 0.07585197
000230 ed 1b d9 bc 6e 50 91 bc 96 d2 f1 bc 91 23 c6 3d
       -0.026502574 -0.017738547 -0.02951936 0.096747525
000240 41 ae d4 bc 0a 46 03 bc 5e 6a 2d bd b4 37 cc 3c
       -0.025961997 -0.008012304 -0.042337768 0.024928905
000250 b1 09 06 3e a8 47 50 3d 06 7d 3e bc 53 0b d5 3c
       0.13089634 0.050849587 -0.011626488 0.026006376
000260 e8 74 ca 3c e7 d9 a0 bc 08 95 86 3d a4 68 a7 bb
       0.024713948 -0.019635154 0.06571394 -0.0051089097
000270 d0 cc 24 bb 72 48 93 bd a4 aa 54 bd 8f 81 1b 3b
       -0.0025146492 -0.07191552 -0.051920548 0.0023728346
000280 f8 5c 34 3c 41 d6 6c 3c b6 f2 ec bc 1d 8b 09 3a
       0.011008494 0.014455379 -0.028924327 0.0005246865
000290 79 2b 98 bb f9 27 16 3c 78 6c 74 3c 94 e6 e3 3c
       -0.004643854 0.009164804 0.014918439 0.02781991
0002a0 9f f8 d0 bb ee 23 57 3c 82 83 12 3d 6d 7f 97 3c
       -0.006377294 0.013131125 0.035769947 0.018493379
0002b0 ca df 5e 3c f1 0f 28 bc 1f f1 6d 3d f8 f3 22 3a
       0.01360316 -0.010257707 0.05809128 0.0006216164
0002c0 e9 9a bd 3c 9f ce cc ba a4 a2 a2 bc d2 33 a9 3b
       0.023145156 -0.0015625543 -0.019852944 0.005163648
0002d0 16 f9 a8 bd c0 ba cb bd 10 5c b3 bd c1 04 e2 bc
       -0.08250634 -0.09947729 -0.08757794 -0.027590157
0002e0 a1 81 15 bd 0e 66 11 bb 38 c2 16 3c d2 9b 04 3c
       -0.036500577 -0.0022186073 0.009201579 0.008093791
0002f0 9f 21 7e 3d 02 4a 75 3d a8 34 26 3a 3c 19 5b 3d
       0.062043782 0.059885032 0.0006340244 0.053490862
000300 c8 ae e5 ba ca ad 9e 3d 3c ed 12 bd 9e 4b 8d 3c
       -0.0017523402 0.077479914 -0.035870776 0.017247971
000310 1c 95 50 3c 4b 40 a3 3d e2 d5 28 3a f6 86 45 bd
       0.012730863 0.07971247 0.00064405624 -0.048224412
000320 af 4b c3 3b 66 31 94 3c 93 9d 83 bb c1 d0 ca ba
       0.00595995 0.018089961 -0.004016587 -0.001547359
000330 4b 19 9f bc 98 49 b3 3c e4 62 2b bc c4 aa 4c bc
       -0.01942124 0.021885678 -0.010460589 -0.012491886
000340 75 42 bf 3b 17 32 fe 3b 1d 50 2a bc 5c ce 35 bc
       0.0058367797 0.007757436 -0.010395077 -0.011096563
000350 b4 25 04 3d 1f d9 db 3c 2d 94 71 3c a7 66 25 3d
       0.03226252 0.02683693 0.0147448005 0.0403811
000360 c9 bc e0 3c 39 ba cf ba 42 d6 97 3c 6a 0a 4b bb
       0.02743377 -0.0015848345 0.018534783 -0.003098155
000370 9e 95 64 3c e5 30 d7 bc a0 9c 49 3b ad d6 9e 3c
       0.013951687 -0.026268432 0.0030763522 0.019389475
000380 ad e0 ba bc 4f 76 a4 bd 58 ce 85 3d e6 c2 cd bb
       -0.022812212 -0.08030378 0.065334976 -0.006279337
000390 f2 3a ae 3b c6 c5 74 bb 1d 94 ee 3c 91 7c ec ba
       0.0053170854 -0.0037349327 0.02912336 -0.0018042495
0003a0 a7 88 13 3a ff b2 d4 3c 02 72 18 3e 2f ff 22 ba
       0.0005627968 0.025964258 0.1488724 -0.0006217835
0003b0 ea 95 b7 3d 7c a7 e9 3c 21 d6 58 3d 54 02 a5 3c
       0.08964141 0.028522246 0.052938584 0.020142712
0003c0 29 6d 71 ba 7a d5 2c 3d 04 37 41 3d 70 d0 ff bb
       -0.00092096865 0.042195775 0.047171608 -0.00780683
0003d0 12 f9 ee bb 2c 9a ce bb fa ed c6 3c a3 82 6d bd
       -0.007292875 -0.006305 0.024283398 -0.057985913
0003e0 17 83 14 bb d5 5b 0b bd 8a 0d 26 3d 86 6d a0 3c
       -0.0022661143 -0.034023125 0.040540256 0.019583475
0003f0 e9 8e 22 bc c8 c7 96 3c 29 90 25 3c 8b ad d0 3c
       -0.009921768 0.01840581 0.010105171 0.025473377

weight_hh_l0 f4 [256, 64]
000000 01 21 b4 39 1b df 19 bb 3d 52 53 ba 82 cb de ba
       0.00034356865 -0.0023478928 -0.00080612657 -0.0016997906
000010 4d 5d a6 38 4b b9 f0 3b 22 a3 b5 3b 12 38 2e bb
       7.9328755e-05 0.0073463074 0.0055431286 -0.0026583713
000020 5c 6d 00 bb f6 ea 75 3b 3a bb 17 39 6a 7a 29 39
       -0.0019596433 0.003752408 0.0001447023 0.00016162699
000030 e0 e9 9c bb 7a d9 1e 3b bd 59 94 3a d4 6d 0e bb
       -0.0047886223 0.0024238513 0.0011318248 -0.0021732943
000040 43 2a 33 3a 08 6b bc 3a aa 5f 23 39 33 b4 28 3b
       0.00068346056 0.001437516 0.00015580529 0.0025742173
000050 24 7e e2 ba 2d 50 01 3c e7 d0 fc ba ad 0a 39 bb
       -0.0017280024 0.007892651 -0.0019288332 -0.0028235123
000060 db cc 02 3c a2 10 75 3b 8e a5 4c 3b 6f 51 72 bb
       0.007983412 0.0037393947 0.0031226608 -0.0036974808
000070 78 8c 23 ba a4 7b 8e bb 5b 02 00 3b 74 30 ec 39
       -0.0006238888 -0.004348235 0.0019532654 0.00045049528
000080 46 4a a4 bb 5c 49 59 bb 59 b7 0d ba e5 a5 1a 39
       -0.005013737 -0.0033155298 -0.0005406044 0.00014748385
000090 5c 42 00 3a 1c 75 5c 3a 6e 24 b0 ba 03 cc 0e 3b
       0.0004892701 0.00084097846 -0.0013438591 0.002178908
0000a0 a4 6f f0 3a 45 49 37 3a a0 2a ea 3a 9e 23 0e bb
       0.0018343818 0.0006991814 0.0017865486 -0.002168871
0000b0 70 ed c1 3a 89 99 d2 ba eb 47 1b bb 51 f8 83 3a
       0.0014795493 -0.0016067486 -0.002369399 0.0010068511
0000c0 cb 94 0b 3b 19 f2 d9 3a 44 03 b9 ba 50 69 4d 3a
       0.0021298404 0.0016627937 -0.0014115353 0.0007835822
0000d0 18 75 47 ba aa 36 5a bb 08 aa d1 b9 2b f2 d1 bb
       -0.0007608696 -0.0033296742 -0.0003999027 -0.0064070425
0000e0 4c 5f a5 39 a7 97 c9 ba 0a 70 69 39 c8 d5 ee 37
       0.00031542254 -0.0015380279 0.0002226235 2.847136e-05
0000f0 8a ac 0b 3a 01 30 62 bb 7d ff 1e bb 98 f9 91 ba
       0.00053281395 -0.0034513476 -0.002426117 -0.0011137007
000100 a5 d9 1a bb f6 7b a6 bb 8c ed 8e bc 35 08 19 3c
       -0.0023628261 -0.0050806953 -0.017447256 0.009340336
000110 7e 46 9f 3c bb ae 92 3b b1 bd 22 3c 83 40 84 3c
       0.019442793 0.004476396 0.009932921 0.016144043
000120 ba e6 0f 3c fa 52 9f 3b 9c 12 98 bc 2a 2f 9a b9
       0.008783037 0.0048621865 -0.018563561 -0.0002940831
000130 a2 c1 29 bc 2b ce 52 3b c7 c7 7d 3c 4b 8c c5 3c
       -0.010361107 0.0032166343 0.015489525 0.024114748
000140 fb 15 2b ba 7b b3 ba bc 66 e7 81 bc 82 c3 03 bd
       -0.00065264077 -0.022790661 -0.01585741 -0.032168873
000150 04 97 a8 3b 5b 49 dd 3c d7 66 15 bb 64 9d 9a bb
       0.0051449556 0.027012518 -0.0022796893 -0.0047184695
000160 58 ed 9f 3b a8 38 20 3a 6f ab f8 3c 9f 51 75 bb
       0.0048805885 0.0006111958 0.030355183 -0.0037432683
000170 f4 7d b6 bb 00 77 ed 3b 96 36 53 3c fb 05 7a 3a
       -0.005569214 0.007246852 0.012891432 0.00095376343
000180 a8 e6 21 3c 2d 15 30 bd e7 1e 49 bc 61 95 0e bb
       0.009881653 -0.042988945 -0.012275434 -0.0021756517
000190 db dd 99 ba 7a 5a 55 3b da eb d5 bb 8d 75 12 3c
       -0.0011739092 0.003255515 -0.00652836 0.008939159
0001a0 3f 7b 09 3d fe c5 c3 bb 48 35 24 bc 1e 14 ff 3a
       0.033564802 -0.0059745302 -0.010022469 0.0019460951
0001b0 ed 1f 03 3c 9e 69 c2 bb 90 a7 ba bc e9 ab e0 3c
       0.008003217 -0.0059330007 -0.022784978 0.027425723
0001c0 b9 97 81 3b 32 db a8 bb df 3b 1a bc 60 e8 39 bc
       0.0039548543 -0.0051530832 -0.009413688 -0.011346906
0001d0 c3 62 90 bb ef 95 00 3c b8 cb d8 ba a6 bd bc b9
       -0.0044063046 0.007848247 -0.0016540205 -0.00035999453
0001e0 95 ac 89 3c f7 02 b1 3b 39 f3 bd 3c 75 a1 58 bb
       0.016805926 0.0054019648 0.023187267 -0.003305522
0001f0 c0 ee 0f 3c b1 ce d0 ba 9a 9f 56 bb ad a8 c9 bb
       0.00878495 -0.001593074 -0.0032748939 -0.006154141
000200 65 a3 b4 bb 55 be 92 3c 0e 17 76 3c 10 4a b2 bc
       -0.005512642 0.017913023 0.015020145 -0.021763831
000210 2d df c2 3c af 3c b6 bc 31 cc 08 3d 24 31 87 3d
       0.02378806 -0.022245733 0.033397857 0.0660117
000220 88 21 70 3c 47 e1 c1 3c a5 31 24 bd 62 66 2d bd
       0.014656432 0.02366699 -0.040086407 -0.042333968
000230 85 c1 27 3c a8 7b 05 3d 98 38 ba 3c 49 38 b2 3c
       0.01023901 0.03258863 0.022732064 0.021755354
000240 7b b3 4b bc 0f 34 59 ba b2 ae 00 3d 4d 71 2d bd
       -0.012432928 -0.00082856504 0.031416602 -0.04234438
000250 8d 38 24 bd 5f 45 da bc 98 97 2f 3d a5 fd 92 bc
       -0.040092994 -0.026644407 0.04286918 -0.017943213
000260 b3 9c 07 bd 75 9b 10 3d 3e c5 56 3d 47 9e 3e bc
       -0.033108424 0.035304505 0.0524342 -0.011634416
000270 18 e5 bd bb 1d a4 e9 3c 19 e1 33 3d a5 5e 26 bb
       -0.0057951324 0.028520638 0.04391584 -0.0025386002
000280 ff 2f da 3c 00 02 b2 bc c7 27 de bc ad 0c 3a 3b
       0.026634214 -0.02172947 -0.027118577 0.0028388903
000290 67 42 36 3c 9f a6 97 3c 15 f5 58 bc a2 60 59 3c
       0.01112423 0.018512068 -0.013242026 0.013267668
0002a0 9d 65 ee 3c 76 51 15 3c 2c c4 ff ba 8b cc 1c bc
       0.029101187 0.00911366 -0.001951342 -0.009570251
0002b0 70 92 50 3d d4 7c 17 bc 40 cb 1a bd 8f 4c e5 3b
       0.050920904 -0.00924607 -0.03779149 0.006997652
0002c0 0b ea 9a 3c bc 7c c1 3b db c9 0e bc 2f ad a5 bc
       0.018910429 0.005904762 -0.008715118 -0.020224182
0002d0 55 62 ff bb dd e4 28 bd 48 16 15 ba ad b6 0c bc
       -0.0077937045 -0.041233886 -0.0005687219 -0.008588475
0002e0 20 d9 05 bb 5e 53 ae bc 7f f1 2c 3d 82 0d 46 3c
       -0.0020423606 -0.021279987 0.042222496 0.012088181
0002f0 47 11 e1 3b 25 9f c0 3c c2 25 7c 3c 8b 65 52 bc
       0.0068685147 0.023513386 0.015389862 -0.012841593
000300 f0 82 d6 3a 87 83 12 3d 9d fd ce 3c 8d 9f d4 bb
       0.0016365927 0.035769965 0.025267417 -0.0064887465
000310 8f 04 04 bc 69 4c 60 bd 93 b9 91 3b 85 93 3e bb
       -0.0080577275 -0.05476037 0.004447171 -0.0029079628
000320 0a e0 03 3c 18 38 63 3c c5 83 17 bd a6 81 ca bb
       0.008049021 0.013868354 -0.0369909 -0.006180006
000330 17 8b a6 ba 6b da 9a bc e5 1b 9f bc 40 84 70 3b
       -0.0012706247 -0.018902978 -0.01942248 0.003669992
000340 41 88 dd bb d6 3f f4 ba 8b 73 ec 3c a1 77 cc bc
       -0.0067606275 -0.0018634747 0.028863689 -0.024959387
000350 98 76 0a ba 14 c1 56 bd 8b 30 68 3c 1c f4 a7 bb
       -0.0005281954 -0.052430227 0.01417173 -0.0051255357
000360 0a 99 81 bd 9b 29 4b 3c a9 25 12 bd fd 21 96 3c
       -0.06328018 0.012400056 -0.035680447 0.018326754
000370 24 c9 a6 ba 89 3a e1 3c 1a 79 ff bc 6e 86 a6 bc
       -0.001272474 0.027493732 -0.031185675 -0.020327773
000380 97 d5 f4 3c 44 9b 4d bd 30 86 a4 3a 91 78 3c 3c
       0.029887004 -0.0501969 0.0012552198 0.011503355
000390 e0 73 85 3b e1 0c 7e bb 87 19 e4 3b 5c c2 2b bd
       0.0040726513 -0.0038765 0.006961051 -0.041933402
0003a0 30 e8 a6 3c d2 d4 62 bb 10 cc 79 bb c7 90 06 bc
       0.020374388 -0.0034611714 -0.0038116015 -0.008213229
0003b0 23 12 30 3b dc 2c 20 3c 61 75 73 3a 18 06 07 bd
       0.002686628 0.00977632 0.0009287205 -0.032964796
0003c0 12 5b 37 bc fb f6 71 bb 6e f5 62 3c ac 89 0c bd
       -0.011191146 -0.0036920893 0.01385246 -0.03431098
0003d0 6d 1e 39 3c cf cf 6c bc c8 f7 3c 3c 0c 9b f1 bb
       0.011298758 -0.014453842 0.011533685 -0.0073732194
0003e0 9e 76 40 bd 10 46 db bc df b0 15 3d ba 15 91 3c
       -0.046988122 -0.026766807 0.03654563 0.017710555
0003f0 0d 67 e9 bc ba 75 d0 3c c0 bd 04 3d a9 36 12 3b
       -0.028491521 0.025446761 0.032407522 0.0022310412

bias_ih_l0 f4 [256]
000000 2c 9d b9 bc b2 aa f0 3d f9 de 17 3e 89 fc 8d 3d
       -0.022657953 0.117513075 0.14831151 0.06932933
000010 64 51 07 3e 85 91 df 3d d7 d9 3e 3e 6a d0 fa 3d
       0.13214642 0.109164275 0.18637787 0.12246783
000020 44 82 02 3d 50 c4 a0 bb d1 cc 9a 3d 40 92 11 3e
       0.031862512 -0.004906215 0.07558597 0.14215946
000030 e5 27 e8 bb bd 76 7a 3e 1b 0d 8c 3d 64 ca 2b 3e
       -0.007084834 0.24459358 0.06838437 0.16776425
000040 36 ea 51 bc 58 0e da 3d 70 0b 35 3e 0d b2 6f 3e
       -0.012812188 0.10647267 0.17680144 0.23407765
000050 fc 94 3a 3e 89 e5 9e 3d c7 e5 8f 3d 9a 48 40 3c
       0.18220896 0.07758624 0.070262484 0.01173606
000060 e0 82 8a 3e 01 15 da 3b 52 e2 84 3e b7 c2 3d 3d
       0.27052975 0.006655336 0.2595392 0.046328273
000070 d4 6e df bc 28 c0 90 3d 2b ce 94 3e d6 05 1c 3e
       -0.027274527 0.07067901 0.29063544 0.15236601
000080 fb 5b 18 3e 52 37 77 3e 59 b8 3b 3e 55 67 db 3c
       0.14878838 0.24142197 0.18332042 0.026782671
000090 eb 57 44 3b a1 4f be 3d 57 b6 75 3d 9d 5f 7b 3e
       0.002995963 0.09292532 0.059988346 0.24548192
0000a0 e1 c0 a1 3c 1a 7f 13 3d 5b 06 33 3d 1b ea 9f bc
       0.019745292 0.036009885 0.043707233 -0.01952081
0000b0 4a 1c 68 3e 0e e9 9a 3b 36 10 d7 3d a3 e7 25 3d
       0.22667041 0.0047274893 0.10501139 0.04050411
0000c0 d0 d7 a0 3d 67 ec e3 bb c4 cf 08 3e a6 c6 d5 bc
       0.07853663 -0.0069556716 0.13360506 -0.0260957
0000d0 49 82 b8 3a 1c 95 e0 3d 89 81 e9 3c 42 3d 46 3d
       0.0014076914 0.1096594 0.02850415 0.048398264
0000e0 9c 21 4e 3e 5d 3c 2d 3e ab 10 46 3d 5e b4 e0 3c
       0.20130008 0.16917558 0.04835574 0.027429756
0000f0 bd 27 12 3e d2 21 5e 3d 07 28 f3 3d c6 ef a5 3c
       0.14272971 0.054231472 0.11872869 0.020255934
000100 c6 2c 61 bc 6e 7d 32 3d e7 f3 f5 3d fc eb a0 3d
       -0.013743585 0.04357665 0.12009411 0.078575104
000110 82 49 68 bd ba bd d6 3d dc 01 a6 bd 7f 6b 3e 3d
       -0.056710728 0.10485406 -0.081058234 0.046489235
000120 9b d2 7c bc 9c f1 1d bb 03 f9 8d 3c b1 e1 75 3d
       -0.015431072 -0.002410031 0.017330652 0.06002969
000130 a9 08 0f 3c 3e e9 a6 bc 48 22 05 3d 9f 70 0d 3d
       0.008730092 -0.02037489 0.032503396 0.034531232
000140 8b 28 a6 bc e1 dc c0 3b 36 b6 89 3d fb 40 6f 3d
       -0.020283004 0.005885706 0.06724207 0.05841158
000150 80 f6 86 3c 96 3a 27 3e 51 1a 98 3c 09 3c 8c bc
       0.016474962 0.16330943 0.018567236 -0.01711847
000160 a1 78 2e bb 0d db a7 bc 6e 8a d2 3c b7 de 15 3d
       -0.0026622193 -0.020490194 0.025700774 0.03658935
000170 a1 03 9f bc 6e d7 59 3d 10 f7 a1 3c a3 ef 83 3c
       -0.01941091 0.053183965 0.019771129 0.016105479
000180 9b d0 19 3d e6 b2 cf bb 50 aa 80 3d d1 59 28 bc
       0.037552457 -0.006338465 0.062824845 -0.01027532
000190 a9 ee 66 3b 78 3e 9d bc 9e 89 b1 3c 29 52 40 3b
       0.0035237467 -0.019194826 0.021672066 0.0029345846
0001a0 43 22 80 3c a6 e0 ea bc 26 eb c8 3b 72 39 28 bc
       0.015641337 -0.028671574 0.0061315475 -0.010267602
0001b0 2f 47 96 bc 19 76 f1 bc 4f bf 56 3d 66 a3 85 3d
       -0.01834449 -0.029475259 0.05242854 0.065253064
0001c0 18 6f ff bb 68 34 02 bc 28 d1 4a bc 47 5a 04 bc
       -0.007795226 -0.007947065 -0.012378968 -0.008078164
0001d0 31 e4 db bb e9 4c 80 3d c9 4d 43 bc 61 1f e9 bb
       -0.006710552 0.062646694 -0.011920401 -0.0071143364
0001e0 8a 73 1f 3e 68 65 fe 3d 20 34 46 3d 44 40 10 bd
       0.15571418 0.124216855 0.048389554 -0.03521754
0001f0 03 d4 0a bd 0c b6 97 bc 75 da 1f 3d b9 ac 19 bc
       -0.033893596 -0.018519424 0.039026696 -0.009379559
000200 51 6a 09 3d de 93 e2 3d 70 a4 72 3d c5 25 e8 3c
       0.033548657 0.1106336 0.05923885 0.028338322
000210 a2 a5 90 3d 55 c5 4b 3e 96 ca 6c 3c 60 02 14 3d
       0.07062842 0.19899495 0.014452597 0.036135077
000220 a2 ee ae bb ab 0e 91 ba bc 5d 8f bd ee c7 7f bd
       -0.005338506 -0.0011066993 -0.070003 -0.062446527
000230 9e ec c5 3c 3d ce 8f 3d 8d 73 4a bd c1 b5 06 3d
       0.02416068 0.07021759 -0.049426604 0.032888178
000240 b7 a1 33 bd 13 24 ce 3c e4 31 27 bc 52 5c d8 3d
       -0.043855395 0.025163686 -0.010204766 0.10564484
000250 f2 89 72 bc 1e cc 0c 3e a7 79 8e 3d d2 5f f0 ba
       -0.014803397 0.1374974 0.06956797 -0.0018339104
000260 d2 6b bc 3d 9f 26 e9 bc 2e 4a 20 3e 9a a6 08 3d
       0.092002526 -0.028460799 0.15653297 0.03336201
000270 d0 9b eb 3c cc 9f b1 3d 62 cc f1 3d 35 70 40 3c
       0.02876082 0.08673057 0.11806561 0.011745502
000280 76 6e dd 3d 15 48 0f 3e 00 84 55 3d ce 63 21 bb
       0.108120844 0.13992341 0.052127838 -0.0024626139
000290 bb a7 0f bd ac 70 55 3b 85 2b 8f 3d c0 f3 7b 3d
       -0.03507207 0.0032568378 0.069907226 0.061511755
0002a0 f6 c3 a6 3d 0c 70 51 3d 54 df 20 bc 2a 6b bf bc
       0.08142845 0.051132247 -0.009818871 -0.02336653
0002b0 ba 8f b6 3d 73 4c af bc 29 42 b3 3d a9 d7 c8 3d
       0.089141324 -0.021398759 0.087528534 0.09806759
0002c0 cf 0b 08 bd cb 2c cb 3c fa f7 18 3d ad cb 8f bd
       -0.033214387 0.024801632 0.037345864 -0.0702127
0002d0 af 90 ba 3d 83 e2 43 3d d3 e8 8e bd 61 c6 d1 bc
       0.091096275 0.04782344 -0.069780014 -0.02560729
0002e0 c1 89 bb 3b 7a fc 7a 3d 93 bd 4c bc 38 e3 6e b9
       0.0057232087 0.061275937 -0.01249637 -0.00022782094
0002f0 b3 8f 64 bc d2 6d 83 3c 2a d2 ca 3d 59 f6 7f 3d
       -0.013950276 0.016043577 0.09903367 0.062490795
000300 b3 1c 3f bc 4a ad 85 3d b4 98 13 3e 3a 4a 89 3d
       -0.011664557 0.06527193 0.1441372 0.06703611
000310 78 3c 0b 3e ae af 0d 3e 70 33 53 3e 59 19 7b 3e
       0.13597286 0.13836548 0.2062509 0.24521388
000320 78 1f fe 3c da 70 06 bc 77 3e 91 3d 99 cc 13 3e
       0.031020865 -0.008205617 0.07091992 0.14433517
000330 d3 cb f7 bb ce a2 57 3e 79 6e ed 3d 63 16 85 3e
       -0.0075621395 0.21058199 0.115933366 0.25993642
000340 8f 2d 57 bc 38 a1 b6 3d 2f b0 b4 3d e1 6e 90 3e
       -0.013133421 0.08917469 0.08822667 0.28209594
000350 70 90 2b 3e ba a9 04 3e e7 ba 2e 3d 2a 30 2b 3c
       0.16754317 0.1295537 0.042658713 0.010448495
000360 06 c9 9f 3e 21 8a a6 3c a1 b8 4f 3e 90 4b bd bc
       0.31208056 0.020329537 0.20285274 -0.02310732
000370 1b dc 35 bd a0 e2 81 3d e6 ef 89 3e d9 26 c9 3d
       -0.044399362 0.063420534 0.2694084 0.09821863
000380 68 81 1d 3d 47 88 74 3e 0d d0 e8 3d e9 e1 bb 3b
       0.03845349 0.2388011 0.113678075 0.0057337177
000390 5e 59 43 3b c5 c1 d9 3d 72 cd 05 3d ad 59 72 3e
       0.0029807906 0.10632662 0.03266663 0.23667021
0003a0 02 25 3c 3c 08 0c b3 3c a6 83 9b 3c 5a 1e a4 bc
       0.011483433 0.021856323 0.018983673 -0.020034004
0003b0 eb 6d 69 3e 66 c8 94 bc 88 94 67 3d db ac 0d 3e
       0.22795837 -0.018161964 0.056538135 0.1383547
0003c0 aa 9d bb 3d a2 98 01 bc 96 50 b3 3d bc a1 c3 bb
       0.091609314 -0.007909926 0.08755605 -0.005970208
0003d0 1b 96 a4 bc 77 18 21 3e 68 2b f4 3c e4 cd 35 3d
       -0.020091107 0.15731989 0.029805854 0.044385806
0003e0 94 a2 8a 3e e4 5c 64 3e 36 91 57 3d 66 c5 35 3d
       0.27077162 0.2230106 0.05262872 0.044377707
0003f0 88 61 4e 3e a6 03 b0 3d dc 6b 8a 3d 6b ff b7 3c
       0.20154393 0.08594446 0.06758854 0.02246066

bias_hh_l0 f4 [256]
000000 ce a2 a2 bc 19 1e 01 3e ce 07 21 3e 08 dc 8a 3d
       -0.019853022 0.12609138 0.15725634 0.06780249
000010 61 1a db 3d e6 06 dc 3d 85 38 42 3e ea cb f9 3d
       0.10698391 0.10743503 0.18966873 0.12197097
000020 63 de f7 3c 83 49 9d bb a7 a8 a3 3d c6 00 1d 3e
       0.03025741 -0.004800023 0.07991152 0.15332326
000030 40 9c ec bb 1a bc 77 3e 93 5b d5 3d 31 6d 11 3e
       -0.007220775 0.24192849 0.10417857 0.1420181
000040 3a 82 5a bc 8a 8d f5 3d 67 d1 3f 3e f8 4d 6f 3e
       -0.0133367125 0.11989887 0.18732224 0.23369586
000050 5f 91 34 3e 8f d1 1b 3d fb 54 eb 3c 44 7a 44 3c
       0.1763358 0.038041648 0.028727045 0.011992041
000060 0d 04 8d 3e d5 7a eb 3b f1 84 66 3e 3e 28 26 3d
       0.27542153 0.0071862736 0.2251165 0.04056572
000070 be 7c cc bc 6f 58 b8 3d 29 0e 6f 3e 85 ce 26 3e
       -0.024961825 0.09001242 0.23345245 0.16289718
000080 ab 02 d0 3d 32 bd 4b 3e 9a 92 13 3e 9d ca ef 3c
       0.10156759 0.19896391 0.14411393 0.029271418
000090 a4 ce 45 3b 70 a5 ae 3d a2 86 39 3d 24 be 79 3e
       0.0030182982 0.085276484 0.04529441 0.24388939
0000a0 d1 59 02 3d 49 23 1b 3d 16 94 17 3d 01 ea 9f bc
       0.031823937 0.037875447 0.03700646 -0.019520761
0000b0 1f 6d 68 3e f1 bc f2 3b a8 fa ae 3d d8 dc cd 3d
       0.22697876 0.0074077775 0.08543903 0.10051888
0000c0 92 be b3 3d 03 1d bd bb 54 f6 fb 3d 54 10 cd bc
       0.08776583 -0.0057712807 0.12302843 -0.0250322
0000d0 db 5d 99 3c 24 7b 05 3e 59 82 c1 3c 33 32 44 3d
       0.018721512 0.13035256 0.023621725 0.047899436
0000e0 68 a7 1d 3e ff 6f 39 3e a7 bf 5c 3d 39 04 08 3c
       0.15395892 0.1810913 0.05389371 0.008301788
0000f0 e6 de 25 3e 91 a4 7e 3d d9 13 0b 3e d5 81 3d bc
       0.1619831 0.06216866 0.1358179 -0.011566599
000100 ad 5d 25 bc 13 ad 76 bc 2b e2 a4 3d 18 58 bb 3d
       -0.010093135 -0.015055913 0.080509506 0.09147662
000110 3d 0d 35 bd 63 b8 06 3e 79 42 ae bd 09 e8 a4 3d
       -0.044202078 0.13156275 -0.085087724 0.0805207
000120 72 6d 76 bc 31 d8 1f bb 60 c7 23 3c ed 4c 94 3d
       -0.015040742 -0.0024390335 0.009996265 0.07241235
000130 47 3f 0e 3c 4e 4d d1 bc 0f 51 9d 3c 34 8e bf 3d
       0.008682079 -0.025549557 0.01920369 0.09353295
000140 c1 34 a6 bc 69 e8 82 bb 37 e0 75 3d f9 df 60 3d
       -0.020288827 -0.0039949906 0.06002828 0.054901097
000150 e5 be f0 3b 59 e3 14 3e 6f 6a 58 bc 8f 9f 8e bc
       0.007346975 0.14539851 -0.0132089695 -0.017410068
000160 65 70 a7 bb 1a b9 ef bc a9 8b 57 3d 71 f3 3e 3d
       -0.005109834 -0.029263068 0.052623425 0.046618883
000170 27 af b2 bc 9c d0 e2 3c 50 98 e0 3c 95 88 8e 3d
       -0.021812035 0.027687363 0.027416378 0.06959645
000180 39 ee d1 3d df 2a a3 bc ff 87 a6 3d 68 c9 ec bc
       0.102505155 -0.019917903 0.08131408 -0.028904632
000190 41 3d 67 3b bc 7a cb bc 0e 31 15 3c a7 34 db 3b
       0.0035284313 -0.024838798 0.009105934 0.0066896263
0001a0 b9 2a 22 3c 9d cd bf bc 3a 35 2d 3c 74 39 28 bc
       0.009897881 -0.023413474 0.010571772 -0.010267604
0001b0 59 9b 55 bc a4 6a 89 bc 41 6c 86 3d 1a 5b 89 3d
       -0.013037526 -0.016774483 0.065636165 0.06706829
0001c0 4e cf 12 bc 58 28 06 bc 44 e4 cb 3c f5 c3 f3 bb
       -0.008960558 -0.00818833 0.024889119 -0.0074391314
0001d0 c3 9d 09 bc fc 15 90 3d 0f 54 41 bc 2f a2 e9 bb
       -0.00839943 0.07035443 -0.011799826 -0.0071299295
0001e0 57 d3 99 3d e2 e8 42 3d de 78 2a 3d 92 43 73 bc
       0.07511013 0.047585376 0.041619174 -0.014847653
0001f0 f4 61 ba 3c 8b 97 25 bc b2 7f 09 3d 28 a5 1a 3d
       0.022751786 -0.010106931 0.033569045 0.03775516
000200 67 4e 4e 3c c1 76 be 3d 54 d9 bc bc be 9c 0d be
       0.012591935 0.09299994 -0.023052849 -0.13829324
000210 fa ed 33 3c ee ba 4b 3e b5 80 c0 3d 01 19 9e 3b
       0.010982031 0.19895527 0.09399549 0.004824758
000220 28 06 7e bd 6c bb 84 3d dc b0 a5 bd a5 4c 60 bd
       -0.06201759 0.064810604 -0.08090374 -0.054760594
000230 3d 41 85 3c bd ac 77 bc e4 01 93 3d 6e 8c 80 3d
       0.01626646 -0.015116868 0.07178095 0.06276785
000240 6b 58 98 bd 29 2e 8c 3c c9 73 bc 3d dd 14 34 bd
       -0.074387394 0.017111855 0.09201772 -0.04396521
000250 55 82 f9 bd 78 7b d6 3d 74 43 bf 3d c6 f1 5b 3c
       -0.12183062 0.104727685 0.093390375 0.0134243425
000260 4a 91 17 3e ff 8c 33 3d f9 82 f8 3d 2c 2c e3 3d
       0.14801517 0.043835636 0.12134356 0.110924095
000270 f8 0b 78 3d 4f 36 5e 3d 21 4b bb 3d af 64 1a bc
       0.06055829 0.05425101 0.09145189 -0.009423419
000280 49 49 b7 3d 56 3f 78 3d b1 98 43 3e 59 20 8b 3d
       0.08949525 0.060607277 0.19101216 0.06793279
000290 ea 51 42 3d 4a 39 bd 3d bd 71 fd 3c 2c 4b 20 3e
       0.0474414 0.09239443 0.030938024 0.15653676
0002a0 f9 0e 8c 3d 89 2e 1f bb ee 1e 88 bb 71 88 da ba
       0.06838793 -0.0024289212 -0.0041540777 -0.0016672743
0002b0 4e 1f e3 bb 4c 73 00 3d c2 57 ef 3d af c6 2d bd
       -0.006931222 0.031359956 0.1168666 -0.042425808
0002c0 33 fc 99 3d f6 b9 9a bc a0 37 3e 3d e7 4d 71 bb
       0.07518806 -0.018887501 0.046439767 -0.0036820115
0002d0 a6 cc 1d 3c bf 9b 9d bd f8 e7 61 bd 6b e1 71 bd
       0.0096313115 -0.07695722 -0.055152863 -0.059052866
0002e0 6d 64 ef 3d e5 91 a2 3b 01 91 94 3d 92 3c de 3c
       0.116890766 0.0049612396 0.0725422 0.027128492
0002f0 b7 fc b4 3d 79 76 7c 3d 65 b8 92 3d ef 9a 69 3d
       0.08837264 0.06163642 0.07164077 0.05703252
000300 dd 1c 5b bc 56 c2 42 3d 70 dd d6 3d a4 be c6 3d
       -0.013373581 0.047548614 0.104914546 0.097043306
000310 d3 38 cd 3d d0 83 18 3e 7a f0 39 3e 81 66 6b 3e
       0.10020604 0.14894032 0.18158141 0.22988321
000320 ce 4b ea 3c 96 88 06 bc ac d6 88 3d 72 48 03 3e
       0.0286006 -0.008211276 0.066815704 0.12820604
000330 60 7f f6 bb 53 10 5c 3e 34 d7 b0 3d 23 64 87 3e
       -0.0075225085 0.21490602 0.08634797 0.26443586
000340 f8 fd 6c bc 31 0c 9f 3d f9 7b 0f 3e c8 19 8b 3e
       -0.014464848 0.07765997 0.14012136 0.27168107
000350 49 f9 2c 3e 2d 93 8c 3d aa 82 5d bb 09 db 29 3c
       0.1689197 0.06864009 -0.0033799806 0.010367163
000360 2c c9 b1 3e 36 ce e7 3b f0 89 77 3e e1 b4 02 3d
       0.34723794 0.007074143 0.24173713 0.03191078
000370 69 5c 15 bd 04 23 85 3c 62 4b 91 3e ee c7 c3 3d
       -0.036465082 0.016252048 0.28377825 0.09559618
000380 a1 7e 09 3e fb 7b 8d 3e 55 d3 24 3e 4d 5b 73 3c
       0.13427211 0.27633652 0.16096242 0.014853311
000390 bc 35 40 3b e8 d5 d8 3d 93 6c 2c 3d 16 ad 80 3e
       0.0029328903 0.105876744 0.042095732 0.25132054
0003a0 46 3b 4d 3c 8e 45 e1 3c 78 1a 5d 3d 80 1e a4 bc
       0.012526339 0.027498987 0.05398032 -0.020034075
0003b0 d8 52 71 3e 90 ea 8a 3c cc 14 84 3d 87 6b d5 3d
       0.23566759 0.016957551 0.06449279 0.104209
0003c0 2c 83 bc 3d 15 8b 3b bc ce fc cc 3d 66 e7 1b bc
       0.092047065 -0.011446734 0.10009156 -0.009515619
0003d0 66 f5 4a 3b d0 ab a0 3d 3a dc 13 3c 5f ce 35 3d
       0.0030969023 0.07845271 0.009024674 0.044386264
0003e0 94 62 3e 3e 83 9f 32 3e 4d ee 4e 3d bb 04 be bb
       0.18592292 0.17443661 0.05052023 -0.0057989038
0003f0 4e b7 27 3e cb 93 af 3d 55 93 5c 3d a3 86 0f 3b
       0.16378519 0.08573111 0.053851444 0.0021900318

weight_ih_l0_reverse f4 [256, 45]
000000 83 d8 83 3d 82 f9 9e 3d 3c b3 85 3d 6c 7c 2c bd
       0.06437781 0.077624336 0.06528327 -0.042110845
000010 50 69 84 3c 86 4b 32 3d 9a 2e dd bb d8 d6 a6 3b
       0.016163498 0.043529056 -0.00674994 0.0050915293
000020 f5 16 08 3d 9e 67 be 3c df 04 90 bc 73 8b ab 3d
       0.03322502 0.023242768 -0.017580448 0.08376207
000030 fc cc 9f 3c 26 a1 d8 bc 70 10 c6 3c e3 89 b7 ba
       0.019506924 -0.026444029 0.02417776 -0.0014002885
000040 68 6b 66 ba e7 ee f1 3c e2 8f 2f bc bc 63 5b 3d
       -0.00087898085 0.029532863 -0.010715457 0.05356191
000050 e0 e8 b1 3b f3 98 86 bc 2f a5 26 bc 57 27 31 bd
       0.005429372 -0.016430354 -0.010171219 -0.043250408
000060 bc 4d 3b bc 70 30 e9 3c 56 9d 1c 3d 9d 95 3d bd
       -0.011432108 0.02846548 0.038235985 -0.04628526
000070 21 14 53 bb b8 4d ae bb 3e 45 fe 3b 12 7b b2 b9
       -0.0032208043 -0.0053193234 0.007759719 -0.000340425
000080 13 99 51 bc 3e 66 b1 bb 67 98 25 bc 5b a6 20 3c
       -0.012792843 -0.0054137995 -0.010107136 0.009805287
000090 98 02 3a 3b 26 09 aa 3d 17 32 4b bb cd da 73 bc
       0.0028382894 0.08302526 -0.0031005198 -0.014883709
0000a0 a7 05 be bc 0e 76 a2 bb 21 e2 39 bc 67 30 14 3c
       -0.023196055 -0.004957921 -0.011345417 0.009044743
0000b0 29 31 41 bb 18 02 7f 3d 51 d8 96 3c 91 fb 81 3d
       -0.0029478765 0.062257856 0.018413695 0.063468106
0000c0 fa 78 7c bc 36 96 91 3b fb 50 0d 3d e5 da c1 bc
       -0.015409702 0.0044429554 0.034501057 -0.023663947
0000d0 bd 29 4c 3c be d4 9b 3c 76 87 9a 3c f7 9a c5 bc
       0.012461123 0.019022342 0.018863421 -0.024121745
0000e0 03 b4 58 3d a3 a0 12 3d c6 45 0d bc ee 28 a8 3c
       0.052906048 0.035797726 -0.008622592 0.02052733
0000f0 3c b3 ca ba 7e 0e fd b8 e6 6a 7e 3d 49 7d 7e bc
       -0.0015464793 -0.000120666795 0.062113665 -0.0155328
000100 db 58 3a 3d 32 14 f5 ba e9 59 87 bc 76 0a 03 bb
       0.045494895 -0.0018698035 -0.016522365 -0.001999525
000110 12 58 02 bd 71 ed de 3b b1 2e 5f 3c b8 25 1b 3d
       -0.03182227 0.0068032076 0.013621972 0.03787777
000120 9f 01 81 bd af 5a 7d bb cc c0 a1 bb 4a 8a 24 3c
       -0.06299137 -0.0038658788 -0.0049363133 0.010042736
000130 d0 23 36 3b b2 45 3d bc 00 23 bf bb 86 c3 2a bc
       0.0027792342 -0.011552261 -0.0058330297 -0.010422593
000140 01 d2 0f 3b 56 f3 d0 3a de fd a1 3d ac b5 91 bb
       0.002194524 0.001594166 0.079097494 -0.004446706
000150 20 d1 26 3b 89 3b a5 bc fc 00 93 bb aa 02 56 bc
       0.0025454238 -0.02016999 -0.0044862013 -0.013062159
000160 5b 92 5d b9 7b 15 6a bb 7f 20 21 3e 94 06 a0 3d
       -0.00021130724 -0.003571837 0.15735053 0.07813755
000170 eb 11 79 3c 95 c4 9d 3d 3d 4d f2 3c 6c 4f c7 3d
       0.015202026 0.07703511 0.029577846 0.097319454
000180 f7 96 b8 bd 8e 71 4b 3d d2 77 01 3e a5 55 8e 3d
       -0.09013169 0.04966884 0.12643364 0.06949929
000190 bd 2c 26 bd 16 fb 1c 3e 57 ff 6e 3d 9b 4a 38 bc
       -0.04057001 0.15330157 0.05834898 -0.011248256
0001a0 dc b6 f7 3c f4 cf 22 3a bb 41 ee 3b e1 2e 0c 3e
       0.030238561 0.0006210797 0.0072710193 0.13689758
0001b0 7c 34 12 bd 96 4f 1a bc 5f d6 84 bb 82 14 01 bc
       -0.035694584 -0.009418389 -0.0040538753 -0.007878425
0001c0 97 59 56 3b 09 68 a5 bc 8e 14 5a 3d 32 c8 ad 3b
       0.0032707208 -0.02019121 0.05324226 0.005303406
0001d0 78 d9 5e 3d 9e af 70 bd 24 a9 33 bb dd d8 8f bb
       0.054406613 -0.05876123 -0.0027414048 -0.004389866
0001e0 cb c8 00 3d 39 a0 c9 bc 2c e3 84 bd 14 1d df ba
       0.03144149 -0.024612533 -0.06488642 -0.0017022216
0001f0 ae 32 74 bc 8d 58 80 3d 83 af c2 3c 07 ea 5c 3e
       -0.014904661 0.0626689 0.023765331 0.2157365
000200 9d f7 d0 bb 14 1d a2 3c c4 42 d5 bc c6 94 c3 bb
       -0.006377174 0.019789256 -0.026032813 -0.005968663
000210 a4 a0 7a bc 7b 16 8e bc c5 86 02 3c 89 8e f2 3c
       -0.015297089 -0.017344704 0.007966702 0.029608982
000220 31 3d 95 3d d2 32 00 3d c6 a6 54 3d 05 df 93 3c
       0.07287062 0.031298466 0.05191686 0.01805068
000230 7d 98 19 3d 66 2e 08 bc c5 63 67 3c b8 01 a9 3c
       0.03749894 -0.0083118435 0.014122908 0.020630702
000240 47 e0 03 3d be e2 99 bc 0e f2 8b 3d 4c 8e 1d 3c
       0.03219631 -0.018784877 0.06833278 0.009616446
000250 68 99 be bc 33 39 8b 3b b4 dc 79 ba 95 8f b1 bb
       -0.02326651 0.004248762 -0.00095314835 -0.0054187276
000260 8d e8 5a 3d 43 6d ea bb 13 0a eb 3c 8e 0a 2f 3c
       0.053444434 -0.0071541383 0.028691327 0.010683669
000270 24 e7 21 bc 00 79 ed bb 9c d2 0b bd df 13 7b bb
       -0.009881768 -0.0072470903 -0.0341364 -0.0038311405
000280 51 c6 89 3c 05 bb 06 3d cb 28 32 bd 69 e2 c8 ba
       0.016818197 0.0328932 -0.043495934 -0.0015326265
000290 7a 46 95 ba 1b b6 ed 3b d7 12 dc b9 a9 6f 86 bc
       -0.0011388802 0.0072543747 -0.00041975707 -0.016410666
0002a0 c5 cc 1e bb c9 21 05 bc 4d ed 37 3c 37 f3 8b 3b
       -0.002423094 -0.008125731 0.0112260105 0.004270937
0002b0 c4 b4 55 3d 12 4c c0 3a 68 da 6f bc 5d f6 a0 bc
       0.052174345 0.0014671108 -0.014639474 -0.019648725
0002c0 18 67 78 39 fe 09 4f bc 4f bb 63 3c 12 4a e6 ba
       0.00023689528 -0.01263666 0.013899638 -0.0017569682
0002d0 c4 44 f0 bc 82 9b c5 bc c9 c6 af bd d0 5d 5e bb
       -0.029329665 -0.024122003 -0.08582837 -0.0033930428
0002e0 ad b8 68 bc 1a fe 53 bc 1f 86 a6 bb 23 e1 8f 3b
       -0.014204186 -0.0129390005 -0.0050819064 0.004390852
0002f0 03 d0 08 bc 98 10 c4 bb 57 c9 ec 3b 37 94 2f bc
       -0.008350375 -0.0059834234 0.00722615 -0.0107164895
000300 92 a4 cf bb 30 a8 56 3b e6 3d 29 bb ed c3 47 3b
       -0.006336757 0.0032754056 -0.0025824248 0.003048177
000310 81 00 d0 bb fe 6e 58 bc 48 8a 5a b8 95 43 e3 bc
       -0.0063477163 -0.013210056 -5.2104035e-05 -0.027742187
000320 75 43 de bb f4 a2 e7 3a de 53 81 ba af 4a 8d b8
       -0.006782944 0.0017672465 -0.0009866913 -6.737315e-05
000330 75 76 7a 3b 66 f4 12 bb c7 49 c5 bb 98 54 9e 3c
       0.0038217579 -0.0022423505 -0.006020758 0.019327447
000340 81 1d 40 3a c4 7c db 39 53 ef ae 3a de 35 03 bb
       0.0007328615 0.00041863893 0.0013346471 -0.002002112
000350 a4 f0 98 b9 63 da 8c 3b 8f 6e 83 3b 7c 30 cd 3a
       -0.0002917099 0.0042984947 0.0040109823 0.0015654708
000360 93 bd e9 ba 12 17 d3 ba fd 8b e4 ba a8 d9 e9 3b
       -0.0017832987 -0.0016104898 -0.0017436739 0.0071365424
000370 c6 10 9d 3b 8d a5 64 bb da 44 3d 3a f1 ee ab b9
       0.0047932593 -0.0034888715 0.00072200375 -0.00032793687
000380 3f 1c 55 3a 35 1d 58 bb 10 3d 5e 3d f8 95 bf 3a
       0.0008129514 -0.0032976393 0.054257452 0.0014616838
000390 2b 39 f0 bb b7 79 57 3c a0 c8 d2 bb c6 4e 0e bb
       -0.0073310337 0.013151578 -0.006432608 -0.0021714433
0003a0 0f 48 dc 3a 1e d5 23 bb f4 e5 90 3c 28 b6 82 bc
       0.0016806143 -0.0024998854 0.017687775 -0.015956
0003b0 aa e4 95 3c 80 f5 65 3a 5a 51 29 b8 f0 01 1c bc
       0.018297512 0.0008772239 -4.0368504e-05 -0.009521946
0003c0 4c 6c a3 b8 f9 31 45 bb d0 a6 8e 3c 3e e7 2d 3b
       -7.7926175e-05 -0.00300896 0.017413527 0.0026535536
0003d0 ee 45 13 3d d8 94 3f bb 8d a5 0d bb 20 99 ab bc
       0.035955362 -0.0029233005 -0.0021613569 -0.02094704
0003e0 68 f1 21 bc 3a be 5a bb 02 a8 70 3c 24 e1 be 3c
       -0.009884216 -0.0033377544 0.014688494 0.023300715
0003f0 47 5c 0c bd c7 9c 9d b8 81 6d 19 b7 17 a9 42 3b
       -0.03426769 -7.5155454e-05 -9.1450065e-06 0.0029702836

weight_hh_l0_reverse f4 [256, 64]
000000 ea 81 4e 00 7b 3b 74 00 65 0a 74 00 36 a8 e5 00
       7.209773e-39 1.0674255e-38 1.0656646e-38 2.1090671e-38
000010 78 0a e4 80 c1 a7 48 00 12 82 0f 80 6b ac 2f 80
       -2.0942249e-38 6.672334e-39 -1.424193e-39 -4.37812e-39
000020 16 51 90 00 99 0d 2f 00 d8 84 48 80 46 f4 0f 00
       1.32534e-38 4.321146e-39 -6.659811e-39 1.465161e-39
000030 35 db 94 80 a0 e6 30 80 63 5f d0 00 66 28 6b 00
       -1.367029e-38 -4.490836e-39 1.9136002e-38 9.84089e-39
000040 4c b7 39 00 0e cb 59 80 53 ec b4 80 e8 10 23 80
       5.300378e-39 -8.246201e-39 -1.6615166e-38 -3.220307e-39
000050 ea fe 0f 00 80 46 57 80 4f a8 36 80 d3 03 26 80
       1.468978e-39 -8.014979e-39 -5.019495e-39 -3.491121e-39
000060 95 09 bc 80 47 5d d2 80 a0 20 94 81 ea f5 11 00
       -1.726851e-38 -1.9318916e-38 -5.441343e-38 1.649421e-39
000070 34 31 79 80 cc 18 3c 00 55 3a 77 80 f3 40 14 80
       -1.1129746e-38 5.519025e-39 -1.094935e-38 -1.86001e-39
000080 2a 88 65 00 8d 3a 39 00 a0 73 4f 80 af 63 6e 80
       9.324232e-39 5.255627e-39 -7.296483e-39 -1.0137664e-38
000090 0e 70 2d 80 30 2a 56 80 5c 4f 37 00 1c 6c 2d 80
       -4.172795e-39 -7.912987e-39 5.079421e-39 -4.17138e-39
0000a0 ae 7b c7 80 7c a1 ba 00 cf 7d 58 80 88 0c 58 00
       -1.8319632e-38 1.7139332e-38 -8.126655e-39 8.086019e-39
0000b0 c0 fe a1 80 46 39 e5 80 f9 22 94 00 19 88 53 00
       -1.4876902e-38 -2.1050874e-38 1.3604199e-38 7.671169e-39
0000c0 b4 89 c1 00 fa 05 14 00 76 63 16 80 5a 68 3d 80
       1.777365e-38 1.838854e-39 -2.056061e-39 -5.6394e-39
0000d0 b4 d5 08 80 cc bc 7f 80 e6 37 3c 80 62 0c 12 80
       -8.11346e-40 -1.1730836e-38 -5.530182e-39 -1.657481e-39
0000e0 e6 d4 97 00 cc 5f 31 00 07 c2 94 00 a2 91 7e 80
       1.3943533e-38 4.534305e-39 1.3661257e-38 -1.1623516e-38
0000f0 f1 1c 8a 00 8f a7 d1 00 22 a3 54 80 bc 7b 27 00
       1.268368e-38 1.9253727e-38 -7.772703e-39 3.625972e-39
000100 71 97 d8 80 af b0 aa 80 a1 3d bb 80 db ab a2 80
       -1.9890794e-38 -1.5675416e-38 -1.7195346e-38 -1.4939e-38
000110 6f ce 54 80 08 a1 8f 00 94 45 6f 80 52 ab b7 80
       -7.788236e-39 1.3190243e-38 -1.02187e-38 -1.6867354e-38
000120 48 66 52 80 ac 34 0a 00 ad bb 0d 80 ac ba 0b 00
       -7.567202e-39 9.3725e-40 -1.261187e-39 1.077156e-39
000130 a6 f6 2e 00 70 71 05 80 99 1b b0 00 94 92 22 80
       4.312914e-39 -4.99871e-40 1.6172947e-38 -3.174989e-39
000140 66 b5 9d 00 80 ce 69 80 be ac c5 80 f6 42 8d 00
       1.4483246e-38 -9.716805e-39 -1.8153561e-38 1.2972826e-38
000150 6a ba d2 00 c9 72 3c 80 be d1 3f 80 3d db b3 00
       1.9352327e-38 -5.551307e-39 -5.860878e-39 1.6517202e-38
000160 70 6b 19 80 40 07 86 00 1b 15 6f 80 c9 a8 42 00
       -2.334429e-39 1.2308557e-38 -1.0201311e-38 6.121691e-39
000170 f1 c3 96 00 a0 02 03 00 05 9f 29 80 7b 5d bc 00
       1.3845615e-38 2.76448e-40 -3.822301e-39 1.7298608e-38
000180 20 f6 8d 80 e7 3a d2 00 06 06 ad 00 8b 1d 63 00
       -1.3037098e-38 1.9306584e-38 1.5889702e-38 9.102312e-39
000190 ac 75 0e 80 e2 7e bf 00 2a 93 83 00 51 85 8d 00
       -1.32791e-39 1.7586097e-38 1.2083243e-38 1.299663e-38
0001a0 40 5b 72 00 a8 e0 3d 80 ef 79 81 00 40 13 2e 00
       1.0501981e-38 -5.682557e-39 1.189052e-38 4.231338e-39
0001b0 70 6a 7c 00 70 7b 5d 80 a3 e8 b6 00 b7 95 c9 80
       1.1425784e-38 -8.584982e-39 1.6797515e-38 -1.8512642e-38
0001c0 b7 64 eb 00 ff f1 ba 00 f5 b8 bf 00 bb 4b 4c 80
       2.1617471e-38 1.7168214e-38 1.760693e-38 -7.006665e-39
0001d0 e4 ed 88 00 76 40 4f 00 ce e2 54 00 24 ca 8f 00
       1.2574967e-38 7.278128e-39 7.795544e-39 1.320499e-38
0001e0 4e 8e bc 00 48 98 18 00 46 b4 00 80 88 fe e8 80
       1.7316123e-38 2.25868e-39 -6.467e-41 -2.1397144e-38
0001f0 f1 89 91 00 01 5c 4f 00 c1 73 85 00 ac 4d b9 80
       1.3365631e-38 7.288009e-39 1.2255646e-38 -1.701743e-38
000200 66 27 57 80 3e 09 c5 00 f8 21 5e 80 db f1 6e 00
       -8.003822e-39 1.8094908e-38 -8.644722e-39 1.0188666e-38
000210 e6 54 eb 80 47 73 a6 00 56 37 4e 80 f6 bf 43 80
       -2.1611797e-38 1.5286046e-38 -7.18302e-39 -6.221841e-39
000220 e5 24 7a 80 0b 26 15 00 c5 99 6c 80 70 61 5a 80
       -1.1217166e-38 1.942193e-39 -9.973396e-39 -8.300149e-39
000230 11 78 e3 80 de be a4 81 5d 4f d2 00 18 06 1c 00
       -2.088973e-38 -6.0517966e-38 1.9313924e-38 2.57358e-39
000240 43 94 12 80 3c 9d 5c 80 34 cb ea 80 17 57 af 00
       -1.706225e-39 -8.505271e-39 -2.1562402e-38 1.6102454e-38
000250 30 af 4a 00 cb 55 bd 81 06 48 57 80 72 49 0e 80
       6.858672e-39 -6.955074e-38 -8.015525e-39 -1.312044e-39
000260 20 31 c2 00 a8 b7 c9 80 7b df 73 00 09 01 ce 80
       1.7833709e-38 -1.8524818e-38 1.0641252e-38 -1.8918484e-38
000270 7d 21 33 00 2c 11 ba 80 0f 10 b2 80 97 2b 22 80
       4.695624e-39 -1.7087562e-38 -1.6352479e-38 -3.138044e-39
000280 9c 8c 7f 00 ce 86 bd 00 01 8d 9c 00 52 03 6f 80
       1.1713549e-38 1.7405268e-38 1.437692e-38 -1.0194931e-38
000290 c8 1e 0b 00 de a6 9a 80 2c 46 30 00 e6 de 82 00
       1.021233e-39 -1.4202527e-38 4.433277e-39 1.2018575e-38
0002a0 31 ad 68 80 fa a7 b4 80 82 20 11 80 dc 90 a3 00
       -9.613021e-39 -1.6590648e-38 -1.572865e-39 1.5021152e-38
0002b0 2e 0f 62 80 27 40 70 80 4a b7 58 00 bb 86 6e 00
       -9.005324e-39 -1.0308589e-38 8.147275e-39 1.0150237e-38
0002c0 df e4 7f 00 e0 b5 6a 80 a6 10 a2 00 61 88 01 80
       1.1745211e-38 -9.799807e-39 1.4883323e-38 -1.40759e-40
0002d0 16 9c 9b 00 bd 85 7e 00 c1 29 cf 00 25 c9 26 00
       1.4290495e-38 1.1619249e-38 1.9024926e-38 3.561906e-39
0002e0 97 4f 1c 00 70 47 1b 80 37 61 82 00 7b 27 80 00
       2.599945e-39 -2.505185e-39 1.1973489e-38 1.1769106e-38
0002f0 08 05 9b 80 11 28 a3 00 25 bb b6 00 48 82 a5 80
       -1.4236307e-38 1.4983559e-38 1.6781195e-38 -1.5199593e-38
000300 15 70 59 00 40 5d 35 80 18 21 23 00 ef 10 5c 00
       8.213567e-39 -4.900733e-39 3.226114e-39 8.45494e-39
000310 a5 b1 6a 00 b1 9b 96 00 21 3b ab 80 53 9e bc 00
       9.79829e-39 1.3831176e-38 -1.5725081e-38 1.732187e-38
000320 ce 22 23 80 12 44 13 00 14 a1 31 80 6f eb e6 80
       -3.226728e-39 1.769293e-39 -4.557723e-39 -2.1206622e-38
000330 24 e6 1a 80 32 b9 32 80 ed e2 7f 80 f8 cc 03 00
       -2.470282e-39 -4.65821e-39 -1.1744514e-38 3.49035e-40
000340 df 86 73 00 b6 93 29 80 70 b4 96 00 35 f9 2b 00
       1.0609465e-38 -3.818244e-39 1.3840053e-38 4.038325e-39
000350 d5 7c d3 80 58 ef a3 80 2f 87 91 80 2e 09 c4 80
       -1.9422071e-38 -1.5055046e-38 -1.3364642e-38 -1.800305e-38
000360 90 42 06 00 f6 a1 4b 80 45 e9 22 80 8f a4 6e 80
       5.74891e-40 -6.945763e-39 -3.206088e-39 -1.0160937e-38
000370 f5 13 b4 00 e8 00 7c 00 d8 e8 86 00 ed 4e 89 00
       1.6537549e-38 1.1387927e-38 1.2389485e-38 1.2609776e-38
000380 fe 10 3c 80 69 2f b0 80 39 99 98 80 db 18 23 00
       -5.516225e-39 -1.6180055e-38 -1.4013961e-38 3.223159e-39
000390 77 06 19 80 49 d6 92 01 a3 85 c2 80 24 14 51 80
       -2.298207e-39 5.3939414e-38 -1.7864026e-38 -7.4459e-39
0003a0 95 03 a6 80 1b 89 bc 80 f2 82 47 80 6a e3 01 00
       -1.5245977e-38 -1.7314257e-38 -6.567295e-39 1.73416e-40
0003b0 a8 53 2d 01 06 eb 21 80 f4 fb 7c 00 26 3c c4 01
       3.1835102e-38 -3.114882e-39 1.1477985e-38 7.208534e-38
0003c0 a2 a0 02 00 80 eb d2 80 52 ad 0b 00 92 04 09 80
       2.41295e-40 -1.9369936e-38 1.072366e-39 -8.28159e-40
0003d0 0b b1 6e 80 88 4f 22 80 b0 b6 50 80 aa 48 a9 00
       -1.0165416e-38 -3.150937e-39 -7.412376e-39 1.5546266e-38
0003e0 f4 d0 25 80 0a 75 96 80 d3 82 ad 80 51 97 cf 00
       -3.472872e-39 -1.381731e-38 -1.5934472e-38 1.906423e-38
0003f0 b8 32 d7 80 c4 70 13 00 01 4a 46 80 69 9b 30 80
       -1.9762826e-38 1.785327e-39 -6.455032e-39 -4.463854e-39
