final_models/LSTM_1_visits_AdmDemo.pt (torch, 706653 bytes, 33 tensors)

weight_ih_l0 f4 [256, 45]
000000 19 4b 3b 3c 69 d4 20 3c 01 5d 30 bc 55 2a e6 bc
       0.011431479 0.0098162675 -0.010764361 -0.028096357
000010 da 0c 13 3c 42 f1 88 bb 19 81 9a ba 43 cc 4f bc
       0.008975232 -0.004179151 -0.0011787742 -0.012682977
000020 dd cc 03 3d 4d 4b 8c bc 39 61 01 3c ca 49 5b 3c
       0.032177795 -0.01712575 0.007896715 0.013384292
000030 ac d7 73 a2 9f 90 ec 3a ac a5 40 3c 33 2a b4 3b
       -3.3046817e-18 0.0018048472 0.011758249 0.0054981946
000040 2d 28 b8 bb b8 52 e4 bb 9f e7 0e bc 03 d4 da bc
       -0.0056200237 -0.0069678687 -0.008722215 -0.026712423
000050 e7 28 d9 ba 80 14 e9 ba 77 5d d8 bb ed 5d 04 3c
       -0.0016567976 -0.0017782599 -0.0066029388 0.008079034
000060 d9 ac 92 3c 21 2b 5a 3c ea 73 10 bc cf 70 f6 bb
       0.017904686 0.013315947 -0.008816699 -0.007520772
000070 74 65 3f 3b 87 06 82 3b 6e 8b 17 bc c2 fc 8d bb
       0.0029204758 0.0039680633 -0.009249551 -0.0043331096
000080 48 f0 f4 bb d3 fc 3a 3c f6 68 83 bb f1 58 0b bb
       -0.007474933 0.011412817 -0.004010315 -0.002126273
000090 cc 54 2b 3c ae 31 b0 ba eb 9b 2e 3c 1f d0 1e 3a
       0.010457229 -0.001344254 0.010657291 0.0006058234
0000a0 d4 27 cf 3b 90 c5 d0 3b 95 7a 80 b8 28 5c 3e bb
       0.0063218866 0.0063712075 -6.126348e-05 -0.0029046629
0000b0 7d 28 92 3b 68 12 61 3d 05 8f fe 3c 07 74 ef 3c
       0.004460393 0.054949194 0.031074056 0.02923013
0000c0 ae a9 2e 3d d7 b3 fa 3c d5 e8 b6 3c 62 6e b5 bb
       0.042642288 0.030603332 0.02232782 -0.0055368403
0000d0 8b 33 3a 3c 13 9f 86 3c 10 a2 3a 3a 26 72 30 3b
       0.011364828 0.016433274 0.0007119486 0.0026923507
0000e0 50 a9 d0 3c b4 d1 0f a4 5a fa 80 bc 9e bc 2e bb
       0.02547136 -3.1185808e-17 -0.015744377 -0.0026662718
0000f0 ee 39 4c 3b 59 fb d2 3b d9 97 06 3d 75 97 48 bc
       0.0031162458 0.0064386544 0.032859657 -0.012243141
000100 d6 6d 90 3c 9e bf 3a 3b 65 e9 13 3b 30 40 e1 bc
       0.017630499 0.002849556 0.0022569534 -0.027496427
000110 6c b8 c3 bc 24 17 98 ba c5 3c d4 3c 03 c9 65 3c
       -0.02389165 -0.0011603576 0.025907883 0.014024976
000120 d2 f7 f7 39 97 a3 73 bb 47 81 3b bb e4 23 d0 3b
       0.00047296152 -0.0037176365 -0.002861099 0.0063519347
000130 40 42 cc 3b 26 4b 60 3c 15 e8 92 3a 20 06 a5 3c
       0.0062334836 0.013689792 0.0011208082 0.020144522
000140 4f 7f da bc 13 19 8d bb 51 95 ec 3c 35 0b 33 3c
       -0.026672034 -0.0043059676 0.028879793 0.010927965
000150 31 b9 9b bc b7 c9 ad bb 8f 82 31 bc 52 08 c0 bb
       -0.019009205 -0.0053035873 -0.01083435 -0.005860367
000160 bc 61 89 3b d1 de 5f ba 05 74 e0 bc 42 b9 06 bd
       0.004192559 -0.0008539977 -0.027399072 -0.03289152
000170 73 fc 86 bc 5a 2a 8b bd d5 fd 09 3d d0 81 9d bc
       -0.016477799 -0.06795187 0.03368934 -0.019226938
000180 8e d4 03 3d fb 27 84 bc 8a bf ee 3d 9a 58 ac 3d
       0.03218513 -0.016132345 0.11657627 0.08415337
000190 d5 34 0a 3c 16 37 11 b9 26 e1 ef 01 d6 f7 3c 3e
       0.008435448 -0.00013848799 8.8117806e-38 0.18453917
0001a0 37 b8 be 3d f1 13 07 3d ca c2 db 3c f0 25 44 3d
       0.0931248 0.032978002 0.026826281 0.047887743
0001b0 81 cb 5b bc 2d ca 74 bc fc 2b dd bb fd 22 40 3c
       -0.013415218 -0.014940781 -0.006749628 0.011727092
0001c0 cc 5a 13 3c 20 88 ef 3b e7 54 1a 3d 3e 6c ec 3c
       0.008993816 0.0073099285 0.037678625 0.028860208
0001d0 52 e1 b7 3c 06 2d 81 3a d1 da fd 3b 8a d6 07 3c
       0.022446308 0.0009855337 0.007747032 0.008290896
0001e0 62 18 d3 bb 6d b8 21 bc 2c fb 88 ba 10 f7 40 3d
       -0.0064421156 -0.009870631 -0.0010450832 0.047110617
0001f0 9a 15 65 3c cc 82 cb bb 9c 85 8a bc 67 aa 0d bb
       0.013982201 -0.0062106606 -0.016909413 -0.002161646
000200 5f b8 34 3d 7c 8f a4 3c 6f a3 fa 3a 3f f7 35 3c
       0.044121142 0.02008795 0.0019122193 0.011106311
000210 25 ab 76 3b 33 55 a8 bc c2 0d ba 3c 2e a8 02 3d
       0.0037638631 -0.020548439 0.022711638 0.03189867
000220 f6 e4 92 bc cd 42 e8 bc 7e 97 26 bc 05 44 cf 3b
       -0.017931443 -0.028352166 -0.0101679545 0.006325247
000230 f0 a1 5b 3c 54 39 6f bb 25 57 ae bc 70 4a b6 3d
       0.013405308 -0.0036502676 -0.021281788 0.089009166
000240 f0 04 14 bc 00 69 30 3b 30 85 3b 3d 46 bc 4a 80
       -0.00903438 0.0026918054 0.045781314 -6.863366e-39
000250 37 0c 32 3d fb 24 d8 3c 98 29 87 3c 16 e3 03 b9
       0.04346868 0.026384821 0.016499326 -0.0001257773
000260 42 df 2f 3d 5a 1d 8f bb 9f 97 a3 bc 85 26 51 bc
       0.042937525 -0.0043675127 -0.01996976 -0.012765531
000270 71 c4 99 3b 3d 01 47 3a 6f ec 0a 3d c4 eb 85 3c
       0.004692607 0.0007591432 0.033916887 0.016347773
000280 85 7f 29 3d 7c bc 2c bc 35 7b f5 bc ac 28 61 3b
       0.041381378 -0.010542985 -0.029965976 0.0034356518
000290 ce 7b 78 3b 34 e2 69 bc 70 1e 1b 39 d1 31 d8 bb
       0.003791559 -0.014275122 0.00014793291 -0.0065977355
0002a0 ac 00 9e 3c 79 55 3c ba 1a a5 88 3c fc d4 05 3d
       0.01928743 -0.0007184367 0.016680289 0.03267382
0002b0 47 94 25 bb 09 08 7b 3b 68 55 5a bb be 01 0e 3c
       -0.0025265382 0.003830435 -0.0033315066 0.008667408
0002c0 e0 80 8e 3a fb f4 c2 ba 7e d6 c9 bb 4f b9 ea 3a
       0.0010872148 -0.0014874035 -0.0061596027 0.001790801
0002d0 a1 e9 1b 3b 68 5d a5 3a 2b 24 ca ba 8b 7a 0f ba
       0.0023790377 0.0012616338 -0.0015422156 -0.00054732774
0002e0 93 be 79 3c 0d 92 18 3a 38 90 cf ba 6a 33 52 bc
       0.01524319 0.0005820103 -0.0015835827 -0.012829641
0002f0 c8 40 12 3d 9b 27 c3 ba 8d c4 16 3b 94 5d c3 3c
       0.03570631 -0.0014889123 0.0023005337 0.023848332
000300 5c c9 a3 80 95 cb 1a 3c ba 59 b7 3a 41 85 35 3c
       -1.504142e-38 0.009447952 0.0013988533 0.0110791335
000310 01 be 0b bc 9c c5 ee 3c 1e 94 c4 bb bd 53 e7 bb
       -0.008529187 0.029146962 -0.0059991023 -0.007059543
000320 98 45 9c bb 84 85 9a 3a f7 5c 40 ba 7f db 01 3b
       -0.0047690384 0.0011789058 -0.00073380716 0.0019814668
000330 17 c8 3c 3c c5 68 8a 3c 5f 9f d8 bb 1c 33 08 bc
       0.0115223145 0.016895661 -0.0066107954 -0.008312967
000340 28 29 82 3a 70 dd 29 3b 13 26 9a bb ca 90 0f bc
       0.0009930478 0.002591934 -0.004704246 -0.008762548
000350 64 2f da b8 98 d3 5a 3c 82 b7 2c bb 81 05 3a 3c
       -0.00010403877 0.013356112 -0.0026354496 0.011353851
000360 15 2c 1e 3b 75 74 03 3a c6 5d 24 3b ca 96 92 3b
       0.0024135162 0.0005014607 0.0025080307 0.004473542
000370 d0 75 21 3b d6 5b 17 bb 9f d9 27 3b 5e a0 cc ba
       0.0024636872 -0.002309551 0.002561189 -0.0015611758
000380 1e d5 a7 3b 35 ae 53 3c b6 35 16 bb 1d 8a 37 bc
       0.005121841 0.012919952 -0.0022920198 -0.011202362
000390 4f 57 b7 bb 68 63 45 bb 3b 18 27 3b 83 49 86 3b
       -0.005595125 -0.0030119065 0.002549662 0.0040981187
0003a0 90 3c f0 bb 4e fc 80 bb 00 d1 2f 3b 43 15 86 3b
       -0.0073314384 -0.003936327 0.0026827455 0.00409189
0003b0 c4 5c 5c bb 3b 4c bb a1 fe 3a da ba db 9d 4a 3b
       -0.0033624629 -1.2691791e-18 -0.0016649661 0.0030916843
0003c0 d5 bb 3c 3b 35 d2 94 3b 59 c4 f4 bb 97 15 67 bb
       0.002879848 0.00454166 -0.0074696955 -0.0035260671
0003d0 08 08 33 bb e3 d9 9d 3a 29 bb 9d bb 19 16 8b bb
       -0.002731802 0.0012043085 -0.004813571 -0.0042445776
0003e0 e8 7d 57 39 97 5d 79 3b b6 db 06 3c e1 f4 1d bc
       0.00020550902 0.0038050169 0.008231094 -0.009640903
0003f0 40 f6 10 3b f5 fb a6 39 f7 9d 9f 3a e0 35 bf bb
       0.0022119433 0.0003184971 0.0012177814 -0.00583528

weight_hh_l0 f4 [256, 64]
000000 de c4 b0 01 30 1a d0 00 55 af 93 80 7c f0 42 80
       6.493468e-38 1.9111178e-38 -1.3562715e-38 -6.147412e-39
000010 78 a4 9a 00 56 2f 41 80 c4 ef e1 00 51 ef c5 80
       1.4201667e-38 -5.986288e-39 2.0748998e-38 -1.8177443e-38
000020 0b 3e 37 00 9f b5 33 80 7a 46 9b 80 e2 cb 53 80
       5.073209e-39 -4.748764e-39 -1.4259784e-38 -7.695486e-39
000030 a9 74 89 80 48 67 90 00 31 b2 c5 80 0a 3b 85 00
       -1.2623313e-38 1.3261362e-38 -1.8155516e-38 1.22353e-38
000040 30 15 79 80 4d f2 ad 80 52 0a ce 00 23 b6 88 00
       -1.1119696e-38 -1.5974462e-38 1.8921814e-38 1.2554966e-38
000050 7c e3 bf 80 83 ca c6 80 56 3a 61 80 e4 a6 27 00
       -1.7622186e-38 -1.8256076e-38 -8.92897e-39 3.641453e-39
000060 a4 58 b8 80 28 45 e5 80 0e b2 13 80 3a ff 47 80
       -1.692953e-38 -2.1055137e-38 -1.808748e-39 -6.611878e-39
000070 c7 77 6b 00 53 ae 22 80 06 54 88 00 d9 3f 06 80
       9.869366e-39 -3.184943e-39 1.251977e-38 -5.73917e-40
000080 d0 c4 15 80 4e ef 33 80 3e 1d 34 00 56 fa 7d 80
       -1.999148e-39 -4.769457e-39 4.785936e-39 -1.156924e-38
000090 fd 05 d8 00 a2 7c 5f 00 ea 77 d5 80 9c e4 01 80
       1.9838615e-38 8.769082e-39 -1.9603978e-38 -1.73845e-40
0000a0 01 05 79 80 c8 26 03 00 42 ee 8a 80 fc a4 5f 00
       -1.111389e-38 2.89419e-40 -1.2758769e-38 8.783557e-39
0000b0 55 94 a7 80 50 58 38 80 4c a8 ac 80 77 5d b4 80
       -1.538974e-38 -5.174468e-39 -1.5856079e-38 -1.6563918e-38
0000c0 18 ba 20 00 98 57 cc 00 0b e5 5f 00 f2 d1 56 80
       3.005494e-39 1.8765864e-38 8.806537e-39 -7.973167e-39
0000d0 09 e1 5a 80 40 02 fc 80 9a 51 75 80 51 ef 2b 80
       -8.345922e-39 -2.3143352e-38 -1.0774026e-38 -4.034777e-39
0000e0 9a 06 0b 00 3c d0 d6 80 95 92 b4 00 18 ae 79 00
       1.012559e-39 -1.9727497e-38 1.6582973e-38 1.1174548e-38
0000f0 7d 56 4d 00 10 94 ad 80 35 3c 62 80 86 41 b5 80
       7.10236e-39 -1.5940656e-38 -9.021477e-39 -1.664573e-38
000100 67 e4 2c 80 56 b8 3e 80 69 81 ab 80 f9 c6 65 00
       -4.122697e-39 -5.759928e-39 -1.5750293e-38 9.346763e-39
000110 27 e0 0d 80 82 5b 18 80 d1 0f 5e 00 99 24 3f 00
       -1.274272e-39 -2.236879e-39 8.63821e-39 5.798765e-39
000120 f9 62 2a 80 6e 0f 98 00 15 18 72 80 62 8c 5e 00
       -3.892596e-39 1.396453e-38 -1.0477886e-38 8.682897e-39
000130 21 26 34 80 5e e1 9d 80 96 67 ec 00 ff 25 1f 00
       -4.789124e-39 -1.449902e-38 2.1710337e-38 2.860531e-39
000140 ae 28 c6 00 f6 5e 07 80 cf 04 17 80 01 f3 8c 81
       1.8198021e-38 -6.76914e-40 -2.113941e-39 -5.177657e-38
000150 95 28 bf 00 e4 81 a7 00 ca 9a 2e 00 c8 97 69 80
       1.7555138e-38 1.5383124e-38 4.27996e-39 -9.697176e-39
000160 d9 df 30 80 e4 5f 00 00 90 57 06 80 2c 07 ce 00
       -4.488405e-39 3.4399e-41 -5.82424e-40 1.8920685e-38
000170 40 a3 b0 80 3d af 3c 00 b1 ae b1 80 2e 64 c9 80
       -1.622161e-38 5.572993e-39 -1.631755e-38 -1.8494872e-38
000180 b3 fc 61 00 09 a3 28 00 b6 f7 34 80 29 64 31 80
       8.998695e-39 3.731906e-39 -4.864308e-39 -4.53587e-39
000190 3a 73 72 80 20 37 00 80 05 10 74 00 13 9a 1b 00
       -1.0510582e-38 -1.9775e-41 1.0658664e-38 2.53483e-39
0001a0 c5 0d c7 80 75 c9 b1 00 04 e8 77 80 5f 1f 76 80
       -1.8280203e-38 1.6327152e-38 -1.1011656e-38 -1.0847842e-38
0001b0 be d6 0a 80 fc a3 52 80 0c 17 90 00 f5 5e 40 80
       -9.9539e-40 -7.589337e-39 1.3232579e-38 -5.911536e-39
0001c0 50 7d 3a 80 c8 34 6e 00 18 b5 1b 00 f7 5f a0 80
       -5.371412e-39 1.0120839e-38 2.544523e-39 -1.4728105e-38
0001d0 2c 1f 50 80 02 0a ba 00 1d 6b 62 00 cd 01 22 00
       -7.358022e-39 1.7084992e-38 9.038304e-39 3.123053e-39
0001e0 f3 80 0d 80 0a 3f 31 00 ec c3 72 80 3e 14 d1 00
       -1.24012e-39 4.522553e-39 -1.053953e-38 1.920088e-38
0001f0 1c d7 6f 80 30 27 98 80 b7 4e 21 00 09 ee 04 00
       -1.0270907e-38 -1.3973053e-38 3.058809e-39 4.52733e-40
000200 fc e3 0e 80 0d 24 bb 00 0a 7d 59 00 67 f7 1e 00
       -1.367482e-39 1.718617e-38 8.218215e-39 2.843816e-39
000210 28 a3 c3 80 bb 52 16 00 cf 95 e7 80 8c 23 21 80
       -1.7966451e-38 2.050059e-39 -2.1267741e-38 -3.043323e-39
000220 46 d2 60 80 b9 88 5c 80 00 e2 8c 80 51 73 2d 00
       -8.89164e-39 -8.497912e-39 -1.2938043e-38 4.173965e-39
000230 26 4e 13 80 cb a3 46 80 ff 43 7c 80 49 1c 51 00
       -1.772909e-39 -6.487243e-39 -1.1411994e-38 7.448822e-39
000240 40 77 54 80 2a b4 10 00 e2 dd 49 80 65 21 8a 80
       -7.75696e-39 1.533999e-39 -6.783588e-39 -1.2685278e-38
000250 b9 c0 b3 00 76 8e 0b 80 12 41 d9 80 de 1e 99 80
       1.650769e-38 -1.061296e-39 -1.9951645e-38 -1.4061904e-38
000260 71 69 14 80 83 56 16 80 7f 2d 60 80 5d f1 27 80
       -1.874535e-39 -2.051415e-39 -8.832529e-39 -3.668169e-39
000270 6b 1a 13 00 51 d5 39 00 89 e2 4c 80 15 82 e0 00
       1.754351e-39 5.311147e-39 -7.060763e-39 2.0617816e-38
000280 ba 56 7c 80 21 0f 31 80 b4 d1 09 80 cb 79 db 80
       -1.1418713e-38 -4.505367e-39 -9.01747e-40 -2.0155665e-38
000290 67 2f 39 00 b1 5a 9d 00 4b ad b5 80 81 9e 84 00
       5.251628e-39 1.4450707e-38 -1.668439e-38 1.2179146e-38
0002a0 a4 67 b6 00 32 34 72 80 e4 74 c2 81 48 85 21 01
       1.675124e-38 -1.0487971e-38 -7.1432075e-38 2.9666654e-38
0002b0 a3 67 77 80 58 65 65 00 19 b5 da 00 b9 b8 3b 80
       -1.0965602e-38 9.31174e-39 2.0085104e-38 -5.48456e-39
0002c0 76 88 87 80 af 40 05 80 1d d3 91 00 42 38 40 00
       -1.2446745e-38 -4.82382e-40 1.339188e-38 5.897653e-39
0002d0 81 c7 33 80 ed 65 00 00 1c 70 9e 00 bd 4e d5 80
       -4.755179e-39 3.6564e-41 1.4550226e-38 -1.9589207e-38
0002e0 85 85 b8 00 9e dc c0 80 b5 21 26 80 f5 a0 6a 00
       1.6945629e-38 -1.7711558e-38 -3.50184e-39 9.792303e-39
0002f0 a8 4e 6d 00 9b 5f 74 00 2c 5c 3d 00 e1 ef 70 00
       1.0038286e-38 1.0687214e-38 5.63503e-39 1.0371628e-38
000300 38 7c 39 00 35 45 88 80 f6 30 c5 80 a2 6f 25 00
       5.279185e-39 -1.2514454e-38 -1.8109157e-38 3.43796e-39
000310 07 08 1f 00 5e f2 9f 00 df 55 83 00 95 1b b3 00
       2.84978e-39 1.4688789e-38 1.2061255e-38 1.6448448e-38
000320 6b 16 a0 80 24 6e d7 00 0f 28 9a 00 7e 39 be 00
       -1.4701721e-38 1.9784143e-38 1.4157037e-38 1.7469369e-38
000330 c8 3e 15 80 48 0e 35 80 24 9a cc 80 30 91 6f 80
       -1.951067e-39 -4.872404e-39 -1.8789736e-38 -1.0245824e-38
000340 53 47 5e 80 49 27 1a 80 45 19 1c 80 2a bd 10 80
       -8.658123e-39 -2.401816e-39 -2.580459e-39 -1.537227e-39
000350 29 b8 dc 80 f6 f4 dd 00 da 89 c4 80 d7 3e 5b 00
       -2.0269873e-38 2.038352e-38 -1.8049209e-38 8.379573e-39
000360 17 9b 58 80 ca 98 43 80 9a b0 24 80 ff 60 28 80
       -8.13716e-39 -6.207789e-39 -3.36943e-39 -3.708215e-39
000370 d1 02 b6 00 86 70 30 00 37 88 4d 00 ed 24 9c 80
       1.671507e-38 4.44847e-39 7.120198e-39 -1.4339584e-38
000380 07 e0 1b 80 ce 08 6a 00 8c ff 26 80 30 fb bb 80
       -2.559924e-39 9.737721e-39 -3.581422e-39 -1.7263347e-38
000390 08 7a 3f 80 28 ae 01 00 54 fd cb 00 de fb d2 00
       -5.829413e-39 1.54311e-40 1.8733483e-38 1.9375807e-38
0003a0 60 a7 32 00 a3 2f 82 00 51 cb 96 80 70 ba e6 80
       4.651818e-39 1.1955703e-38 -1.384826e-38 -2.1189045e-38
0003b0 18 62 a7 00 97 e6 1f 80 04 6c 56 80 72 1a c1 00
       1.5371717e-38 -2.92962e-39 -7.936601e-39 1.7733738e-38
0003c0 2f c0 76 00 76 05 57 80 e8 cb e2 80 fc dd c2 00
       1.0905531e-38 -7.991647e-39 -2.082797e-38 1.7895719e-38
0003d0 39 59 c0 00 eb 02 5e 80 16 4d 74 00 45 0e 56 80
       1.7664422e-38 -8.633583e-39 1.0680571e-38 -7.902972e-39
0003e0 29 08 05 82 5c f4 d3 80 fe 6f 6d 80 e6 00 22 80
       -9.773639e-38 -1.946495e-38 -1.0050244e-38 -3.122729e-39
0003f0 10 af 0b 80 21 9c 72 80 e5 f1 ad 00 f6 c6 32 00
       -1.072991e-39 -1.0525255e-38 1.5974316e-38 4.663149e-39

bias_ih_l0 f4 [256]
000000 a5 3a 93 3c de 64 e2 3c f8 cb 44 3e 27 b3 a6 3d
       0.0179723 0.027635988 0.19218433 0.08139639
000010 07 d4 0c 3d 74 84 6d bb 0f b1 a8 3d e3 21 cb 3d
       0.034381893 -0.0036242278 0.08236896 0.09918573
000020 a9 5f 45 bb bc a0 26 3e 26 a0 92 00 09 87 94 3e
       -0.0030116832 0.16272253 1.3465433e-38 0.29009274
000030 9e 6e a7 bb ae f5 18 3d 37 b0 5f 3e 8f d9 86 3c
       -0.005109622 0.037343673 0.21844564 0.016461162
000040 6a a2 fb 80 e9 0a 41 bc 8b 96 b9 3d 21 47 cc 3c
       -2.3108973e-38 -0.011782386 0.09061917 0.02493626
000050 a1 5d 6f 00 78 86 ff 39 d7 03 2e b9 34 c8 8a 3c
       1.0227328e-38 0.00048737577 -0.00016595364 0.016941167
000060 e7 0f 05 3b b7 7e b0 3d 9f 4b 28 3e 9e 52 44 bc
       0.0020303668 0.08617919 0.16435097 -0.011982588
000070 91 92 1b b9 34 e5 55 3d 5e 4e f0 3c 1a 38 09 3b
       -0.00014836552 0.05222054 0.029334243 0.002093798
000080 89 84 8a bb ae 85 a7 3d 7e 41 59 bc e2 59 c1 bb
       -0.004227225 0.08179794 -0.013260243 -0.0059006074
000090 12 f6 8f 3e 1a 35 4f 3d 2d de a9 3a 08 60 e6 3b
       0.28117424 0.05058775 0.001295989 0.007030491
0000a0 2f 6a 9b 3c f6 6c 82 3e a2 e5 13 33 ea c6 cd 3d
       0.01897153 0.25473756 3.4434954e-08 0.100477055
0000b0 8a a8 f0 3c 79 57 b7 bb 96 3f 40 39 80 60 81 3d
       0.02937724 -0.0055951444 0.00018334234 0.06317234
0000c0 58 a5 88 3d 76 95 28 3c 4f ea 3a 3d 12 58 ea 3d
       0.06672162 0.0102895405 0.04563361 0.11442579
0000d0 aa 87 e1 39 24 90 e1 b9 d3 98 1a ba 6b 10 48 3e
       0.00043016422 -0.00043022737 -0.00058974064 0.19537513
0000e0 a3 a3 32 3b 02 c9 d2 3d af ab 2d 3e 1d 3a 00 bb
       0.002725818 0.102922454 0.16960023 -0.0019565888
0000f0 21 e1 84 3d 40 d5 6e 3d 30 0c ac 3c ac ee 80 b9
       0.064882524 0.05830884 0.021001905 -0.00024591887
000100 9f 7f aa 80 b5 ff 58 00 0b de 67 80 88 99 cb 80
       -1.5657816e-38 8.173254e-39 -9.53871e-39 -1.8697682e-38
000110 c8 fd e6 80 c4 8e ae 80 9d de 28 80 0c 68 0d 00
       -2.1213204e-38 -1.6030591e-38 -3.753278e-39 1.231186e-39
000120 ba 99 5a 80 b0 49 4f 80 88 de a6 00 3c 56 ee 01
       -8.320341e-39 -7.281438e-39 1.5324522e-38 8.755113e-38
000130 70 90 0c 00 5c 6c b7 80 a1 23 10 80 2a 2d 5c 00
       1.15384e-39 -1.6844768e-38 -1.482149e-39 8.465067e-39
000140 e4 2d 06 00 d6 ea bc 00 69 7c 49 80 30 94 0e 00
       5.67475e-40 1.7349317e-38 -6.748621e-39 1.338857e-39
000150 b9 07 06 80 f0 94 c1 80 8e 10 66 80 2a b1 40 00
       -5.53783e-40 -1.777768e-38 -9.37316e-39 5.941026e-39
000160 b7 0f 2d 00 7a c0 57 80 0d 3c 5f 00 52 0f d2 80
       4.138235e-39 -8.058736e-39 8.745914e-39 -1.929095e-38
000170 86 0e 94 80 fb 7c d0 80 60 d0 bc 00 fe 1f 0b 80
       -1.3596863e-38 -1.9146618e-38 1.7339824e-38 -1.021667e-39
000180 98 28 50 80 e7 37 99 00 47 54 5d 00 98 71 35 00
       -7.361402e-39 1.4070885e-38 8.570934e-39 4.908031e-39
000190 bd 8c 29 80 44 31 90 02 63 80 8f 00 2b 33 08 80
       -3.815743e-39 2.1187175e-37 1.3178532e-38 -7.5304e-40
0001a0 20 05 a9 80 4a e4 12 80 02 da 42 00 00 d8 28 00
       -1.5522037e-38 -1.734934e-39 6.139349e-39 3.750906e-39
0001b0 65 46 6e 00 43 90 32 80 60 02 26 00 72 2e 4b 80
       1.0127157e-38 -4.643526e-39 3.490601e-39 -6.904324e-39
0001c0 58 fc d6 00 2b fb d7 80 63 85 23 00 5e e6 82 80
       1.974332e-38 -1.9834734e-38 3.262093e-39 -1.2021255e-38
0001d0 8f fa 5d 80 c4 88 b3 80 81 a6 20 80 8a ac 80 01
       -8.630585e-39 -1.6487616e-38 -2.998466e-39 4.7267355e-38
0001e0 5b e6 29 80 a0 43 b3 00 7a b8 11 80 2d b0 31 80
       -3.847891e-39 1.6462813e-38 -1.627381e-39 -4.563139e-39
0001f0 49 5b 06 80 8c f6 b1 00 47 e6 70 80 4f db 0a 80
       -5.8376e-40 1.6343327e-38 -1.0368184e-38 -9.97028e-40
000200 73 86 94 3d 44 d9 5b 3d 0b 3e 65 3d 47 ef b5 3d
       0.07252207 0.053673998 0.055967372 0.08883529
000210 6a 99 ec 3c fb 21 99 3d 7f 40 18 3c 18 22 7b 3d
       0.028881747 0.074771844 0.009292721 0.06131181
000220 73 48 72 3d 7a 02 ef bb 9d 6e 81 b2 93 8e 6f 3c
       0.059151124 -0.0072939964 -1.5067878e-08 0.014621395
000230 52 18 28 3d 2f 59 f4 3d 5b 9e 2c bd 62 9f 92 3a
       0.04103882 0.11931073 -0.042143207 0.0011186416
000240 45 7a 55 b7 ce 24 52 bb b4 49 bc bc 5b 87 25 3e
       -1.2724257e-05 -0.0032065394 -0.022984363 0.16164915
000250 a3 b8 47 af 07 32 3f bc 7a 10 8a 3b 52 1b 71 3d
       -1.8164541e-10 -0.011669642 0.00421339 0.058863945
000260 51 ec a0 3d c9 a7 62 bc 09 5a 06 3e fd bc aa bb
       0.07857574 -0.013833948 0.13120283 -0.0052105174
000270 f1 53 23 bb 28 cf 62 3d db cd 8f 3d 56 d0 41 3c
       -0.002492186 0.05537334 0.07021686 0.011829456
000280 58 bf 45 3d 1a 22 f6 3d af c3 46 bc 3a 43 9d 3c
       0.048278183 0.12018223 -0.012131616 0.019197095
000290 1e 77 d1 bc 8c 63 0e 3d 75 65 bc 3c 33 fc 67 3d
       -0.025569495 0.034762904 0.022997597 0.056637
0002a0 38 c3 f3 3c 70 67 f3 3c ab dd 5b ba 79 67 15 3d
       0.029756173 0.029712409 -0.0008387218 0.036475632
0002b0 ef 04 9c 3d 12 3e d9 3b 6f 67 7d 3d 57 e9 e5 3d
       0.076181285 0.006629714 0.06186622 0.11226147
0002c0 07 a8 90 3d de 72 e0 3b 7a 52 cc bb 4a 8e b0 3a
       0.07063299 0.0068496307 -0.006235418 0.001347014
0002d0 02 41 18 3d e7 6e 9e 3c af 24 19 bd 15 5c 5b 3c
       0.03717137 0.019339992 -0.0373885 0.013388653
0002e0 2b 8e fa 3c 7b a8 8f 3d d5 2a 98 3c 70 92 9f 3b
       0.03058537 0.07014557 0.018575111 0.0048697516
0002f0 d8 82 1d 3d c6 b4 a6 bc 27 7e 83 3d 3f 72 27 bc
       0.03845486 -0.020349871 0.06420546 -0.0102201095
000300 78 40 95 3c 1d ea e5 3c 14 b3 46 3e ce 56 a9 3d
       0.018219218 0.028065735 0.1940425 0.0826851
000310 2a 93 0c 3d ba 0b 80 bb 65 c1 aa 3d d4 71 d9 3d
       0.034320034 -0.003907648 0.08337668 0.10617414
000320 42 93 53 bb 40 05 2b 3e db e0 66 00 a7 a0 9b 3e
       -0.0032283817 0.16701221 9.447884e-39 0.30396006
000330 bd 56 a8 bb 8e 37 0d 3d 7c fd 68 3e 13 e6 8a 3c
       -0.005137293 0.03447681 0.22752947 0.016955411
000340 ed 9c 24 80 8e 19 42 bc 83 8b b3 3d c5 94 d6 3c
       -3.362372e-39 -0.011846913 0.08766844 0.026193986
000350 a7 ac 95 00 37 d9 05 3a f9 6a 30 b9 32 d3 89 3c
       1.3745425e-38 0.0005105915 -0.00016824518 0.016824339
000360 77 5a 65 3b 21 a9 b1 3d ea ba 14 3e f5 64 46 bc
       0.0034996548 0.08674837 0.14524427 -0.012109031
000370 ea f3 1c b9 b3 39 70 3d 34 50 f7 3c 50 62 d3 38
       -0.00014968184 0.058648776 0.030189611 0.00010079576
000380 3f 17 4f bc ca 77 9f 3d d7 35 5f bc cc 34 c9 bb
       -0.01263982 0.0778652 -0.013623676 -0.006140327
000390 91 35 93 3e 43 6a 4c 3d f8 c5 4e 39 bf 92 48 3b
       0.28751805 0.049906027 0.0001971944 0.0030605046
0003a0 01 5f a1 3c 71 39 85 3e 2f 9c ff 32 30 da d0 3d
       0.019698622 0.26020387 2.9756931e-08 0.10197866
0003b0 fd 72 ea 3c bc 09 4b bc 33 6d a3 ba d4 0c 86 3d
       0.028619284 -0.012392458 -0.0012468457 0.065454155
0003c0 36 31 89 3d 6a bf 23 3c 07 60 3b 3d b9 cc ec 3d
       0.06698839 0.009994367 0.045745876 0.11562485
0003d0 ff d2 c1 39 fc 92 e2 b9 b4 df 13 ba cf 04 4c 3e
       0.00036969033 -0.0004321559 -0.00056409393 0.1992371
0003e0 a2 c2 2d 3b 1a 67 d3 3d be e0 2e 3e 49 2d a1 b8
       0.0026513715 0.103223994 0.1707792 -7.685513e-05
0003f0 ce a4 87 3d ba 53 7b 3d 5d 8e a6 3c a5 b9 80 b9
       0.06623231 0.061359145 0.020331556 -0.00024552378

bias_hh_l0 f4 [256]
000000 98 83 9b 3c 21 59 ed 3c 56 73 45 3e 98 a1 a6 3d
       0.018983647 0.028973164 0.19282278 0.0813629
000010 0a 90 0c 3d 03 05 6e bb 04 37 aa 3d fa f3 ca 3d
       0.034317054 -0.0036318905 0.08311275 0.09909816
000020 8c 0c 5e bb ae 48 27 3e ff ca 95 00 fb 86 94 3e
       -0.003388199 0.16336319 1.375631e-38 0.29009232
000030 f6 c7 a7 bb c2 b5 17 3d 51 66 63 3e 0b bd 86 3c
       -0.0051202727 0.037038572 0.22207 0.016447565
000040 2e ea eb 80 5e 0c 41 bc 0a 2b c2 3d d2 4f cb 3c
       -2.166535e-38 -0.011782734 0.09480865 0.024818335
000050 89 80 59 00 ba 85 ff 39 ac 03 2e b9 78 05 8b 3c
       8.219469e-39 0.00048737024 -0.00016595301 0.016970381
000060 40 3e 1c 3b b7 7e b0 3d de 1d 1f 3e 5d 86 44 bc
       0.0023840815 0.08617919 0.15538737 -0.011994925
000070 cf 91 1b b9 4a f1 66 3d eb 79 de 3c 52 f2 36 3b
       -0.0001483627 0.056382455 0.027157744 0.002791543
000080 c6 ac 49 bc b6 c2 98 3d 19 a4 62 bc 4a 2d c1 bb
       -0.012309259 0.07459013 -0.013833069 -0.0058952915
000090 c6 f5 8f 3e d2 ac 49 3d 8f 2c 04 ba 03 98 e2 3b
       0.28117198 0.04923708 -0.000504204 0.006915094
0000a0 4c 56 a2 3c 13 6f 82 3e a2 e5 13 33 ce 3b ce 3d
       0.01981654 0.25475368 3.4434954e-08 0.100700006
0000b0 ba b9 f0 3c 72 71 8f bb 7b de 85 ba 62 db 87 3d
       0.029385436 -0.0043775374 -0.0010213399 0.06633641
0000c0 39 05 8e 3d 76 95 28 3c 7a e3 35 3d 8f c1 ed 3d
       0.0693459 0.0102895405 0.04440639 0.11609184
0000d0 58 87 e4 39 3f 8d e1 b9 52 3e 1d ba 6f 10 48 3e
       0.00043588388 -0.0004302058 -0.0005998361 0.19537519
0000e0 2b 52 93 3a 95 52 d4 3d d5 73 2e 3e ee d3 ba bb
       0.0011239698 0.10367314 0.17036374 -0.0057015335
0000f0 a0 1c 87 3d e5 99 71 3d 83 0a ce 3c d9 ee 80 b9
       0.06597257 0.058984656 0.025151497 -0.00024592018
000100 2d dd 8a 00 8b 28 31 80 b9 a8 80 80 71 16 07 00
       1.2752641e-38 -4.514483e-39 -1.181547e-38 6.50899e-40
000110 ae 12 4d 80 7e 36 df 80 ff e5 de 00 64 31 c6 80
       -7.078034e-39 -2.0498864e-38 2.0469987e-38 -1.8201146e-38
000120 1c 75 48 00 d8 0f 21 80 8e e4 30 80 16 de 5d 80
       6.654167e-39 -3.036255e-39 -4.490094e-39 -8.62037e-39
000130 c0 76 0d 80 29 89 3d 80 10 ba 50 80 bc 5d 1b 80
       -1.236461e-39 -5.651169e-39 -7.413586e-39 -2.513184e-39
000140 00 c3 89 80 41 5e 83 00 3e 4b 09 00 5e c0 6d 80
       -1.2651416e-38 1.2064262e-38 8.53511e-40 -1.0079077e-38
000150 17 f7 d7 00 10 d1 36 00 34 2d 31 80 fa 5e 4f 80
       1.9833271e-38 5.034114e-39 -4.516155e-39 -7.289075e-39
000160 43 c4 7b 00 1a 22 6a 00 be cd 33 00 01 50 12 00
       1.1366171e-38 9.746796e-39 4.757417e-39 1.681739e-39
000170 da 25 0a 80 68 13 11 00 57 7d 33 80 14 07 30 80
       -9.31934e-40 1.568165e-39 -4.728574e-39 -4.410643e-39
000180 0d 5d 42 00 43 56 38 00 5f b0 18 00 5b 7d 43 80
       6.094523e-39 5.173733e-39 2.267322e-39 -6.197947e-39
000190 a8 79 57 80 b4 f6 63 80 8c 71 88 80 83 7f 5f 00
       -8.03333e-39 -9.180215e-39 -1.253036e-38 8.770115e-39
0001a0 15 ac 78 80 46 53 38 00 c4 9d 02 00 1a e0 b9 80
       -1.1081991e-38 5.17266e-39 2.40267e-40 -1.7069959e-38
0001b0 76 6a 4e 00 44 eb a8 00 1a 18 55 00 08 5a ca 80
       7.20136e-39 1.5512761e-38 7.814663e-39 -1.8583067e-38
0001c0 4a 08 47 80 da 4f d3 01 5c 14 52 00 de 22 5f 00
       -6.523294e-39 7.762374e-38 7.537814e-39 8.73688e-39
0001d0 56 6f 09 00 35 b8 0d 00 c5 6b 05 80 ac 0c b0 00
       8.66459e-40 1.259942e-39 -4.97838e-40 1.6167593e-38
0001e0 af 6b 48 00 ca b8 4a 80 39 93 19 80 b4 73 bb 00
       6.650785e-39 -6.862117e-39 -2.348701e-39 1.7214744e-38
0001f0 36 4b 46 80 11 12 01 80 08 29 4c 00 9e f5 c2 80
       -6.455465e-39 -9.8317e-41 6.994217e-39 -1.7904197e-38
000200 95 5d 50 3d 62 4f 23 3d 0b 56 b6 bb 0b 19 3a bd
       0.050870497 0.039870627 -0.0055644563 -0.04543404
000210 a4 6e 30 bc 52 16 99 3d 12 02 aa 3d bb 06 11 3d
       -0.010768566 0.074749604 0.08301176 0.03540681
000220 81 60 26 3c 46 fc 97 3d b7 20 a0 b2 35 f1 92 3c
       0.010154844 0.07421164 -1.8641328e-08 0.017937282
000230 a0 f8 01 3d e4 a3 5c 3d f8 f3 82 3d f8 4a 9e 3c
       0.031731248 0.053867236 0.063941896 0.019322857
000240 45 7a 55 b7 92 ef e5 bb d9 00 8a 3d 12 9d 29 3d
       -1.2724257e-05 -0.0070170844 0.06738443 0.04140956
000250 fc b8 49 af 06 6a 9f bc 0b cb 59 3c 30 52 9d 3d
       -1.8346563e-10 -0.019459736 0.013293038 0.07681692
000260 cb 2b f4 3d d7 15 84 3c 3d f0 cd 3d 89 49 16 3d
       0.11922415 0.016123695 0.100555874 0.036691222
000270 b9 e4 37 3c 68 8a e5 3c 38 63 50 3d 4e b3 7f bb
       0.011223965 0.028020099 0.050875872 -0.0039016786
000280 1d 9a 10 3d 83 b4 6b 3d 10 40 89 3d 13 e0 84 3d
       0.035303224 0.057545196 0.06701672 0.06488051
000290 22 c0 89 3d a2 43 e5 3d e8 d9 df bb 24 f0 fa 3d
       0.067260996 0.111945406 -0.0068313964 0.122528344
0002a0 bd f5 9d 3c a7 4c a2 bc ab dd 5b ba 5e 12 a6 3d
       0.019282216 -0.019811941 -0.0008387218 0.08108972
0002b0 d9 3f 17 3c ac 8f 65 3d 13 b2 ab 3d 14 e6 89 39
       0.009231531 0.05604522 0.08383574 0.00026302098
0002c0 ee fe 17 3e e7 bd b5 bc d6 43 b0 3a 21 30 8b 3d
       0.14843342 -0.022185279 0.0013447951 0.06796289
0002d0 db 27 a5 bc ec 2d a8 bc ce dd e8 bc 31 d3 7f 3a
       -0.020160606 -0.02052971 -0.028426077 0.0009758948
0002e0 60 a5 e0 3d 86 91 cc 3c 87 dc c4 3d ea 1d e4 3c
       0.10969043 0.024971735 0.09612375 0.027846295
0002f0 ed 78 ef 3d fd c2 92 3c 38 c2 2e 3d b8 93 40 bc
       0.11692987 0.017915243 0.04266569 -0.011753969
000300 b3 9c 93 3c 99 12 d6 3c f6 8c 45 3e d6 32 aa 3d
       0.018019056 0.026131915 0.19292054 0.083104774
000310 4e 34 0c 3d 49 c2 7d bb 32 a1 9e 3d f4 74 d6 3d
       0.03422957 -0.003872054 0.07745589 0.10471526
000320 92 f2 57 bb 48 03 2b 3e 9b 02 6a 00 a3 a0 9b 3e
       -0.003295098 0.1670047 9.735497e-39 0.30395994
000330 8c 2d a8 bb da b0 0f 3d 73 02 65 3e ff e8 8a 3c
       -0.0051323827 0.03508077 0.22364216 0.016956804
000340 67 a0 1b 00 3e 29 42 bc 57 e1 c3 3d 8d f2 ca 3c
       2.5371e-39 -0.011850653 0.095644645 0.02477386
000350 11 69 89 00 ee d8 05 3a d3 6a 30 b9 85 c9 89 3c
       1.2619154e-38 0.00051058724 -0.00016824463 0.016819725
000360 c6 a3 b9 3b 21 a9 b1 3d 8e 75 1f 3e de a6 45 bc
       0.0056652753 0.08674837 0.15572187 -0.01206371
000370 a5 f2 1c b9 90 88 5a 3d 79 ed fa 3c e0 a3 8f b8
       -0.00014967711 0.053352892 0.030630814 -6.8492955e-05
000380 dc b8 6f bb e5 c3 ab 3d c6 4f 57 bc d9 bc c8 bb
       -0.003657869 0.08386973 -0.013141578 -0.006126028
000390 a5 35 93 3e 97 37 4c 3d 26 87 2e 3a 81 6c 89 3b
       0.28751865 0.049857702 0.0006657712 0.004193843
0003a0 9e e0 a1 3c 2d 3d 85 3e 2c 9c ff 32 2c d1 d0 3d
       0.019760426 0.26023236 2.9756926e-08 0.10196146
0003b0 56 4e ec 3c 1b ac 4e bb b0 1f 63 ba 98 4f 83 3d
       0.028845947 -0.0031535688 -0.00086640846 0.06411666
0003c0 57 74 89 3d 60 bf 23 3c 26 9f 3f 3d b2 56 e9 3d
       0.06711643 0.009994358 0.046782635 0.11393489
0003d0 f2 32 c4 39 2c 99 e2 b9 83 b1 18 ba cf 04 4c 3e
       0.0003742199 -0.000432202 -0.0005824791 0.1992371
0003e0 17 34 ca 38 86 22 cf 3d 18 93 2e 3e b5 b8 b0 bb
       9.641813e-05 0.10114007 0.170483 -0.0053931125
0003f0 c6 0c 84 3d de 48 7b 3d 2c 58 95 3c b8 b9 80 b9
       0.06447749 0.06134879 0.01823052 -0.00024552434

weight_ih_l0_reverse f4 [256, 45]
000000 e3 0f 68 3d 96 bb 50 3d 13 97 35 3d 15 28 86 3b
       0.056655776 0.050960146 0.04433353 0.0040941336
000010 cf b9 44 3c 8d cd 14 bc fc a6 57 bc a3 b6 2b 3c
       0.012007191 -0.00908221 -0.013162371 0.010480556
000020 d7 08 3a 3c 78 61 92 3a 09 dc 25 3b 9b 2d 8c 3c
       0.011354647 0.0011167964 0.0025308153 0.01711159
000030 0b 33 1d 25 1f ff 51 bc 3a 95 24 3c dc 82 01 3b
       1.3634873e-16 -0.012817173 0.010045344 0.0019761836
000040 58 6a ba 3a 74 8f aa 3b 77 e0 08 bb e2 ee f0 3b
       0.0014222367 0.005205089 -0.0020885745 0.007352696
000050 e5 74 c1 bb 90 da 1b 3b fe bf 3b bc 5e a0 a9 bc
       -0.0059038275 0.0023781396 -0.011459349 -0.020706352
000060 c4 44 37 bc fa 10 cc 3c de 9b 37 3c cf 65 0a 3a
       -0.011185829 0.024910439 0.011206595 0.0005279453
000070 fa 28 af b9 72 80 43 bb 40 96 60 3b 19 07 99 3a
       -0.0003340913 -0.0029831198 0.0034269243 0.0011675089
000080 c8 77 be 3c f3 33 d8 ba 83 a5 ae 3c 99 48 35 bc
       0.023250476 -0.0016494974 0.021319157 -0.011064672
000090 93 29 32 ba db 72 bd 3c 39 76 40 3b 83 4e a7 bc
       -0.0006796356 0.023126056 0.0029367341 -0.02042318
0000a0 a4 31 6a bc 06 d7 65 bb 29 d7 79 bc ab a6 a5 ba
       -0.014294062 -0.003507079 -0.015249052 -0.0012638172
0000b0 5c bb 63 bb 6d 37 0c 3d a6 e3 f5 3c fd 16 34 3c
       -0.0034749126 0.034232546 0.030015778 0.010991809
0000c0 c7 c8 3f 3d d3 e4 4c 3b 0a 3f 33 3c e5 76 a9 bc
       0.046822336 0.003126432 0.010940323 -0.020686576
0000d0 a9 29 09 3c 79 8a d3 3c af a1 57 bc 3d cf 03 3a
       0.008371749 0.025822865 -0.013161107 0.00050281343
0000e0 78 30 9e 3c 44 bf e2 a3 a6 1a 21 bc ac 4a 1b 3b
       0.019310221 -2.4583973e-17 -0.009833014 0.002369563
0000f0 50 dc 44 3b 1d 75 ad 3b f9 be 85 3c 08 7d a0 bb
       0.0030038543 0.005293502 0.016326414 -0.0048977174
000100 f5 24 6b ba 3b 0f ef bb a8 a1 85 3b a8 32 96 bc
       -0.00089700456 -0.007295517 0.004078109 -0.018334702
000110 76 b0 0c bc 55 9d cc bb 90 65 87 3c 23 b3 b9 3b
       -0.008586993 -0.0062443414 0.016527921 0.0056671067
000120 8d fc 6a 3c 58 0a 7d ba a9 96 16 bb 3a c3 55 3b
       0.014342439 -0.00096527254 -0.0022977984 0.0032617585
000130 53 06 82 ba 05 85 06 3c d2 92 84 b9 d6 2c bf 3c
       -0.0009920098 0.008210425 -0.00025286392 0.02333681
000140 99 c5 f6 bb e7 2f 21 bb 82 99 a7 3c 5e ba fa 3b
       -0.0075308797 -0.0024595202 0.02045894 0.007651611
000150 f4 e6 85 bc ed c3 e2 bb 2c 9e 92 bb 8b ca 1d bb
       -0.016345479 -0.006920329 -0.004474422 -0.0024077024
000160 b0 7c 3b ba bd 2a 1c bb f2 6b 0f 2f 04 a1 72 ae
       -0.0007152064 -0.0023829185 1.3044124e-10 -5.516744e-11
000170 82 d4 b7 ab 1f a7 19 2c 2b af 4f af bc 10 92 2c
       -1.3061915e-12 2.1835379e-12 -1.8888772e-10 4.1514275e-12
000180 88 e7 fa 2c 64 fa ab 20 08 2e ef 2d 22 66 b9 ae
       7.1311325e-12 2.9134221e-19 2.7191596e-11 -8.4309684e-11
000190 b4 d2 e7 9c d2 57 e1 ae d8 80 67 80 9a 6c d6 ad
       -1.5340763e-21 -1.02474154e-10 -9.505277e-39 -2.4377212e-11
0001a0 3f bb 9b af 88 ce 95 2c 30 8e eb 2d da d8 15 ae
       -2.8327382e-10 4.2577643e-12 2.677955e-11 -3.407128e-11
0001b0 46 07 00 ac 93 b5 2c 2d 74 61 22 ac 0b e7 43 8a
       -1.8193932e-12 9.817386e-12 -2.3075682e-12 -9.432363e-33
0001c0 97 8e 48 ac 60 1c 82 ac a6 5b a3 2d 06 0e 59 2c
       -2.8500863e-12 -3.6979725e-12 1.8571655e-11 3.084534e-12
0001d0 2a 33 29 ab 38 b8 cf ab 12 15 dc a1 10 58 5a 27
       -6.0111866e-13 -1.4759366e-12 -1.4913357e-18 3.0301316e-15
0001e0 5a d7 25 a8 b7 ef d5 2c 4c 9e 41 af 3c 6a fb 2c
       -9.206037e-15 6.080438e-12 -1.7609486e-10 7.1456435e-12
0001f0 bc 88 64 29 58 fc 9c a9 ac e9 a8 ad e1 41 19 a2
       5.0744768e-14 -6.971566e-14 -1.920316e-11 -2.0770243e-18
000200 ce 1a 14 a3 ae 13 29 ab 33 0b a4 29 d0 a3 17 21
       -8.028772e-18 -6.006817e-13 7.285006e-14 5.1377594e-19
000210 f4 c8 b7 a6 e8 00 e8 aa a3 a9 0c ad cd d0 5d a0
       -1.2752644e-15 -4.1212108e-13 -7.9957456e-12 -1.8788515e-19
000220 1b 87 82 a7 48 84 80 a0 ce 0a 65 b1 94 53 8d 9d
       -3.622873e-15 -2.177158e-19 -3.3330028e-09 -3.7408807e-21
000230 82 fa c0 9e 46 3a 75 1d 80 80 6f 12 b4 ba 8f 1e
       -2.0432398e-20 3.2455607e-21 7.557349e-28 1.5217933e-20
000240 ee 52 7a 1e d5 1b 94 13 2a 06 b7 1f 30 ce 5f 80
       1.3252039e-20 3.7387897e-27 7.751371e-20 -8.798338e-39
000250 ea f5 2e 95 90 69 0f 9e 7c e1 9a 8f d8 33 ee 1c
       -3.5333012e-26 -7.592187e-21 -1.5272426e-29 1.576292e-21
000260 3e 55 7a 1f 98 c5 4e 1e 31 ab 0d 1d 17 d9 ef 1c
       5.301007e-20 1.0946411e-20 1.8749699e-21 1.587181e-21
000270 83 6f 86 92 76 cd 19 1f 96 cf 6a 9d 07 11 84 1d
       -8.484079e-28 3.2568964e-20 -3.1076962e-21 3.4957715e-21
000280 7a d5 2f 92 73 4f db 13 22 9c eb 9e 8c c7 01 1b
       -5.5483394e-28 5.5361715e-27 -2.4946168e-20 1.0735107e-22
000290 c6 ca 70 12 b7 45 29 13 7b 75 9b 9c 5a 73 6e 9d
       7.5980584e-28 2.136517e-27 -1.0287408e-21 -3.1558673e-21
0002a0 4a fa ed 11 3c b8 3b 1d 0b ce 90 1e 5c 8f 64 9b
       3.754626e-28 2.484449e-21 1.533181e-20 -1.890604e-22
0002b0 c0 de 12 12 7c 79 94 1d b3 e1 b6 1d 9e f0 96 93
       4.6344037e-28 3.9300886e-21 4.8408366e-21 -3.810259e-27
0002c0 a0 9b 54 93 34 d6 d8 13 2a 49 09 9e 8e 7c 1d 9d
       -2.683489e-27 5.4737286e-27 -7.2678496e-21 -2.084317e-21
0002d0 51 82 04 bd d3 e1 13 bd df e7 48 bd 6d 2e bf bc
       -0.032350842 -0.036104035 -0.049049255 -0.023337567
0002e0 a5 c9 65 bc 71 a1 75 bc c4 ae 2c 3c de dd 14 bc
       -0.014025127 -0.014992104 0.010539714 -0.0090861
0002f0 f7 69 35 bb 45 c8 87 bc 71 7e 26 3b c3 50 ab bc
       -0.0027681568 -0.016574988 0.0025404955 -0.020912534
000300 77 7a 9b a2 d3 f8 c2 3b 51 24 cc bb a1 c5 14 3b
       -4.21425e-18 0.0059500723 -0.006229915 0.0022700804
000310 d0 f7 a3 b9 0e cd ca bc d8 d0 0e 39 5e 96 a9 bc
       -0.00031274417 -0.02475598 0.00013619976 -0.020701583
000320 cf 1a 33 3b 39 9d d5 ba 8c e8 05 bc 82 81 d0 bb
       0.0027329212 -0.0016297466 -0.008173119 -0.006363095
000330 98 67 86 3b 78 85 63 3c d5 ef 78 bc 94 7b 91 bb
       0.004101705 0.013886802 -0.015193899 -0.0044397805
000340 c3 ee a9 3a e0 32 4e 3b a9 58 02 bc 70 e2 aa bb
       0.0012964833 0.003146343 -0.007955709 -0.0052149817
000350 d8 1e 67 3a 70 2c a8 3b 17 06 0e bc b9 29 b7 3b
       0.0008816547 0.0051322505 -0.008668444 0.0055896905
000360 3c 97 cd 3b 8f b2 8d bb fd c3 cc 3a 8b d9 6a 3a
       0.006274132 -0.0043242644 0.0015622374 0.0008958808
000370 71 d8 ed 3b 44 0b 71 ba 16 8a e3 3b b8 f1 cc ba
       0.007258468 -0.0009195099 0.0069439514 -0.0015636003
000380 67 0f 84 3a 28 29 a2 39 47 80 55 bb 64 3a 25 3d
       0.0010075391 0.00030929712 -0.003257768 0.04033889
000390 a0 1e 01 bd da c3 6d 3d 78 17 13 3d fa fc b1 3b
       -0.031523347 0.058048107 0.035911053 0.0054317685
0003a0 f4 16 35 bc 73 d3 a3 3d 5d 4f 56 3b fc ca 15 3a
       -0.011052836 0.07999315 0.0032701113 0.0005714146
0003b0 34 2b 78 3d 52 b5 f5 a3 6a 25 cb 3c d8 8a ef bb
       0.060588077 -2.6639745e-17 0.024798114 -0.0073102526
0003c0 ad 58 81 3c a1 b1 d5 3b ba db 3b 3d 7e bf 8c bb
       0.015789354 0.006521419 0.045863844 -0.0042952886
0003d0 73 53 99 bc c9 71 45 3b 0f 50 42 3b f0 09 31 3c
       -0.01871655 0.0030127636 0.002964977 0.010805592
0003e0 f6 29 0f 3d 61 cc 76 3d eb d3 cf bc 26 d0 a4 bc
       0.034952126 0.060253505 -0.025369605 -0.020118784
0003f0 4f 9e c4 bc 42 7e 68 3a 45 6e 97 3b e0 55 a7 bb
       -0.024001269 0.00088689115 0.0046212994 -0.0051066726

weight_hh_l0_reverse f4 [256, 64]
000000 ea 81 4e 00 7b 3b 74 00 65 0a 74 00 36 a8 e5 00
       7.209773e-39 1.0674255e-38 1.0656646e-38 2.1090671e-38
000010 78 0a e4 80 c1 a7 48 00 12 82 0f 80 6b ac 2f 80
       -2.0942249e-38 6.672334e-39 -1.424193e-39 -4.37812e-39
000020 16 51 90 00 99 0d 2f 00 d8 84 48 80 46 f4 0f 00
       1.32534e-38 4.321146e-39 -6.659811e-39 1.465161e-39
000030 35 db 94 80 a0 e6 30 80 63 5f d0 00 66 28 6b 00
       -1.367029e-38 -4.490836e-39 1.9136002e-38 9.84089e-39
000040 4c b7 39 00 0e cb 59 80 53 ec b4 80 e8 10 23 80
       5.300378e-39 -8.246201e-39 -1.6615166e-38 -3.220307e-39
000050 ea fe 0f 00 80 46 57 80 4f a8 36 80 d3 03 26 80
       1.468978e-39 -8.014979e-39 -5.019495e-39 -3.491121e-39
000060 95 09 bc 80 47 5d d2 80 b0 2a 94 81 ea f5 11 00
       -1.726851e-38 -1.9318916e-38 -5.442787e-38 1.649421e-39
000070 34 31 79 80 cc 18 3c 00 55 3a 77 80 f3 40 14 80
       -1.1129746e-38 5.519025e-39 -1.094935e-38 -1.86001e-39
000080 2a 88 65 00 8d 3a 39 00 a0 73 4f 80 af 63 6e 80
       9.324232e-39 5.255627e-39 -7.296483e-39 -1.0137664e-38
000090 0e 70 2d 80 30 2a 56 80 5c 4f 37 00 1c 6c 2d 80
       -4.172795e-39 -7.912987e-39 5.079421e-39 -4.17138e-39
0000a0 ae 7b c7 80 7c a1 ba 00 cf 7d 58 80 88 0c 58 00
       -1.8319632e-38 1.7139332e-38 -8.126655e-39 8.086019e-39
0000b0 c0 fe a1 80 46 39 e5 80 f9 22 94 00 19 88 53 00
       -1.4876902e-38 -2.1050874e-38 1.3604199e-38 7.671169e-39
0000c0 b4 89 c1 00 fa 05 14 00 76 63 16 80 5a 68 3d 80
       1.777365e-38 1.838854e-39 -2.056061e-39 -5.6394e-39
0000d0 b4 d5 08 80 cc bc 7f 80 e6 37 3c 80 62 0c 12 80
       -8.11346e-40 -1.1730836e-38 -5.530182e-39 -1.657481e-39
0000e0 e6 d4 97 00 cc 5f 31 00 07 c2 94 00 a2 91 7e 80
       1.3943533e-38 4.534305e-39 1.3661257e-38 -1.1623516e-38
0000f0 f1 1c 8a 00 8f a7 d1 00 22 a3 54 80 bc 7b 27 00
       1.268368e-38 1.9253727e-38 -7.772703e-39 3.625972e-39
000100 71 97 d8 80 af b0 aa 80 a1 3d bb 80 db ab a2 80
       -1.9890794e-38 -1.5675416e-38 -1.7195346e-38 -1.4939e-38
000110 6f ce 54 80 08 a1 8f 00 94 45 6f 80 52 ab b7 80
       -7.788236e-39 1.3190243e-38 -1.02187e-38 -1.6867354e-38
000120 48 66 52 80 ac 34 0a 00 ad bb 0d 80 ac ba 0b 00
       -7.567202e-39 9.3725e-40 -1.261187e-39 1.077156e-39
000130 a6 f6 2e 00 70 71 05 80 99 1b b0 00 94 92 22 80
       4.312914e-39 -4.99871e-40 1.6172947e-38 -3.174989e-39
000140 66 b5 9d 00 80 ce 69 80 be ac c5 80 f6 42 8d 00
       1.4483246e-38 -9.716805e-39 -1.8153561e-38 1.2972826e-38
000150 6a ba d2 00 c9 72 3c 80 be d1 3f 80 3d db b3 00
       1.9352327e-38 -5.551307e-39 -5.860878e-39 1.6517202e-38
000160 70 6b 19 80 40 07 86 00 1b 15 6f 80 c9 a8 42 00
       -2.334429e-39 1.2308557e-38 -1.0201311e-38 6.121691e-39
000170 f1 c3 96 00 a0 02 03 00 05 9f 29 80 7b 5d bc 00
       1.3845615e-38 2.76448e-40 -3.822301e-39 1.7298608e-38
000180 20 f6 8d 80 e7 3a d2 00 06 06 ad 00 8b 1d 63 00
       -1.3037098e-38 1.9306584e-38 1.5889702e-38 9.102312e-39
000190 ac 75 0e 80 e2 7e bf 00 2a 93 83 00 51 85 8d 00
       -1.32791e-39 1.7586097e-38 1.2083243e-38 1.299663e-38
0001a0 40 5b 72 00 a8 e0 3d 80 ef 79 81 00 40 13 2e 00
       1.0501981e-38 -5.682557e-39 1.189052e-38 4.231338e-39
0001b0 70 6a 7c 00 70 7b 5d 80 a3 e8 b6 00 b7 95 c9 80
       1.1425784e-38 -8.584982e-39 1.6797515e-38 -1.8512642e-38
0001c0 b7 64 eb 00 ff f1 ba 00 f5 b8 bf 00 bb 4b 4c 80
       2.1617471e-38 1.7168214e-38 1.760693e-38 -7.006665e-39
0001d0 e4 ed 88 00 76 40 4f 00 ce e2 54 00 24 ca 8f 00
       1.2574967e-38 7.278128e-39 7.795544e-39 1.320499e-38
0001e0 4e 8e bc 00 48 98 18 00 46 b4 00 80 88 fe e8 80
       1.7316123e-38 2.25868e-39 -6.467e-41 -2.1397144e-38
0001f0 f1 89 91 00 01 5c 4f 00 c1 73 85 00 ac 4d b9 80
       1.3365631e-38 7.288009e-39 1.2255646e-38 -1.701743e-38
000200 66 27 57 80 3e 09 c5 00 f8 21 5e 80 db f1 6e 00
       -8.003822e-39 1.8094908e-38 -8.644722e-39 1.0188666e-38
000210 e6 54 eb 80 47 73 a6 00 56 37 4e 80 f6 bf 43 80
       -2.1611797e-38 1.5286046e-38 -7.18302e-39 -6.221841e-39
000220 e5 24 7a 80 0b 26 15 00 c5 99 6c 80 70 61 5a 80
       -1.1217166e-38 1.942193e-39 -9.973396e-39 -8.300149e-39
000230 11 78 e3 80 dc a2 a7 81 5d 4f d2 00 18 06 1c 00
       -2.088973e-38 -6.1579803e-38 1.9313924e-38 2.57358e-39
000240 43 94 12 80 3c 9d 5c 80 34 cb ea 80 17 57 af 00
       -1.706225e-39 -8.505271e-39 -2.1562402e-38 1.6102454e-38
000250 30 af 4a 00 3d 04 c0 81 06 48 57 80 72 49 0e 80
       6.858672e-39 -7.053574e-38 -8.015525e-39 -1.312044e-39
000260 20 31 c2 00 a8 b7 c9 80 7b df 73 00 09 01 ce 80
       1.7833709e-38 -1.8524818e-38 1.0641252e-38 -1.8918484e-38
000270 7d 21 33 00 2c 11 ba 80 0f 10 b2 80 97 2b 22 80
       4.695624e-39 -1.7087562e-38 -1.6352479e-38 -3.138044e-39
000280 9c 8c 7f 00 ce 86 bd 00 01 8d 9c 00 52 03 6f 80
       1.1713549e-38 1.7405268e-38 1.437692e-38 -1.0194931e-38
000290 c8 1e 0b 00 de a6 9a 80 2c 46 30 00 e6 de 82 00
       1.021233e-39 -1.4202527e-38 4.433277e-39 1.2018575e-38
0002a0 31 ad 68 80 fa a7 b4 80 82 20 11 80 dc 90 a3 00
       -9.613021e-39 -1.6590648e-38 -1.572865e-39 1.5021152e-38
0002b0 2e 0f 62 80 27 40 70 80 4a b7 58 00 bb 86 6e 00
       -9.005324e-39 -1.0308589e-38 8.147275e-39 1.0150237e-38
0002c0 df e4 7f 00 e0 b5 6a 80 a6 10 a2 00 61 88 01 80
       1.1745211e-38 -9.799807e-39 1.4883323e-38 -1.40759e-40
0002d0 16 9c 9b 00 bd 85 7e 00 c1 29 cf 00 25 c9 26 00
       1.4290495e-38 1.1619249e-38 1.9024926e-38 3.561906e-39
0002e0 97 4f 1c 00 70 47 1b 80 37 61 82 00 7b 27 80 00
       2.599945e-39 -2.505185e-39 1.1973489e-38 1.1769106e-38
0002f0 08 05 9b 80 11 28 a3 00 25 bb b6 00 48 82 a5 80
       -1.4236307e-38 1.4983559e-38 1.6781195e-38 -1.5199593e-38
000300 15 70 59 00 40 5d 35 80 18 21 23 00 ef 10 5c 00
       8.213567e-39 -4.900733e-39 3.226114e-39 8.45494e-39
000310 a5 b1 6a 00 b1 9b 96 00 21 3b ab 80 53 9e bc 00
       9.79829e-39 1.3831176e-38 -1.5725081e-38 1.732187e-38
000320 ce 22 23 80 12 44 13 00 14 a1 31 80 6f eb e6 80
       -3.226728e-39 1.769293e-39 -4.557723e-39 -2.1206622e-38
000330 24 e6 1a 80 32 b9 32 80 ed e2 7f 80 f8 cc 03 00
       -2.470282e-39 -4.65821e-39 -1.1744514e-38 3.49035e-40
000340 df 86 73 00 b6 93 29 80 70 b4 96 00 35 f9 2b 00
       1.0609465e-38 -3.818244e-39 1.3840053e-38 4.038325e-39
000350 d5 7c d3 80 58 ef a3 80 2f 87 91 80 2e 09 c4 80
       -1.9422071e-38 -1.5055046e-38 -1.3364642e-38 -1.800305e-38
000360 90 42 06 00 f6 a1 4b 80 45 e9 22 80 8f a4 6e 80
       5.74891e-40 -6.945763e-39 -3.206088e-39 -1.0160937e-38
000370 f5 13 b4 00 e8 00 7c 00 d8 e8 86 00 ed 4e 89 00
       1.6537549e-38 1.1387927e-38 1.2389485e-38 1.2609776e-38
000380 fe 10 3c 80 69 2f b0 80 39 99 98 80 db 18 23 00
       -5.516225e-39 -1.6180055e-38 -1.4013961e-38 3.223159e-39
000390 77 06 19 80 8f bb 93 01 a3 85 c2 80 24 14 51 80
       -2.298207e-39 5.4268405e-38 -1.7864026e-38 -7.4459e-39
0003a0 95 03 a6 80 1b 89 bc 80 f2 82 47 80 6a e3 01 00
       -1.5245977e-38 -1.7314257e-38 -6.567295e-39 1.73416e-40
0003b0 9c 33 2e 01 06 eb 21 80 f4 fb 7c 00 7a 97 b8 81
       3.199578e-38 -3.114882e-39 1.1477985e-38 -6.7808283e-38
0003c0 a2 a0 02 00 80 eb d2 80 52 ad 0b 00 92 04 09 80
       2.41295e-40 -1.9369936e-38 1.072366e-39 -8.28159e-40
0003d0 0b b1 6e 80 88 4f 22 80 b0 b6 50 80 aa 48 a9 00
       -1.0165416e-38 -3.150937e-39 -7.412376e-39 1.5546266e-38
0003e0 f4 d0 25 80 0a 75 96 80 d3 82 ad 80 51 97 cf 00
       -3.472872e-39 -1.381731e-38 -1.5934472e-38 1.906423e-38
0003f0 b8 32 d7 80 c4 70 13 00 01 4a 46 80 69 9b 30 80
       -1.9762826e-38 1.785327e-39 -6.455032e-39 -4.463854e-39
